Parallel PINN/helm_autograd_last.pt (torch, 108325 bytes, 35 tensors)

linears.0.weight f4 [20, 2]
000000 33 fe 02 bb a5 17 83 3a 1f 5e c5 3d 02 87 25 3d
       -0.001998794 0.0010001553 0.09637093 0.040411957
000010 b1 ea 6b be 17 84 1d 3f 34 62 5a bf f6 4c 57 bf
       -0.23038746 0.6152968 -0.85306096 -0.8410181
000020 99 20 0e be 9c 77 4d bb bc 9e b7 3e 4a d0 0a 3c
       -0.13879623 -0.003135181 0.35863292 0.008472512
000030 a3 5c c8 bd fa 17 50 be 19 54 1f be bf a8 bc 3e
       -0.09783294 -0.20321646 -0.15559424 0.36847493
000040 e7 4e 9a be 65 d0 00 be 2f 31 11 bd 87 45 06 3f
       -0.30138323 -0.12579496 -0.035447296 0.5244984
000050 32 78 01 3f 6a aa 33 bd f5 d9 d6 3e 01 9c ed 3e
       0.5057403 -0.04386369 0.41963163 0.46408084
000060 a9 62 12 3e 83 ec 1a bf db 6b c8 3e f2 af 0b be
       0.14295448 -0.6051714 0.39144787 -0.13641337
000070 c0 6f e1 3e 98 56 a0 bd 38 ca 1a 3f d7 0f 75 be
       0.4403057 -0.078290164 0.6046481 -0.23931824
000080 47 ed 80 3e d0 a4 77 bd e1 c2 ac 3a 2e 5c aa 3e
       0.25181028 -0.06045991 0.0013180637 0.33273453
000090 ec 61 81 be bb cd ea bd 06 c0 32 be fe 9a 17 3f
       -0.2527002 -0.11465021 -0.17456064 0.59220874

linears.0.bias f4 [20]
000000 04 76 7c ba a3 81 02 bd 74 3c 76 be b5 d0 98 bd
       -0.0009630623 -0.031861912 -0.24046499 -0.07461683
000010 88 8a 7a bc 81 f3 51 bc 90 1f 39 bd db b6 22 3e
       -0.0152918175 -0.0128144035 -0.045196116 0.15890066
000020 7e 12 c9 bd 02 6a 8c 3d b7 8d 72 be 3d d7 ab bc
       -0.0981798 0.06856157 -0.23686872 -0.020976657
000030 52 53 2b be e0 05 2d 3e ad fa 92 be 6d 37 ac 3d
       -0.16731003 0.16896772 -0.28706875 0.08409009
000040 df 35 7b 3c 3d b0 48 bd dd c9 1b be 16 a4 48 be
       0.015332668 -0.0489962 -0.15213723 -0.19593844

linears.1.weight f4 [20, 20]
000000 37 ad 94 bd 05 19 91 3d 09 a0 30 3f 9e 19 0b 3e
       -0.072596006 0.0708485 0.68994194 0.13583991
000010 c2 58 92 3e cb e0 33 be f0 44 bd be f5 38 40 be
       0.28583342 -0.1756622 -0.36966658 -0.18771727
000020 cd 30 a9 3d 78 5a 63 bd 6a b9 9d 3e ef f8 bb 3d
       0.08261261 -0.0555062 0.30805522 0.0917834
000030 56 18 c2 be 3e b6 99 be 76 d8 d0 3d 9c b3 0a 3e
       -0.37909192 -0.30021852 0.10197537 0.13545078
000040 79 cc ba bc a0 b4 67 3e 2a 19 39 3b 8f cc 04 3f
       -0.022802578 0.22627497 0.0028243759 0.5187463
000050 ed 8a 19 be fa 8f 20 3c 08 c5 70 3d 3a 0b 80 3e
       -0.14994402 0.009799952 0.058781654 0.25008565
000060 65 71 2c bc 85 1e 05 bf 9e fb b8 3e 0c 05 88 bd
       -0.010525082 -0.51999694 0.3612947 -0.066415876
000070 e4 5c 32 3e 2a 92 ee be ba 8f ef bd 36 71 91 be
       0.17418247 -0.4659589 -0.116973355 -0.28406686
000080 b4 e1 2a 3e 45 85 06 bd 92 cb 37 3e 09 4f b0 be
       0.16687661 -0.03284194 0.1794875 -0.344353
000090 8b 9f 14 3e e8 13 04 bd c0 c9 78 3f 14 50 90 3e
       0.14513986 -0.032245547 0.97182846 0.28186095
0000a0 16 8c 03 be 4a 44 55 3e 38 da 95 be df ee 0d bf
       -0.12846407 0.20826831 -0.2926805 -0.55442613
0000b0 89 f4 82 3d ed aa 70 bd f0 aa b0 be 75 d5 6d 3c
       0.06394298 -0.058756758 -0.34505415 0.014516224
0000c0 83 26 42 bf 5e 0b aa 3e 7c 4b 7c bc ff 36 10 3f
       -0.75840014 0.33211797 -0.015398856 0.5633392
0000d0 4a 2a d4 be 2c 3e 1d 3e f4 b3 ab be 2a 6e 13 3f
       -0.41438514 0.15355748 -0.3353573 0.5758997
0000e0 c8 72 ab 3d 47 83 40 3e b2 26 23 bf 22 b3 a6 3e
       0.08371502 0.18800078 -0.6373092 0.32558542
0000f0 3c 4e 86 be 6f 52 94 3b 58 fc a4 3c 73 4b bc 3e
       -0.26231563 0.0045264284 0.020139858 0.36776313
000100 00 2d b0 3c 4c 1c 04 3e d4 5b 1c 3e c3 82 f4 3e
       0.021505833 0.1290142 0.15269405 0.47756013
000110 9c f0 45 be c6 9d 1b be ac 44 a6 bd bd a5 0e be
       -0.19330066 -0.15196905 -0.08118567 -0.13930412
000120 5a 10 a1 3d 44 e7 fc be 3f f9 e0 be 86 9d b8 bb
       0.07864447 -0.49395192 -0.4394016 -0.0056340126
000130 62 1c 87 bd 16 4e ec 3d 74 df 80 3e 5a 2e a8 be
       -0.065972105 0.11538331 0.2517048 -0.32847863
000140 6f 92 43 3d 56 23 7a 3e a2 5b 07 be 15 df 59 3e
       0.04774707 0.24427542 -0.13218549 0.21276505
000150 c4 76 35 bd 91 c2 90 3d 51 9b 21 be cf 01 77 3e
       -0.044302717 0.070683606 -0.15781905 0.24121784
000160 81 b9 30 be b6 0a 5b 3e c3 da 0c be 98 16 8c 3e
       -0.17258264 0.21390805 -0.13755326 0.27360988
000170 93 d4 80 3d 0c bf 05 bc b8 94 52 3e 6d 90 fc be
       0.06290545 -0.008163225 0.20564544 -0.49328938
000180 a2 6b 3c bd 6b 98 0a 3d 7d d8 0f be ca 30 f7 3d
       -0.046001084 0.033836763 -0.14047427 0.12069853
000190 9e 09 90 3b 4c 9b 19 be 03 1d 8d be 66 4f 80 3e
       0.0043956777 -0.15000647 -0.27561197 0.25060576
0001a0 cf 8c 9d 3c f7 99 f1 3d a4 c7 5a 3e 44 ed 03 bf
       0.019232182 0.117969446 0.2136522 -0.51533914
0001b0 9d 7f c8 bc b0 80 fc be 36 d9 ad 3e 57 f3 cf bd
       -0.024474913 -0.4931693 0.3395478 -0.10153835
0001c0 42 10 25 3f 99 31 3c 3e 91 7c 78 3d d0 0a b5 3e
       0.6447793 0.18378295 0.06066567 0.35359812
0001d0 a9 fb 17 3e 87 76 0e bd 34 99 68 be a3 35 7f bf
       0.14842094 -0.034781005 -0.22714692 -0.9969122
0001e0 b4 ac cf bc 6f 6b 0d bd 5c f8 13 3d d0 15 47 be
       -0.025350906 -0.034526285 0.036125526 -0.19441915
0001f0 14 e5 2f 3e 7f 4c b0 3d c6 e1 6a be ea d9 54 be
       0.1717723 0.086083405 -0.22937688 -0.20786253
000200 8e d0 0b bf 0b 31 16 3e 9d 17 e8 3d 07 8a 4d 3f
       -0.54615104 0.14667146 0.11332629 0.8028874
000210 4a 36 4c be e8 86 05 3e a8 6c a4 bd ff 1f 1d be
       -0.19942585 0.13039744 -0.08028537 -0.15344237
000220 2d 53 89 3e e9 a2 7a 3e 33 fc 76 be 62 9b b9 3e
       0.2682127 0.24476208 -0.24119644 0.3625136
000230 80 ac 9b 3d af c8 b8 3c f0 1c 2f bd 3c 44 cf 3e
       0.07601261 0.02255663 -0.042752206 0.40481746
000240 18 46 cb bd be ee 3e 3e 9b 36 c1 be fe 25 df 3d
       -0.09925479 0.1864576 -0.37736973 0.10895918
000250 e9 94 a2 bd 09 d3 20 3b 7a 08 57 be f5 2e aa 3d
       -0.079385586 0.002453985 -0.20999327 0.083097376
000260 af 37 bd be 31 24 12 be 11 e1 d9 3d 24 8e 5c 3e
       -0.36956546 -0.14271618 0.10638631 0.21538597
000270 07 27 0a 3e 9b 9b 5a 3e 47 d0 4b bf 9b d2 51 3e
       0.1349145 0.21348421 -0.7961468 0.20490496
000280 8d c4 0c be 06 74 4a 3e d0 df a9 be 8a f5 cf be
       -0.13746853 0.19770822 -0.33178568 -0.4061702
000290 7b a0 27 be cd 3a 23 bf f5 6d a7 bc 64 b7 88 3e
       -0.16369812 -0.637616 -0.020438174 0.26702416
0002a0 bc a0 c5 3e a6 20 39 3d 25 33 09 bc bd ae 9c 3d
       0.38599193 0.04519715 -0.00837401 0.07650516
0002b0 b5 42 b7 3c 9c 0b ea bd ff 18 21 bf 4d ba 14 bf
       0.022370676 -0.114279956 -0.62928766 -0.5809677
0002c0 90 cf 12 be fd da 3c be 32 d7 3a 3e d0 f2 38 be
       -0.14336991 -0.18442912 0.18246153 -0.18061376
0002d0 0e 04 9c 3d b0 31 8c be dc f8 dd be 49 f9 24 bf
       0.07617961 -0.2738166 -0.43353927 -0.6444288
0002e0 1d d1 3f 3e 1e e0 f4 bd 1c ad b7 3e 3b 5c 3b be
       0.18732114 -0.119568095 0.3587426 -0.18296902
0002f0 17 df ea 3e d8 d3 c7 bd 92 39 44 be b5 8a 13 3e
       0.4587333 -0.09757203 -0.19162586 0.14408381
000300 62 a4 56 3e d1 74 23 be b6 74 3d be 05 e7 9c bd
       0.20961145 -0.1596253 -0.18501553 -0.07661251
000310 b8 85 0f be c5 21 a6 bd 03 83 09 3e 18 52 e8 be
       -0.14015853 -0.0811191 0.13428883 -0.45375133
000320 9f 5e 4b 3d 5a 8f 43 3e 4a 9e 81 be 6e e3 58 be
       0.049650785 0.19097653 -0.25316077 -0.21180508
000330 a1 ac 7c 3c fe 8a 87 be 23 1a 70 3e 7d f7 45 bf
       0.015422017 -0.2647323 0.2344747 -0.7733076
000340 55 96 d0 3d 50 99 72 be 71 1a c4 3d 7c b7 87 be
       0.101849236 -0.23691297 0.09575356 -0.26507175
000350 c4 46 03 3f 6b 18 4e be 18 d4 a8 3e 19 b0 18 be
       0.51279855 -0.20126502 0.32974315 -0.14910926
000360 df 3f 85 3e 5f 5a c4 bd 9a 74 87 3e a0 38 6a 3d
       0.26025292 -0.095875494 0.26456147 0.057182908
000370 1c 03 0c 3e f2 0d f5 be 65 dd 39 bf 92 c5 48 3e
       0.13673061 -0.47862202 -0.72603446 0.19606617
000380 36 21 4f 3e f2 68 c2 be 74 95 7f 3e 40 66 10 be
       0.20227513 -0.37970692 0.24959356 -0.14101505
000390 9d 1f ec 3e 6b 00 10 be 80 1e 98 bf b9 ee fa be
       0.4611787 -0.1406266 -1.1884308 -0.49010256
0003a0 bd 48 8a 3d 9d 9f 50 bd 07 0c 28 bf dd 31 b7 be
       0.06752155 -0.05093347 -0.6564335 -0.3578023
0003b0 d9 27 04 be ab 4a 25 be b4 3f 08 3e 1a 1f 3c bf
       -0.12905826 -0.16141765 0.13305551 -0.7348496
0003c0 05 03 98 bd 56 c0 85 3e b2 2a 38 be 43 06 ce bd
       -0.07422451 0.26123303 -0.17985037 -0.10059788
0003d0 71 fd e0 be 02 fe a2 3e 97 3b be bd a8 01 9a 3e
       -0.4394336 0.31834418 -0.092887096 0.3007939
0003e0 79 2c e2 be 04 33 98 bc 1e 50 a3 3e 87 36 09 be
       -0.44174555 -0.018579014 0.31897062 -0.13399707
0003f0 d4 e5 33 be 5e b3 7b 3f d6 bb 1b bc 14 96 07 3f
       -0.17568141 0.9832057 -0.009505233 0.52963376

linears.1.bias f4 [20]
000000 c9 87 22 be 50 81 e4 be 6d 65 bf 3e ad ed 3e 3d
       -0.1587211 -0.44629908 0.3738207 0.046613384
000010 61 5e 01 be a3 0f 3c bd 7e cf ea bd 02 91 12 3d
       -0.12633659 -0.04591335 -0.11465357 0.03578282
000020 22 e4 d8 3d 0b 40 8d bd 62 9e 4a be bd 15 b4 3e
       0.10590388 -0.06896981 -0.19786981 0.35172835
000030 9f d0 b1 3e 95 3d bd bd 0b 5a e7 3a cb 7a 5b bd
       0.34729478 -0.092402615 0.0017650736 -0.0535839
000040 68 93 ae bb 3d ac 25 3d fa be c0 bd 43 f6 d3 bd
       -0.005327631 0.040447462 -0.09411426 -0.10349705

linears.2.weight f4 [20, 20]
000000 9f 3a 46 3e 38 75 be be 1d e5 f6 3e 5c 6c 3b be
       0.193583 -0.37198806 0.48221675 -0.18303055
000010 b2 66 2c 3e 99 66 08 be ef 1d a8 3e 33 21 cc bd
       0.1683605 -0.13320388 0.32835338 -0.0996727
000020 a0 ac 43 3d cb 68 44 3d 14 b1 2f be ec e0 25 bf
       0.04777205 0.0479515 -0.17157394 -0.6479633
000030 19 9a 92 3e a2 f3 57 3e 86 2d 16 3e 06 a1 b4 3e
       0.28633192 0.21089032 0.14665803 0.352791
000040 82 97 8e be f0 37 93 be e6 64 5b 3e 90 a3 7a bd
       -0.27849966 -0.28753614 0.21425208 -0.06119114
000050 59 43 b2 3e 7a 83 0c 3e 33 e1 cc 3d 2e 15 42 bd
       0.34817007 0.1372203 0.10003891 -0.04738348
000060 e8 f6 15 bc 65 9d ae be 5d 43 6a 3e 10 ba 4f bf
       -0.009153105 -0.34104457 0.2287726 -0.81143284
000070 83 b0 cc 3e 53 02 3f 3f b9 9b 96 3d fb aa c7 be
       0.39978418 0.7461292 0.073539205 -0.38997635
000080 9f cf df be e9 d0 2e be 53 ea 9e 3e 96 2b 73 3c
       -0.4371309 -0.1707188 0.3103815 0.014841935
000090 ea 14 9a bc e3 57 c4 3e 7f ac 3a be f1 b9 f7 3d
       -0.0188088 0.38348302 -0.18229865 0.120960124
0000a0 21 e1 26 bc f9 e6 5e 3d ce 6e ad 3d f1 22 99 3e
       -0.010185511 0.05441949 0.084684 0.2990947
0000b0 bc 99 83 be 1b ef b2 3d bc e8 45 3d 87 58 bc be
       -0.25703228 0.08737012 0.048317656 -0.3678629
0000c0 95 20 05 3e 16 bb ac 3e 63 32 a9 3c 73 56 3e 3f
       0.1300071 0.33736485 0.02065391 0.7435066
0000d0 38 76 5b 3f 56 7c 04 be e5 e4 de 3e ce de 0c 3e
       0.8572726 -0.12938055 0.43534008 0.13756868
0000e0 8d a5 a8 be 48 53 e7 3c 2a 82 51 bc d2 8e 75 3d
       -0.32938805 0.028237954 -0.012787381 0.059950657
0000f0 d7 b9 27 3f 70 d8 30 be 0d 4c 3f bc 19 17 b5 3e
       0.65517944 -0.17270064 -0.011675847 0.35369185
000100 9e b6 7e 3e 28 fb b4 3e ea 65 3c be 47 38 81 3e
       0.2487435 0.35347867 -0.18398252 0.2523825
000110 68 75 0e 3e 1d c9 53 bf ce ee 59 be cf 77 6e 3e
       0.13911974 -0.8272875 -0.21282503 0.23287891
000120 85 c4 96 be 4b a3 9f be 19 36 95 3e 7a 99 63 3d
       -0.29446808 -0.3117927 0.29142836 0.05556629
000130 dc 1e 8b 3e ed a6 83 be ee e2 d8 be b4 5e 5c bc
       0.2717198 -0.25713292 -0.42360634 -0.013450313
000140 48 f1 c6 3e 72 f7 c6 3d da 37 1d 3e 77 c2 4a be
       0.38855958 0.09715165 0.15353337 -0.19800745
000150 79 87 35 3e 81 cb 99 bc ea 06 72 3d 38 24 30 be
       0.1772746 -0.018773796 0.059088625 -0.17201316
000160 18 cd 87 3e 8d 38 65 bd 4a 14 69 bc 74 d2 0f 3e
       0.26523662 -0.055962134 -0.014226029 0.14045125
000170 5e 10 24 be 42 70 4c be a3 d4 74 3d cc af fa bc
       -0.16021869 -0.19964698 0.0597731 -0.030601405
000180 6c 4b 5f bd 15 0a 10 3e 5a f7 85 3e 7b d5 b7 3d
       -0.054515287 0.14066346 0.26165277 0.08976265
000190 d6 90 98 be cb 0e 96 be b0 d0 4d 3e 70 67 03 3d
       -0.29798 -0.2930816 0.20099139 0.032081068
0001a0 16 2f b4 3e 5d e0 70 bc 42 20 ed 3d d7 9b 66 be
       0.35192174 -0.01470193 0.11578418 -0.22520386
0001b0 2f 6d 64 3e 4b 08 3e 3f ae a4 30 3d 6a 37 90 3c
       0.22307275 0.74231404 0.0431258 0.017604548
0001c0 2f 55 2e be cc 98 cc be 22 4d 67 bc b5 79 8a 3d
       -0.17024682 -0.39960325 -0.014117511 0.06761495
0001d0 4d bd 00 bf f9 80 3b 3e 57 bb 05 be d3 af a6 3d
       -0.5028885 0.18310918 -0.13059746 0.081390046
0001e0 e1 5e 87 3d fb df b7 bc 5b d9 39 be d6 f3 c3 bd
       0.066098936 -0.02244567 -0.18149321 -0.095679924
0001f0 71 cc 68 bd d0 60 0b 3f 17 1d 82 3d 75 61 74 be
       -0.056835596 0.544446 0.06353205 -0.23865302
000200 55 d6 a2 3d 49 35 1e bf 75 bc 1e be 29 e6 8c bb
       0.07951037 -0.61800057 -0.15501578 -0.004299898
000210 ac 5d cc 3d bd 72 db 3d f1 50 a6 be 9f a0 34 be
       0.09978804 0.10715244 -0.32483628 -0.17639397
000220 3e 74 e0 be 54 6d de bb 8e 28 c8 3c ef 41 94 be
       -0.43838686 -0.0067879353 0.0244334 -0.28956553
000230 9b 39 f4 3d 43 a7 41 bd 3a d4 c5 be 87 19 75 bd
       0.1192505 -0.047278654 -0.3863848 -0.059838798
000240 27 15 43 3e 28 e0 ab 3e 3d 3d 3f be 1a 70 0e 3f
       0.19051038 0.33569455 -0.18675704 0.55639803
000250 0a 55 e6 be 3e b8 49 bf 60 e9 2c bf b6 e3 31 3e
       -0.44986755 -0.78796756 -0.675436 0.17372021
000260 b9 5f 5d 3d f4 cd be b9 92 fb bd bd 21 81 c0 3e
       0.054046366 -0.0003639307 -0.09276499 0.37598518
000270 70 2c ef 3e 45 55 b4 3d 20 6d 73 3d 57 d6 c3 3d
       0.4671359 0.08805326 0.05943024 0.095623665
000280 f7 aa 87 3e 51 37 6d 3e 22 fb 48 bd 8f eb b0 bd
       0.26497623 0.23165633 -0.049067624 -0.08638679
000290 02 34 c7 3d 16 ae 54 3e c3 91 4f be 49 cf 46 3e
       0.097267166 0.20769534 -0.20270447 0.1941501
0002a0 bf 8d 3c bf 15 57 9b be 6d 05 f2 3e 5c 69 e2 bd
       -0.7365379 -0.30339876 0.47269765 -0.11055252
0002b0 5c b7 8c 3e d9 dd b2 3e aa f8 b9 be 8f aa 8e 3e
       0.27483642 0.3493488 -0.36322528 0.278645
0002c0 9c 34 ac 3c d4 7d 9d bd 53 ff 94 3e 01 64 8a be
       0.02102118 -0.076900154 0.29101047 -0.27029422
0002d0 be 23 b2 3d 1b 84 33 bb 7c 1a f7 3d 2a 01 76 3d
       0.086982235 -0.0027391973 0.12065598 0.060059704
0002e0 15 89 23 3e 2d 3f 14 3e 63 8f 0c be aa 65 3d be
       0.15970261 0.14477225 -0.13726573 -0.18495813
0002f0 da 92 c7 3e 8e 18 36 bf c2 17 bc be dc 0d 31 3e
       0.38979226 -0.7113122 -0.36736876 0.17290443
000300 e8 d7 d2 3e c1 1c d7 3c 9f 22 dc bb 3d 24 19 3f
       0.41180348 0.026258828 -0.0067179943 0.5982092
000310 23 64 20 3e 13 ad 6f be 59 f5 52 be ef 9a 55 3e
       0.15663199 -0.23405866 -0.20601405 0.20859884
000320 2a 60 cc bd 5d 28 d0 3e a9 c1 07 bf a2 8a 9b 3e
       -0.09979279 0.40655795 -0.53029877 0.30379206
000330 fb 36 a9 3d fd 0d 86 bd 17 53 c6 be 7e 0d 83 be
       0.0826244 -0.06545637 -0.38735268 -0.2559623
000340 5d d3 62 3e 2c 29 fc 3d 40 e4 f5 3e 73 50 9b be
       0.22150941 0.123125404 0.48025703 -0.30334815
000350 4f 74 e6 be 24 2a 4e 3e 24 7c bb ba d2 05 22 be
       -0.4501061 0.20133263 -0.0014303965 -0.15822533
000360 9e 8b a0 be dd 67 85 3e 33 e2 19 be 2b 43 f6 bd
       -0.3135652 0.26055804 -0.15027694 -0.1202453
000370 83 15 45 be 6a 75 96 be 13 0b c4 3e 58 22 0e bd
       -0.19246487 -0.29386455 0.382897 -0.03470072
000380 cc a7 52 bd fc 0c bd be 2b 4f 96 3e 65 44 c0 3d
       -0.051429555 -0.3692397 0.29357275 0.09388045
000390 56 c9 b2 3d 15 6a 98 3e de 49 40 be 84 dc 4c 3e
       0.08729808 0.29768434 -0.18778178 0.20005995
0003a0 87 9f b9 bd c4 39 55 be 57 41 43 3e ee 20 14 be
       -0.090636306 -0.20822817 0.19067894 -0.14465687
0003b0 4d b2 a3 bd 5c b0 16 3e ac 6a 62 3e 44 88 d3 3d
       -0.079929926 0.14715713 0.22111005 0.10328725
0003c0 9b c3 44 ba f4 ac c8 3e ba 5b f8 3d c1 f4 85 3e
       -0.0007505954 0.39194453 0.121268705 0.26163295
0003d0 bb 0f 87 3e d9 66 bf be f9 33 e1 3e d8 ad ad bc
       0.2637919 -0.37383154 0.43984964 -0.02120106
0003e0 bc 9d e2 3e b7 ff 4f bd 15 eb de 3d c0 71 bd be
       0.44260967 -0.050780978 0.10884682 -0.37000847
0003f0 0d 64 05 bc 72 bc aa 3e 9f fb 6d 3e b9 55 9e 3e
       -0.00814153 0.33346897 0.23240517 0.30924776

linears.2.bias f4 [20]
000000 f7 c6 29 bd 94 15 27 be 78 e2 7e 3e da 63 35 3c
       -0.041449513 -0.16316825 0.24891078 0.01107117
000010 4c b6 b7 3d b7 82 d4 3d 13 4e 38 bc 0e 04 9f bd
       0.08970317 0.103764944 -0.011249083 -0.07764445
000020 0d 9d 87 be 07 1a 0b 3e 33 76 90 be 8a 39 d2 3d
       -0.26487008 0.13584147 -0.2821518 0.10264881
000030 c9 cc 94 3c 77 ad 0c be 7f 23 1b 3e a4 52 84 bd
       0.018164055 -0.13738047 0.1515026 -0.06461075
000040 00 7f f8 3c f7 c4 7c 3e 06 ac 0c bc 02 b5 89 3e
       0.030333996 0.24684511 -0.008585935 0.2689591

linears.3.weight f4 [20, 20]
000000 d6 2f a7 3e 48 3e ca ba ce e1 f7 3d 4d 09 3e 3e
       0.32653683 -0.0015429938 0.12103616 0.18558235
000010 54 5b 0c 3e cf 76 8f 3a 14 ce b3 be 2f de 63 3c
       0.13706714 0.0010945442 -0.35118163 0.013907953
000020 9f ed 20 be e7 48 c2 3e 2e 1d fd bd a7 36 7f be
       -0.15715645 0.37946245 -0.12359081 -0.24923192
000030 38 9b f5 3d 6f 61 89 bb 76 46 cb 3d 4a e8 02 be
       0.11992496 -0.004192523 0.09925549 -0.12783924
000040 77 72 29 bf 37 1c ca 3e e1 bd f0 bc 24 29 71 3e
       -0.66190284 0.3947465 -0.029387416 0.2355085
000050 2a 14 a7 bd 5c c9 df 3d 7f 07 0c bc f8 4d 68 3e
       -0.08158143 0.10927078 -0.008546709 0.22685993
000060 05 1b 16 3d 8f 7b 23 be 7e 0e c3 ba 48 28 ef 3e
       0.03664686 -0.15965103 -0.0014881638 0.4671042
000070 7b 4b 92 be 76 29 d9 3d 43 df 2b 3f ba 88 32 be
       -0.28573212 0.10603611 0.67137545 -0.1743497
000080 c4 53 ff bc 2a 4c 69 be 6e aa a7 be 7c 5d 80 3e
       -0.031167872 -0.2278296 -0.32747215 0.25071323
000090 2c 35 10 be 69 92 28 3e a7 ca ff bc d5 0f a9 be
       -0.14082783 0.16462101 -0.031224562 -0.3301989
0000a0 32 49 cb 3a 19 58 53 3e 79 53 d0 3e 3b df 90 3e
       0.0015509485 0.20639075 0.40688685 0.2829531
0000b0 48 bd 6a 3e c2 21 87 bd d3 b8 da be 77 52 65 3e
       0.22923768 -0.06598236 -0.42719135 0.22394739
0000c0 99 fb 8e bd b1 66 f8 3e 84 93 0c bf c5 6e ae bd
       -0.06981582 0.48515847 -0.5491259 -0.08517221
0000d0 f2 34 e6 3e ce bf f1 3d c5 8a 66 3e 34 51 85 3e
       0.4496227 0.11804162 0.22513874 0.26038516
0000e0 07 e5 ec 3d 8e 66 91 bd ae 00 15 3f 0d 4a 7f 3e
       0.11567121 -0.07099639 0.5820416 0.24930592
0000f0 74 a5 3d 3e 2c 99 0b bf 74 32 9f 3e c3 e9 c2 bd
       0.18520147 -0.54530597 0.3109318 -0.09517243
000100 0b f9 31 be 6c 01 ce 3e d8 3e 0a 3f 1f 23 ae be
       -0.17380159 0.4023546 0.5400214 -0.3401117
000110 70 f6 b5 bd 0c bb 72 be 31 66 8f be 08 5f 90 bd
       -0.08884895 -0.23704165 -0.28007653 -0.07049376
000120 69 31 bb be f6 b0 c5 bd 71 13 a2 bd 71 92 d7 be
       -0.36561134 -0.09652893 -0.079138644 -0.42103913
000130 04 a9 03 3f a4 b4 1c 3c 0a 1a 93 be 08 8a 2a bd
       0.5142977 0.009564552 -0.28730804 -0.041635543
000140 89 94 29 3c 82 54 71 be ee f4 c7 3d 9e c3 35 bf
       0.010350355 -0.23567393 0.097635135 -0.71001613
000150 a1 1c cd bc a3 aa ca be a4 a3 b5 3e 3e 48 e8 be
       -0.025038065 -0.3958331 0.3547641 -0.45367616
000160 41 eb 58 3e 85 2c 39 be 12 a8 8e 3c e5 10 d0 be
       0.21183492 -0.18083389 0.017414127 -0.4063789
000170 75 87 fb 3e 9c e1 a8 3c 76 99 6d 3e d1 9a 5a be
       0.49126783 0.020615391 0.23203072 -0.2134812
000180 ca 95 0b 3f 2f 15 2f 3f 88 5a 13 3e 60 fc e4 be
       0.54525435 0.683917 0.14390004 -0.44723797
000190 ba 99 a3 3d 4f 3f 2d 3d 11 e1 b4 bd 45 49 07 3e
       0.079883054 0.042296704 -0.088319905 0.13211544
0001a0 33 a4 1a bd c9 c4 28 bf 99 59 b8 3e b4 aa a2 3e
       -0.03775425 -0.6592527 0.36005858 0.3177086
0001b0 ef 7f 80 3f 26 33 a9 be ed c7 55 bc 44 d6 9f be
       1.0039042 -0.33046836 -0.013048154 -0.3121816
0001c0 33 0b ef 3d 0e 4d 15 3f da 17 8b be 17 69 57 3d
       0.11672058 0.583207 -0.27166635 0.052590456
0001d0 ba d0 7a 3c a5 af ce be 1b 35 7c bc b2 20 d4 be
       0.015308553 -0.4036838 -0.015393521 -0.41431195
0001e0 99 73 39 be ae f1 2e be ad 84 15 3e bc 5e 9f be
       -0.18110503 -0.17084381 0.14601393 -0.31126964
0001f0 1a ed bd 3e a3 d3 00 3f ec 84 56 be ae 96 96 bf
       0.37094957 0.5032293 -0.20949143 -1.1764734
000200 34 5f 90 bd c5 6a ff 3d 58 6f b4 be 84 39 8b 3e
       -0.070494086 0.124715365 -0.352412 0.27192318
000210 a8 67 4c be 45 67 19 3e df 30 68 be 7d a0 28 3f
       -0.19961417 0.149808 -0.22674893 0.65869886
000220 7e 78 a4 be 52 c9 bf bc a5 cd ad 3d a5 6a 38 bd
       -0.32123178 -0.023411427 0.08486489 -0.04502358
000230 31 f1 99 be 3f ee 71 bf 1e df 94 3e a5 f5 33 bf
       -0.30066827 -0.9450416 0.29076475 -0.702967
000240 25 33 b4 be 18 cf 34 be 42 40 ef bd 86 97 fb bd
       -0.3519527 -0.17657125 -0.11682178 -0.1228476
000250 67 6d b0 3e 7e 58 4d be 3f 18 81 be f8 79 b3 3d
       0.34458467 -0.20053288 -0.2521381 0.08763498
000260 38 9b 08 3f a9 0f 69 3d a8 65 25 be 98 58 a0 be
       0.53361845 0.0568997 -0.1615206 -0.31317592
000270 c7 a1 12 3d ca 5a 1c 3e b1 c3 5f 3e 6d 8e 34 3e
       0.035798814 0.15269008 0.21851994 0.17632456
000280 4b 13 bf be d8 aa a2 3e 5e 7b a2 3d d0 5b 15 be
       -0.37319407 0.31770968 0.07933687 -0.14585805
000290 27 8f 1c be bb 9d e2 3e 98 40 c3 bb fc ff 6e be
       -0.15288983 0.44260964 -0.005958628 -0.23339838
0002a0 16 d6 e7 be fe 16 45 3d a6 ae c2 3d d3 10 80 3e
       -0.45280522 0.04811763 0.09505968 0.25012836
0002b0 7f b2 c0 3d 13 a0 92 3e 2a 8e 11 bd 1b f9 13 3f
       0.094090454 0.28637752 -0.03553597 0.5780198
0002c0 63 f5 d3 3e b8 f8 8c 3e 22 c4 8e be 84 8c c3 be
       0.41398153 0.27533507 -0.27884012 -0.38193142
0002d0 19 8a 20 3f 30 87 34 bf fd 3a 7f bd 51 52 10 3f
       0.6271072 -0.7051878 -0.062312115 0.56375605
0002e0 3e 92 d9 3d 72 e1 0a bf c6 bd 20 3e 96 ad 68 3f
       0.106235966 -0.5425025 0.15697393 0.9088987
0002f0 f4 ff 1f 3e ac a9 21 3e 91 81 62 3e 0c 20 d2 bd
       0.15624982 0.15787381 0.22119738 -0.10260019
000300 f0 43 b0 bc 03 b9 0c bc 0d 83 d3 3d 79 df e2 be
       -0.02151677 -0.008589032 0.1032773 -0.4431112
000310 52 5d d2 3c 76 26 e8 bc 76 bb 2f 3f 8a dd da 3e
       0.025679264 -0.028338652 0.6864542 0.42747146
000320 e8 c7 da 3e af f1 10 3f 0d bc a8 bd fa af b3 bd
       0.4273064 0.5661878 -0.08238993 -0.08773799
000330 ad 9c 14 3f 1b 95 76 be c7 f1 0e be 21 d8 08 3f
       0.5805157 -0.24080317 -0.13959418 0.53454787
000340 f5 f7 c6 3d cb 32 9f 3e e9 86 dd be ed 92 8a bd
       0.09715263 0.3109344 -0.4326699 -0.06766305
000350 59 be 7f 3d 9b 0d 1f 3f 53 a1 d5 bd 46 83 45 3e
       0.06243739 0.62130135 -0.10431161 0.19288358
000360 a5 45 a8 be e8 4b 8b bd f4 50 04 3e 6b c5 07 bf
       -0.32865635 -0.06801587 0.12921506 -0.5303561
000370 2f f4 6b 3d 46 e4 6a 3e 60 78 8a be 81 38 00 bf
       0.05760592 0.22938642 -0.27044964 -0.5008622
000380 5a 30 19 3e 90 a0 e1 3e aa 37 51 be dd 4e 95 be
       0.14959851 0.44067812 -0.2043139 -0.2916173
000390 e7 01 11 bd 6b 4c 85 be ed d0 c2 3d 8e 67 8a be
       -0.035402205 -0.26034865 0.09512506 -0.2703213
0003a0 a7 1d b4 bd fe 2b 7f 3e 6b 73 55 bb 19 6e 18 3f
       -0.08794718 0.24919125 -0.0032570015 0.59542996
0003b0 67 1b 87 3c 97 7e 30 bf 86 30 16 bf 72 f6 ce be
       0.016492559 -0.6894316 -0.5866779 -0.40422398
0003c0 bb d9 ae be 19 ae c9 3c 93 f4 0b 3d 22 b0 44 3e
       -0.3415049 0.024619149 0.03416879 0.19207814
0003d0 b6 4e 5f bd 1e 4a b2 3d 71 ef 8a bc 33 3a b6 bd
       -0.054518424 0.08705543 -0.016959878 -0.08897819
0003e0 43 ab f8 be 34 22 f1 be dd 9e ea 3e 32 b2 13 3e
       -0.48568162 -0.47096407 0.45824328 0.14423445
0003f0 fb d8 10 3e 4a 8e 69 bf 3b 2c af be b8 bc c7 3d
       0.14145271 -0.9123274 -0.34213433 0.09752792

linears.3.bias f4 [20]
000000 84 77 26 3e 4b 90 c2 be 7d a8 01 3e e0 a4 d2 3d
       0.16256529 -0.38000712 0.1266193 0.10285354
000010 bd ba 8a 3a ad 62 90 be c8 af 14 3e 05 6a da 3d
       0.0010584217 -0.28200284 0.1452018 0.10664753
000020 41 ca 7d bd f0 16 75 3d 4c 50 07 bc d5 49 02 be
       -0.061960462 0.059836328 -0.00825889 -0.12723477
000030 a1 86 01 3f c2 c6 a4 3d 15 da 22 ba c4 96 1e 3e
       0.5059605 0.080457225 -0.00062123063 0.154872
000040 93 ec 8a be 1d fe 8d bc 16 2e 09 bd 73 15 03 be
       -0.27133617 -0.017333085 -0.033491217 -0.12801151

linears.4.weight f4 [20, 20]
000000 dc 75 9d be 47 bb 56 be 0d ae 94 be 35 26 b7 be
       -0.30753982 -0.20969878 -0.2903904 -0.35771337
000010 9a 08 5e 3e 22 02 05 3f 02 0d 6a 3e 6a 74 64 be
       0.21682969 0.5195638 0.22856525 -0.22310033
000020 96 5e 05 3f 01 b4 3d bf bf 30 f1 bd 65 87 ec 3e
       0.5209745 -0.7410279 -0.11776876 0.46197048
000030 8b ca 80 bc cf 2d ea bc 2b 1c 58 be b7 45 38 bd
       -0.01572158 -0.028586296 -0.21104495 -0.04498836
000040 6f aa d4 be 83 34 5c be 4d 20 2e be 73 05 be 3e
       -0.4153628 -0.21504407 -0.1700451 0.37113532
000050 e8 25 4d 3e 17 92 d9 3e 8c 10 32 bf 6a 03 1a bd
       0.20033991 0.4249427 -0.695565 -0.037600912
000060 fb e9 8c be bb 52 07 3f 84 4b 38 bf 0c 99 65 be
       -0.27522263 0.5286061 -0.7199023 -0.22421664
000070 b3 f4 45 bf e3 83 9e 3e 3a 65 be bc 26 ac 3e 3d
       -0.77326506 0.30959997 -0.023241628 0.046550892
000080 87 8c 81 be ed 7f be 3e 9e 25 c8 bd fe b2 fa be
       -0.25302526 0.37206975 -0.097728 -0.48964685
000090 a7 cb d3 3e 7c ca cf 3e 3c 22 45 3e a6 96 d1 be
       0.41366312 0.4058417 0.1925134 -0.40935248
0000a0 71 b4 9c be dc 1f 04 3f f4 2f 17 bf 6f 61 ac be
       -0.30606416 0.51611114 -0.59057546 -0.33668086
0000b0 19 67 1f bd 84 4d 68 3e 6c 50 f4 be 81 c4 8b be
       -0.03891668 0.2268582 -0.47717607 -0.27298358
0000c0 ff 46 8b bd 0f 53 f4 be 5a 23 43 3d 22 f1 cd be
       -0.06800651 -0.4771962 0.047641136 -0.40223032
0000d0 10 85 8e bd 02 ce bd be 02 15 83 3e 2e 8b 29 bf
       -0.069589734 -0.37071234 0.25601965 -0.66227996
0000e0 05 0a 89 be 0a b3 ee 3e 37 e2 39 3d 09 91 be 3e
       -0.26765457 0.4662097 0.04538175 0.37220028
0000f0 c1 3c 47 be 12 98 06 bd e7 62 8a bc 38 02 90 bd
       -0.1945677 -0.03285987 -0.016892863 -0.07031673
000100 86 62 62 bd 0a 0c 84 b9 04 6e a6 3e 10 2e 2c be
       -0.05526974 -0.00025185972 0.3250581 -0.16814446
000110 95 86 b1 3e 08 4a 08 be 3c fe f3 be e4 92 a5 3e
       0.3467299 -0.1330949 -0.47654903 0.3233863
000120 ac 67 05 be 46 a9 87 be 67 e7 41 3e 9c bd 89 3e
       -0.13027829 -0.26496333 0.18935929 0.26902473
000130 57 cc b4 be 63 7e e6 be 45 db 68 be ee 99 f4 3e
       -0.3531215 -0.450183 -0.22739895 0.4777369
000140 df d0 b6 3e fa e9 38 be a3 6a d1 3e a2 15 74 be
       0.3570623 -0.18058005 0.4090167 -0.23836377
000150 5d f3 93 3e bd 0a 58 3d 90 a2 07 be a2 88 6b 3e
       0.2889661 0.052744616 -0.13245606 0.2300134
000160 40 63 86 be 7e 09 d0 be 7a 5a 12 be c0 59 8b 3e
       -0.26247597 -0.40632242 -0.14292327 0.2721691
000170 4e 91 d2 3e 71 c3 1b bd 33 ca 50 3c 59 f1 ae 3e
       0.41126484 -0.038028184 0.012743521 0.3416851
000180 8d 85 09 bf 09 dc 94 be df 3b ad be 85 b3 de 3d
       -0.5371941 -0.29074124 -0.3383474 0.108740844
000190 0a c6 fd be de 0a c4 bd 1c 6e 2e 3e 28 c3 1e bf
       -0.49565154 -0.09572385 0.17034191 -0.62016535
0001a0 00 35 8c 3e ba 38 8a be 7a de 56 3e e0 b3 55 3e
       0.27384186 -0.26996404 0.20983306 0.20869398
0001b0 57 1a 1e 3f d3 4d 86 be 30 71 fb 3d 91 fd ce bd
       0.6175894 -0.2623125 0.12277448 -0.10106958
0001c0 54 22 de bd 9c 3c 5b be 68 7b 48 bf ad 72 cc 3e
       -0.10846391 -0.2140984 -0.78313303 0.3993124
0001d0 63 30 84 3d 32 49 5b 3e d2 b2 7f 3d 08 98 2b bf
       0.064545415 0.2141464 0.062426396 -0.67028856
0001e0 8f 6b 00 3f 4a 3f 1c be f9 a4 2e bd b5 9c 49 3f
       0.5016412 -0.15258518 -0.0426378 0.7875474
0001f0 8b ef cf bd 67 61 02 bf e0 5a 84 3e ee 57 b5 bd
       -0.10153111 -0.50929874 0.25850582 -0.08854662
000200 52 fc d8 3e bf 4a e6 bc 64 17 cc 3d 39 e6 dc be
       0.42380005 -0.028111814 0.09965399 -0.43144396
000210 30 48 c8 ba 4e 25 93 3e fc 48 72 3e 49 9e 33 bd
       -0.0015280303 0.287394 0.23660654 -0.043852124
000220 e5 fe 52 be 94 c9 84 3e f5 94 90 bd f5 ba 28 3d
       -0.20605047 0.25935042 -0.07059661 0.04119392
000230 6a 61 b9 bc 8c 44 b4 be 89 f4 38 3f 0c b8 9f be
       -0.022629458 -0.35208547 0.7224813 -0.31195104
000240 83 d1 ba 3e da 25 6c 3e 02 31 b5 3e e4 39 a5 3e
       0.3648797 0.23061314 0.35388952 0.3227073
000250 fa 14 4a 3f 54 d2 e8 be 5e 61 05 be 53 89 d6 be
       0.7893826 -0.45472968 -0.13025424 -0.41901645
000260 a2 e1 21 3e d7 e0 30 3e fc 3a 19 bf 36 d9 55 3e
       0.15808728 0.1727327 -0.5985563 0.2088364
000270 76 35 93 bd 62 ca fe 3d 26 95 18 be df d9 28 bf
       -0.07187931 0.12440945 -0.14900646 -0.65957445
000280 74 e2 75 be 11 21 6a be 47 fd b2 be 8f fe 5b bf
       -0.24012166 -0.22864176 -0.3495886 -0.859353
000290 d6 e2 31 3d c1 e7 ac 3e 61 56 ba 3e 3b 93 d8 3e
       0.04342922 0.33770564 0.36394027 0.42299828
0002a0 e3 2d 83 3e 9b b4 35 bf 84 7d a7 bd db 77 1a 3f
       0.25620946 -0.7097871 -0.08178237 0.60339135
0002b0 6e 8f 24 3e 22 30 a1 3d 99 71 70 be aa 0e fc 3e
       0.16070339 0.07870509 -0.23480834 0.49229938
0002c0 d3 17 f0 be 00 53 dc be f4 6d ba 3e 81 ef 3c 3f
       -0.46893176 -0.43032074 0.36412013 0.73802954
0002d0 98 26 6c 3e 4b 81 aa bc a6 60 1d 3f e6 01 a2 be
       0.23061597 -0.020813605 0.614756 -0.31642073
0002e0 b7 52 49 3d 9e 6f 31 bc f7 7c af 3d fe e5 3d 3e
       0.04915115 -0.010829834 0.08568757 0.18544766
0002f0 6d 75 3f be aa c3 2f bf 46 9a 69 3c 40 d4 27 3e
       -0.18697138 -0.68657935 0.014257973 0.1638956
000300 c9 15 37 be 9c b8 26 3e a8 cd 08 bf 47 62 a5 3e
       -0.17879404 0.1628136 -0.53438807 0.32301542
000310 87 52 b9 bd 57 8e da be dd eb 44 3e dd b4 55 be
       -0.09048944 -0.42686722 0.192306 -0.20869775
000320 11 d5 1f 3e f6 7d 5c 3e 1a 26 a4 3f ef 4c 7a be
       0.15608622 0.21532425 1.2824128 -0.2444341
000330 49 b9 1a bd 22 8f 71 be 4a 8b 06 3f 55 09 0d 3f
       -0.037774358 -0.23589757 0.5255629 0.55092365
000340 da 5a 9e bd 00 d8 84 be 41 2d d7 3e a9 57 bb 3e
       -0.07732172 -0.25946045 0.42026713 0.36590317
000350 cd 2f d0 bd 55 6b 09 3f 61 de a9 be 08 64 ea 3e
       -0.10165367 0.536794 -0.33177474 0.45779443
000360 d2 d4 87 be ea 7d ad be e0 0e 1a bb 2b 30 f8 be
       -0.26529557 -0.33885127 -0.0023507401 -0.4847425
000370 71 b4 87 bd 9f 34 0b 3e 72 04 19 3e 71 85 ed 3e
       -0.06626213 0.13594292 0.14943102 0.4639087
000380 8b 2b 08 bf b1 84 83 be 88 0b 88 3c 94 88 43 bf
       -0.5319144 -0.25687173 0.016607061 -0.76380277
000390 28 96 11 3e 0b 94 18 3f 90 be e5 3d 9e 0e b1 bd
       0.14217436 0.59600896 0.112179875 -0.08645366
0003a0 6f 02 91 be 9c 03 ef 3c f1 75 12 3f 08 b5 0d be
       -0.2832217 0.029176526 0.57211214 -0.13838589
0003b0 3a 3e 5e be a6 2b 43 3e d7 14 01 3e 4a 7b 2d bf
       -0.21703425 0.1905962 0.12605606 -0.6776625
0003c0 26 42 72 3e f5 c8 4f be 30 20 51 be a0 1a 31 be
       0.23658046 -0.20291503 -0.20422435 -0.17295313
0003d0 e6 b7 43 3c 2d 88 5e 3f a9 c0 a6 be 82 70 45 ba
       0.0119457 0.8692654 -0.32568863 -0.00075317186
0003e0 98 f0 8a bd f5 10 b4 3e 08 14 ac 3e 0a 43 86 3c
       -0.06784171 0.35169187 0.33609033 0.016389389
0003f0 73 fc 97 be 8c 19 1a 3f 92 3a 98 be 27 0e 4a 3f
       -0.2968479 0.6019523 -0.29732186 0.78927845

linears.4.bias f4 [20]
000000 c1 f3 49 bd 53 88 2e be f4 52 9a be 04 a5 8b 3d
       -0.049304727 -0.17044191 -0.30141413 0.068185836
000010 6d a3 57 3d 58 ab ec 3d eb f8 8a 3e 4e e5 1b 3e
       0.05264609 0.11556119 0.27143034 0.15224192
000020 66 e7 ca 3d a3 96 24 be 48 64 98 bd 44 82 34 3e
       0.09907417 -0.16073088 -0.07441002 0.17627817
000030 c7 52 61 bd 37 96 54 3e 59 7e 45 3b e3 b5 3f be
       -0.055010583 0.20760427 0.0030135124 -0.18721728
000040 c3 8c ca bd 82 bc a5 3e db 24 55 bc 6d 56 7f 3e
       -0.098901294 0.32370383 -0.013009275 0.24935313

linears.5.weight f4 [1, 20]
000000 a0 24 72 3e 91 27 b9 be d5 c9 60 be 3b 15 03 3f
       0.23646784 -0.36163 -0.21951993 0.5120427
000010 9d 8b da 3e 50 07 9f 3e 5b 45 fa be 38 12 20 3f
       0.4268464 0.31060266 -0.4888104 0.625278
000020 fa 13 bc 3e d6 c3 5b 3e 47 30 20 3e 94 74 28 bf
       0.3673399 0.21461424 0.15643416 -0.65802884
000030 d9 5a 37 3e 56 5b 42 be 52 c3 1d be 4a ef 0c 3f
       0.1790575 -0.18980154 -0.1540654 0.55052626
000040 ce da 5c be fa 4a dc be 82 cc b7 3e 14 61 05 3f
       -0.21567842 -0.43025953 0.35898215 0.52101254

H1.weight f4 [20, 2]
000000 33 fe 02 bb a5 17 83 3a 1f 5e c5 3d 02 87 25 3d
       -0.001998794 0.0010001553 0.09637093 0.040411957
000010 b1 ea 6b be 17 84 1d 3f 34 62 5a bf f6 4c 57 bf
       -0.23038746 0.6152968 -0.85306096 -0.8410181
000020 99 20 0e be 9c 77 4d bb bc 9e b7 3e 4a d0 0a 3c
       -0.13879623 -0.003135181 0.35863292 0.008472512
000030 a3 5c c8 bd fa 17 50 be 19 54 1f be bf a8 bc 3e
       -0.09783294 -0.20321646 -0.15559424 0.36847493
000040 e7 4e 9a be 65 d0 00 be 2f 31 11 bd 87 45 06 3f
       -0.30138323 -0.12579496 -0.035447296 0.5244984
000050 32 78 01 3f 6a aa 33 bd f5 d9 d6 3e 01 9c ed 3e
       0.5057403 -0.04386369 0.41963163 0.46408084
000060 a9 62 12 3e 83 ec 1a bf db 6b c8 3e f2 af 0b be
       0.14295448 -0.6051714 0.39144787 -0.13641337
000070 c0 6f e1 3e 98 56 a0 bd 38 ca 1a 3f d7 0f 75 be
       0.4403057 -0.078290164 0.6046481 -0.23931824
000080 47 ed 80 3e d0 a4 77 bd e1 c2 ac 3a 2e 5c aa 3e
       0.25181028 -0.06045991 0.0013180637 0.33273453
000090 ec 61 81 be bb cd ea bd 06 c0 32 be fe 9a 17 3f
       -0.2527002 -0.11465021 -0.17456064 0.59220874

H1.bias f4 [20]
000000 04 76 7c ba a3 81 02 bd 74 3c 76 be b5 d0 98 bd
       -0.0009630623 -0.031861912 -0.24046499 -0.07461683
000010 88 8a 7a bc 81 f3 51 bc 90 1f 39 bd db b6 22 3e
       -0.0152918175 -0.0128144035 -0.045196116 0.15890066
000020 7e 12 c9 bd 02 6a 8c 3d b7 8d 72 be 3d d7 ab bc
       -0.0981798 0.06856157 -0.23686872 -0.020976657
000030 52 53 2b be e0 05 2d 3e ad fa 92 be 6d 37 ac 3d
       -0.16731003 0.16896772 -0.28706875 0.08409009
000040 df 35 7b 3c 3d b0 48 bd dd c9 1b be 16 a4 48 be
       0.015332668 -0.0489962 -0.15213723 -0.19593844

exp_avg f4 [20, 2]
000000 64 4a 02 ba 1a c2 00 37 d1 63 65 3a 82 8c 2d 3a
       -0.00049701915 7.674587e-06 0.00087505305 0.00066203636
000010 43 38 4f 3b e7 cf 2c 3b 18 03 85 3a bf 4a ab 3a
       0.0031619228 0.0026369037 0.0010148017 0.0013068541
000020 5f 0a 79 ba fa 59 01 bb 96 87 18 3b 2f a1 8a 3b
       -0.00095001416 -0.0019737468 0.0023274175 0.0042306404
000030 73 31 82 bb f6 24 27 bb 3f 43 00 3b 39 5d 01 3a
       -0.00397318 -0.0025504208 0.0019571332 0.0004934851
000040 88 6b 76 bb 0a 5d 35 bb e4 05 04 3b 9f 67 5f 3a
       -0.0037600715 -0.0027673864 0.0020145113 0.00085222156
000050 a8 9f 07 3b 16 41 52 3b 09 e5 92 3a a0 5a 7d b9
       0.0020694528 0.0032082251 0.0011207174 -0.0002416172
000060 54 92 84 bb 19 c9 58 bb 92 28 6e 3a d1 ea 2a 3b
       -0.004045764 -0.0033078848 0.0009085025 0.0026079903
000070 7c a2 06 3b 91 49 57 3b 17 13 38 3b bc 0a 95 3b
       0.0020543626 0.0032850245 0.002808755 0.004548399
000080 16 a1 a3 3a 1d cd 19 3b c5 d9 6c 3b 36 0e cb 3a
       0.001248392 0.0023468204 0.0036140543 0.0015491906
000090 f6 b0 3f bb 00 45 f0 ba 3e 07 94 3b 86 e5 c3 3a
       -0.0029249764 -0.001833111 0.004517465 0.0014945723

exp_avg_sq f4 [20, 2]
000000 4b 85 8a 3b 7f d2 24 3b 18 d3 93 3e 51 4b b0 3e
       0.0042273155 0.002514988 0.2887199 0.34432462
000010 db 07 34 40 47 6d f6 3f 9a e2 c1 3e 87 6a a8 3e
       2.8129795 1.9252099 0.37868196 0.32893774
000020 04 69 14 3f f6 84 69 3f 5e 0a 0b 40 ff e3 38 40
       0.5797274 0.9121851 2.1725078 2.8889158
000030 a0 59 60 40 c0 4d 1f 40 d0 48 5e 3f f2 79 46 3e
       3.5054703 2.4891205 0.86829853 0.19382456
000040 a5 4b 33 40 e8 87 40 40 ef 6d d9 3e 4f 48 a9 3e
       2.801492 3.008295 0.42466685 0.3306298
000050 d6 b5 00 40 c6 05 3b 40 1b 6d 04 3f c4 16 2b 3f
       2.0110984 2.9222274 0.5172898 0.6683161
000060 5e cf 2e 40 ee be de 3f 8a ea c3 3e 18 b0 66 3f
       2.7314067 1.7402017 0.38264877 0.9011245
000070 ee 5e f1 3f 0e 15 2b 40 25 3f 24 40 2a 78 6f 40
       1.8857095 2.67316 2.566354 3.7417092
000080 fd 43 f0 3e 6f 52 8a 3f d3 6d fd 3f 26 a0 86 3f
       0.4692687 1.0806407 1.9799141 1.0517623
000090 18 91 81 40 db f7 6c 40 9c 7a 52 40 58 fe d2 3f
       4.0489616 3.702628 3.2887335 1.648387

exp_avg f4 [20]
000000 b4 72 c7 39 02 1d 8c 39 8a 0d 3c 3b 6f da bb 3a
       0.00038041698 0.00026724493 0.0028694593 0.0014332066
000010 73 4f 91 39 a7 d7 a5 39 f7 a8 90 3a 0b 5d b5 ba
       0.0002771575 0.00031631926 0.0011036684 -0.0013836933
000020 6a dd d5 3a 43 31 ac ba cb d8 23 3b 8b 5b 28 ba
       0.0016316597 -0.001313724 0.0025001045 -0.00064223324
000030 41 f2 02 3b 35 9b b3 ba 3d 4f 64 3b fc 91 a3 ba
       0.001998082 -0.0013702872 0.0034837269 -0.001247942
000040 71 2f 5f 39 a6 86 31 38 96 12 87 3b bf 84 f7 3a
       0.0002128461 4.232549e-05 0.0041220887 0.0018884166

exp_avg_sq f4 [20]
000000 0c 5e 38 3b 5a e9 e2 3e 32 f6 c3 3f 52 44 fa 3e
       0.0028132228 0.44318658 1.5309508 0.4888025
000010 5e 90 3b 3e bf 1d cf 3f c8 38 94 3f f1 2e 34 3f
       0.1831679 1.6180953 1.1579828 0.70384127
000020 ea a0 f6 3f f8 61 56 3f 44 72 69 40 f3 10 ed 3f
       1.9267857 0.8374324 3.6475992 1.8520797
000030 2f 5e 92 3f 70 9b 1e 3f 8e db 39 40 82 a7 99 3f
       1.1434993 0.6195593 2.9040256 1.2004244
000040 20 dd 7f 3e 76 72 81 3e 1d e1 6f 40 d3 de eb 3f
       0.24986696 0.2528264 3.7481148 1.8427376

exp_avg f4 [20, 20]
000000 ba c8 4a b7 2e ba 45 39 f5 b9 52 b9 91 a8 04 bb
       -1.20868735e-05 0.00018856741 -0.00020096435 -0.0020242075
000010 32 31 90 b9 b6 3e 13 3a 34 a0 b6 b9 ff 1a 32 39
       -0.00027502474 0.00056169496 -0.00034833106 0.0001698546
000020 9e af 2c ba 28 19 d1 39 0a 85 f0 39 7d 53 83 3a
       -0.00065874483 0.0003988233 0.0004587549 0.0010019388
000030 17 39 d3 b9 bb fb 3a 3a 01 39 a0 39 0b 24 69 3a
       -0.0004028759 0.00071328477 0.0003056005 0.00088936154
000040 d0 7b d7 39 19 22 48 39 16 2f 23 ba 00 f0 a0 b8
       0.00041100243 0.00019086189 -0.0006224973 -7.674098e-05
000050 cf 80 23 36 b0 19 36 b6 b9 68 2e b9 2c 6c ce 38
       2.436387e-06 -2.7135065e-06 -0.00016632945 9.842994e-05
000060 96 0d dc b7 b2 3e 69 38 c7 58 34 b8 32 6a 84 38
       -2.623237e-05 5.560992e-05 -4.2998025e-05 6.314031e-05
000070 7d d6 08 b9 34 26 51 38 3d f2 d9 b8 1d 0d 3c 38
       -0.00013049874 4.9865062e-05 -0.00010392487 4.4834906e-05
000080 e4 09 cd b8 31 c8 24 39 c8 8b 0f b9 33 3a d7 38
       -9.777004e-05 0.00015714836 -0.00013689615 0.00010262839
000090 81 67 45 38 f6 a9 e0 b7 47 3c 15 b9 69 65 14 b9
       4.7064856e-05 -2.6782025e-05 -0.00014232202 -0.00014152158
0000a0 d6 9d d2 b6 d0 71 fd 38 34 eb 52 b9 06 ab af b9
       -6.276862e-06 0.00012085179 -0.0002011478 -0.00033506023
0000b0 b0 c3 d2 b8 7c 29 96 39 db b8 37 39 99 44 3a ba
       -0.0001005003 0.00028641138 0.00017521104 -0.0007105559
0000c0 7e da ae 38 32 f0 2a ba 76 8a 57 3a aa e0 11 37
       8.337664e-05 -0.0006520777 0.00082222314 8.694982e-06
0000d0 f1 79 7b 3a 98 d6 7d 38 6c ac 6e 3a 67 13 a6 39
       0.0009593061 6.0519757e-05 0.00091046724 0.00031676443
0000e0 b4 1e 71 39 32 b2 41 b9 4a cc 54 39 27 e2 6d b9
       0.00022994989 -0.00018472297 0.00020293999 -0.0002268633
0000f0 f6 16 99 b6 66 8b bc b6 a9 2d a8 b9 ca 97 85 39
       -4.5624283e-06 -5.6190647e-06 -0.00032077476 0.00025480828
000100 3b 09 df b7 0a ec 78 38 18 fc 6c 38 14 aa 02 b9
       -2.658797e-05 5.9347636e-05 5.6501565e-05 -0.00012461125
000110 29 d7 ad b7 71 84 27 b9 8a aa 66 38 66 8b c8 b8
       -2.0723399e-05 -0.000159757 5.49951e-05 -9.562708e-05
000120 ea d4 2b 39 56 b6 2a 39 fc d4 33 38 ff cb 68 39
       0.00016387147 0.00016280389 4.2875283e-05 0.00022201239
000130 24 31 9c 38 c7 69 0f b9 40 15 d0 b7 97 37 96 b9
       7.447813e-05 -0.00013676948 -2.4805428e-05 -0.00028651647
000140 9e 15 10 b7 08 5b ab 38 52 65 31 b9 7c 04 23 ba
       -8.588102e-06 8.170871e-05 -0.0001691778 -0.0006218625
000150 f2 40 03 b9 ad 43 95 39 d4 f5 a8 b8 0c 77 de b8
       -0.00012517328 0.00028469917 -8.056653e-05 -0.00010607959
000160 b4 ed 81 b9 dd 4f 06 b6 f7 02 b7 39 1e 93 b3 39
       -0.000247819 -2.0014043e-06 0.0003490669 0.0003425115
000170 4a f4 7c 38 ae 57 ae 39 ef 31 9c 39 ed 29 f4 39
       6.0308994e-05 0.00033253193 0.00029791842 0.00046570544
000180 c5 05 64 39 da 6d 0f b7 76 31 62 b9 8f 9c 03 b9
       0.00021745924 -8.549041e-06 -0.00021571465 -0.00012551456
000190 eb 48 6e 37 4c 74 b2 b8 13 13 17 3a 9c ec 5e b9
       1.4202883e-05 -8.5093634e-05 0.0005763035 -0.00021259714
0001a0 52 5c 31 39 d1 c7 cf b9 9c 9c 8f 38 2e df 78 39
       0.00016914427 -0.00039630992 6.847942e-05 0.00023734264
0001b0 91 29 a7 39 45 f6 21 39 09 7a fa b9 02 76 36 b9
       0.00031883692 0.00015445899 -0.0004777464 -0.00017400834
0001c0 5f 2a 89 b9 b8 e6 0e ba 45 8b d8 b9 6c 2b 42 ba
       -0.00026162245 -0.000545125 -0.00041302494 -0.0007406983
0001d0 5d d5 a9 b9 dc fe fb 38 a9 a6 9b 39 1e 09 f4 39
       -0.0003239316 0.00012016084 0.00029688075 0.000465461
0001e0 b5 7b 8f b6 b8 ef 88 38 d5 15 75 b9 21 56 98 ba
       -4.2761335e-06 6.5296364e-05 -0.00023373154 -0.0011622348
0001f0 0c 08 0a b9 d2 ee 8b 39 80 dd bf b8 9b bd d5 b8
       -0.00013163703 0.0002669008 -9.148847e-05 -0.00010191948
000200 15 2c 9c b9 39 4e bd b8 a2 9f 67 39 78 2a af 39
       -0.00029787482 -9.0267924e-05 0.00022089345 0.00033410243
000210 36 62 2c 39 8f 3c b5 39 83 46 34 39 92 f3 ac 39
       0.00016439785 0.0003456813 0.00017192405 0.0003298787
000220 19 71 63 39 50 22 80 b8 3b be 98 b9 0d d8 62 b9
       0.00021690539 -6.109907e-05 -0.00029133432 -0.00021633525
000230 ae fa 9f b6 10 ce 7d 39 51 91 23 3a 76 87 12 bb
       -4.767752e-06 0.00024204724 0.00062396104 -0.0022358573
000240 7d 9e 79 b9 ae cd f3 39 61 32 c2 b9 c2 a3 9f 39
       -0.00023805532 0.00046501815 -0.000370401 0.00030448852
000250 f8 49 f1 b9 26 bb 19 3a 72 ff 2a 3a 4a 4a 97 3a
       -0.00046022213 0.0005864374 0.00065230497 0.0011542526
000260 43 53 1a ba c0 88 9c 39 84 74 07 3a 80 01 e7 39
       -0.0005887041 0.00029856525 0.00051672035 0.0004406087
000270 05 79 95 39 79 da eb 39 ec 27 c3 b9 6b 30 29 3a
       0.0002850966 0.00044985468 -0.00037223042 0.0006454053
000280 00 5b 85 b6 9d f0 5b b9 b5 24 36 ba e4 9f 29 3b
       -3.9743027e-06 -0.00020975103 -0.0006948219 0.0025882656
000290 28 83 6e 39 82 6a eb b9 45 85 0d 3a 72 af 2a ba
       0.00022746308 -0.00044902047 0.0005398582 -0.0006511129
0002a0 5c 4f 33 3a 36 98 73 ba 3f 2f 8f b9 6b ca ad ba
       0.00068401336 -0.00092923956 -0.00027310287 -0.0013259178
0002b0 48 f9 87 3a 35 28 d0 b9 95 9e aa b8 a4 27 df b9
       0.0010373974 -0.00039702808 -8.13577e-05 -0.0004256341
0002c0 13 1d 7a b9 1b 41 18 ba 0b e8 27 3a 77 85 3f ba
       -0.00023852689 -0.00058080413 0.00064051215 -0.00073059596
0002d0 b9 f1 7a 37 a9 49 20 ba c7 fd 8a ba 60 f4 c7 3b
       1.4957442e-05 -0.0006114492 -0.0010604196 0.00610213
0002e0 69 90 2b 3a aa 50 b2 ba 24 28 86 3a eb 98 3c ba
       0.0006544651 -0.0013604362 0.0010235352 -0.00071944174
0002f0 f8 ce bd 3a fc dd ca ba 2b 54 d3 ba 6d cd 4f bb
       0.0014481237 -0.0015477533 -0.0016123106 -0.0031708137
000300 5d 40 c2 3a 49 ef 97 ba 07 c6 a0 ba ec 1e dd ba
       0.0014820207 -0.0011591698 -0.0012266048 -0.0016870177
000310 cc 55 61 ba 44 9a 8e ba 5c 08 a1 3a 3c a2 9f ba
       -0.00085958536 -0.0010879715 0.0012285816 -0.0012179087
000320 d9 69 06 37 c4 dc 5f b9 8e f3 6f ba 53 59 e7 3a
       8.011667e-06 -0.00021349179 -0.0009153419 0.0017650522
000330 6e 25 1e 39 52 c8 b4 b9 61 49 92 39 8b 88 c6 b8
       0.00015081998 -0.00034481526 0.00027901962 -9.466809e-05
000340 2b f6 7e 39 af 47 09 ba ab 50 45 ba 98 c8 89 ba
       0.00024315032 -0.0005236817 -0.0007526974 -0.0010512052
000350 95 f9 c6 39 a0 fa 45 38 5a 0a 3f ba dd e9 a7 b8
       0.00037951456 4.7201873e-05 -0.0007287614 -8.006741e-05
000360 28 d0 30 b9 f1 07 fe b9 f4 37 ff 38 60 5d 68 ba
       -0.00016862212 -0.00048452572 0.000121697696 -0.00088640116
000370 d1 cf 41 35 52 6a a2 38 f7 1d 94 39 b9 1c f3 38
       7.2200515e-07 7.744566e-05 0.00028251085 0.00011592493
000380 ae e2 b7 b7 e3 e0 50 39 54 42 de b6 da 87 09 b9
       -2.1920856e-05 0.00019920203 -6.623837e-06 -0.00013115947
000390 8a c3 6d b7 58 53 ae 38 4b d4 e8 39 d8 f7 92 39
       -1.4171828e-05 8.3124905e-05 0.0004440866 0.00028031948
0003a0 dc 55 d4 b7 86 e3 cc b6 0c cf eb 39 6a 5f 46 39
       -2.531235e-05 -6.106161e-06 0.00044976955 0.00018918296
0003b0 90 2c 90 38 d4 ea 1d 39 b1 98 c9 38 f8 ca a0 39
       6.8747555e-05 0.00015060167 9.612868e-05 0.00030668802
0003c0 96 c7 14 36 d9 be 46 39 6e 3a 5e 3a dc 6d 02 bb
       2.2169893e-06 0.00018953848 0.00084773346 -0.0019901907
0003d0 9f d2 17 b9 22 04 b8 39 4c 5b ba b9 2b 74 a3 39
       -0.00014478945 0.00035098294 -0.00035544706 0.00031176335
0003e0 c2 ec c1 b9 da 74 24 3a 69 8a 0e 3a af a4 8e 3a
       -0.00036988227 0.0006273516 0.0005437495 0.001088282
0003f0 c5 cd 1a ba 6d 2f 01 38 96 be f0 39 87 cb 4e 38
       -0.0005905296 3.0800165e-05 0.00045918365 4.9303777e-05
