Parallel PINN/kg_autograd_best.pt (torch, 784477 bytes, 115 tensors)

linears.0.weight f4 [20, 2]
0	0xbb42bf3e	-0.002971604
1	0xbd9a86c1	-0.075452335
2	0x3e668597	0.22511898
3	0x3e88cdd8	0.26719546
4	0xbe9c508f	-0.3053021
5	0x3f1eefee	0.62084854
6	0xbef2f3f5	-0.4745175
7	0xbf0837fa	-0.53210413
8	0xbe8648dc	-0.26227462
9	0x3d701bcd	0.058620263
10	0xbc84eed6	-0.016227167
11	0x3de21ac9	0.11040265
12	0x3e63e2d3	0.22254495
13	0xbdd0dab2	-0.10197963
14	0xbe3cbd77	-0.1843165
15	0x3dc895e2	0.09794213
16	0x3d372281	0.04471064
17	0xbeb32f49	-0.34997013
18	0xbf0763e1	-0.5288678
19	0x3ee907b7	0.45513698
20	0x3effff20	0.49999332
21	0xbeb1de8f	-0.3474011
22	0x3e950422	0.29104716
23	0x3e8dc741	0.2769108
24	0x3e1ff601	0.15621187
25	0xbe0d83d8	-0.13819826
26	0x3f14ad0e	0.5807656
27	0xbe46647b	-0.19374268
28	0x3ec8f28b	0.39247546
29	0xbe8fdc7d	-0.28097907
30	0x3efddacb	0.49580988
31	0xbf111127	-0.566668
32	0x3e5cf543	0.21577935
33	0xbde94b15	-0.11391274
34	0x3e78f535	0.24312289
35	0x3f20c0f2	0.6279441
36	0x3a2d7902	0.0006617458
37	0xbdd7ce70	-0.10537422
38	0xbe52671d	-0.20547147
39	0x3d972434	0.07379952

linears.0.bias f4 [20]
0	0x3dc0d2e2	0.09415223
1	0xbe62ae90	-0.22136903
2	0xbd93ad47	-0.072107844
3	0x3ec594d8	0.3859012
4	0xbe4c7e00	-0.1996994
5	0x3e2bcd04	0.16777426
6	0x3e3eca66	0.18631896
7	0xbe95b0bf	-0.2923641
8	0x3e830783	0.25591668
9	0xbeab6c83	-0.33481225
10	0x3f329af7	0.6976771
11	0xbeaf08d0	-0.3418641
12	0x3e75cd88	0.24004185
13	0x3e756198	0.2396301
14	0x3ee4c715	0.44683138
15	0x3ec6d233	0.38832244
16	0x3dbacee3	0.09121492
17	0x3e3416fc	0.17586893
18	0xbdd01e3c	-0.10162017
19	0xbe08698d	-0.13321514

linears.1.weight f4 [20, 20]
0	0xbdb6011e	-0.08886932
1	0x3d76f0bd	0.06028818
2	0x3ed587bb	0.41705117
3	0x3ce19610	0.027537376
4	0x3e875cc7	0.2643797
5	0xbe148dad	-0.1450717
6	0xbea11b15	-0.31465974
7	0xbe853bad	-0.26022092
8	0x3d7ba21c	0.061433896
9	0xbe33a3a3	-0.17542891
10	0x3ec293da	0.38003427
11	0x3ddf3087	0.10897928
12	0xbe887974	-0.2665516
13	0xbeb87bca	-0.36031944
14	0x3e4b9eb4	0.19884759
15	0x3e704ceb	0.23466842
16	0x3dac38f6	0.08409302
17	0x3d9d2f5e	0.0767505
18	0xbd1fb4a5	-0.038990635
19	0x3e85e17c	0.26148593
20	0xbeb445f7	-0.3520963
21	0x3df42780	0.119215965
22	0xbe0e14fd	-0.13875194
23	0xbdcd1580	-0.100138664
24	0xbd8f87a4	-0.07008293
25	0xbeb2ab86	-0.34896487
26	0x3e4e2dda	0.20134678
27	0x3ce98bfd	0.028509134
28	0xbe83cd39	-0.2574251
29	0xbecd0de6	-0.40049666
30	0xbe3aa936	-0.18228611
31	0xbcf48b9b	-0.029851725
32	0x3c714393	0.014725584
33	0x3ed348e5	0.41266552
34	0xbb167bae	-0.0022961902
35	0xbd688f71	-0.05677742
36	0x3e68bba1	0.22727825
37	0x3d6fe923	0.058571946
38	0x3ed9ac2a	0.42514163
39	0x3e63e0db	0.22253744
40	0x3c85a204	0.016312607
41	0xbcac6538	-0.021044359
42	0xbe0158e2	-0.12631562
43	0xbda7ab23	-0.081869386
44	0x3ed5d668	0.4176514
45	0xbecf94b3	-0.40543136
46	0xbe188f27	-0.14898358
47	0x3dc249c8	0.09486729
48	0xbe94195e	-0.28925604
49	0x3e931bce	0.2873215
50	0xbed43e5c	-0.41453826
51	0x3e164f30	0.14678645
52	0xbea56fd3	-0.32311878
53	0xbecfe7b3	-0.4060646
54	0xbf1938d1	-0.5985232
55	0x3da64d40	0.08120203
56	0xbe998204	-0.29982007
57	0xbdf3a4a6	-0.118966386
58	0xbe16a18d	-0.14710064
59	0x3ed2b0b2	0.41150433
60	0xbedd5ff9	-0.43237284
61	0xbe486a9c	-0.19571918
62	0xbdd8078f	-0.10548317
63	0x3edf9aad	0.43672696
64	0xbd875343	-0.06607678
65	0x3e88edab	0.26743826
66	0x3e418c92	0.1890128
67	0x3eadb813	0.339295
68	0xbe84592d	-0.25849286
69	0xbe7c6d72	-0.24651125
70	0x3e0cc5cc	0.13747329
71	0xbe113e5f	-0.14183949
72	0x3e5a1401	0.21296693
73	0xbed52d06	-0.41635913
74	0xbe3bab2a	-0.18327013
75	0x3df1308d	0.117768385
76	0x3d3a634d	0.045504857
77	0x3dc2afb7	0.09506171
78	0x3e1f75cc	0.1557228
79	0xbeec27d8	-0.46124148
80	0x3d873bcc	0.06603202
81	0x3ebf2179	0.37330225
82	0xbe97d0ba	-0.29651433
83	0x3ebae06a	0.3649934
84	0xbd7c2c54	-0.061565712
85	0x3df74c0c	0.12075052
86	0xbe22afcc	-0.15887374
87	0x3e91d87c	0.28485477
88	0xbe5b89f2	-0.2143934
89	0x3dcd204a	0.10015924
90	0x3d1974ad	0.037464786
91	0x3e60cebd	0.21953864
92	0x3dd22989	0.102618285
93	0xbca325b2	-0.019915435
94	0x3eb085ee	0.3447718
95	0xbe8ffc92	-0.28122383
96	0x3da49c20	0.08037591
97	0xbe753961	-0.2394767
98	0xbe363574	-0.17793828
99	0x3d896003	0.06707766
100	0xbe72c21a	-0.23706856
101	0xbe7a7cb0	-0.24461627
102	0xbbfdac24	-0.007741468
103	0xbe09e85e	-0.13467547
104	0x3c13068e	0.008973731
105	0x3da945a9	0.0826524
106	0x3e49b52b	0.19698016
107	0xbe92f5f8	-0.28703284
108	0xbc3a7e4e	-0.011382652
109	0xbea79fe4	-0.32739174
110	0x3e22f8e7	0.15915261
111	0x3d8e23c4	0.069404155
112	0x3ec98988	0.3936274
113	0x3df25ac6	0.1183372
114	0xbe705c13	-0.23472624
115	0x3dac7648	0.08420998
116	0x3bb090ce	0.005388356
117	0x3e617a0c	0.22019213
118	0xbe3cf8bf	-0.18454264
119	0xbf47c280	-0.7803116
120	0x3d9a169b	0.07523843
121	0xbcda2eb7	-0.026633603
122	0xbe4c3404	-0.19941717
123	0xbe11d5bc	-0.1424169
124	0x3eaf9b38	0.3429811
125	0xbd375e09	-0.044767413
126	0xbde466f7	-0.111524515
127	0xbe305f90	-0.17223954
128	0xbec86e05	-0.39146438
129	0xbd3adcf2	-0.045620866
130	0xbdd813eb	-0.10550674
131	0x3f1c5b1d	0.6107653
132	0xbe02a0bd	-0.1275663
133	0x3c6f1720	0.014592916
134	0xbe4d58aa	-0.20053354
135	0x3c31b078	0.010845296
136	0x3e115198	0.14191282
137	0x3d33cd29	0.043896828
138	0xbe0c32cd	-0.13691254
139	0x3e8db7d4	0.27679312
140	0xbe0e4e2e	-0.1389701
141	0xbe04e52f	-0.12978052
142	0xbe9cac78	-0.30600333
143	0xbe5e0e19	-0.21685065
144	0x3cbcc40a	0.023042697
145	0x3d50ffaa	0.05102507
146	0xbe80c396	-0.2514922
147	0x3d630025	0.05542006
148	0x3e224261	0.15845634
149	0xbe4fc4aa	-0.20289865
150	0xbebebb84	-0.37252438
151	0x3e6572db	0.22407095
152	0xbea600a6	-0.3242237
153	0xbe1f5e35	-0.15563281
154	0x3c5df235	0.013546516
155	0x3f0df315	0.5544904
156	0xbbf58f31	-0.0074938764
157	0x3d416ee3	0.04722489
158	0xbf1c29c0	-0.61001205
159	0x3e33100b	0.17486589
160	0xbdc65bad	-0.096854545
161	0x3e8ff0fc	0.28113544
162	0xbee35c00	-0.44406128
163	0xbe364daa	-0.17803064
164	0xbea05b3e	-0.31319612
165	0xbeb7dc1a	-0.35910112
166	0xbe04a187	-0.12952243
167	0x3e36e29a	0.17859879
168	0x3e22468c	0.15847224
169	0x3e137d9e	0.14403388
170	0x3ed65eaa	0.41869098
171	0x3e3cfcb2	0.1845577
172	0xbd2f1831	-0.04274768
173	0x3e078231	0.13233258
174	0xbe75042a	-0.2392737
175	0xbe853681	-0.26018146
176	0x3ddd2cf6	0.10799591
177	0xbd6f5b9f	-0.058436986
178	0xbd90c0bb	-0.070680104
179	0xbe2539a9	-0.16135277
180	0x3e1c90df	0.15289639
181	0xbdedb17b	-0.11606117
182	0xbe804ada	-0.25057107
183	0xbeac33cc	-0.33633268
184	0x3e282406	0.16419992
185	0xbd86ff40	-0.06591654
186	0x3e52607e	0.20544621
187	0xbd4b6f04	-0.04966642
188	0x3e9cc080	0.30615616
189	0x3d190bbb	0.037364703
190	0xbe71f189	-0.23627295
191	0xbc37278e	-0.011178864
192	0xbc2a8a2a	-0.010408917
193	0x3d2977b5	0.041373927
194	0xbe9aab24	-0.30208695
195	0x3c1a027c	0.009400006
196	0xbe18d2e0	-0.14924192
197	0x3dd7af64	0.105315
198	0x3d9988d2	0.074967995
199	0xbe6a535d	-0.22883363
200	0x3e8772ec	0.26454866
201	0x3e995b87	0.29952642
202	0xbd05ed34	-0.032696918
203	0xbe13bf4f	-0.14428447
204	0x3cc1792c	0.02361735
205	0xbe3cb732	-0.18429258
206	0x3d2d46f9	0.042304013
207	0xbebedf71	-0.37279847
208	0xbd2ced41	-0.04221845
209	0xbd81f747	-0.063459925
210	0x3e36f4e2	0.17866853
211	0xbe1504b8	-0.14552581
212	0x3e87ce92	0.26524788
213	0xbe50ed67	-0.20403062
214	0x3e9b2c74	0.30307353
215	0xbe5a6e4d	-0.21331139
216	0x3e8cd10a	0.27503234
217	0x3de623ff	0.112373345
218	0x3ddee1e6	0.108829305
219	0x3e498bcc	0.19682235
220	0x3dc0bad8	0.094106376
221	0xbf05ba0e	-0.5223702
222	0xbe519c60	-0.20469809
223	0xbddd83b8	-0.10816139
224	0xbe78f8ca	-0.24313655
225	0xbd99929c	-0.07498667
226	0x3dbc1334	0.0918335
227	0xbebcc47b	-0.36868653
228	0x3e9a9dc6	0.30198497
229	0x3e86161e	0.2618875
230	0xbf5f4cca	-0.87226546
231	0xbf011c47	-0.5043377
232	0xbe15f929	-0.14645828
233	0x3f11b2cc	0.5691345
234	0xbee67fc4	-0.45019352
235	0xbe9c80fe	-0.30567163
236	0x3d96ed60	0.073694944
237	0x3e8a4abf	0.27010152
238	0x3d84f9f3	0.064929865
239	0xbeb570a2	-0.35437495
240	0xbebc6488	-0.3679545
241	0x3d97602c	0.0739139
242	0x3d9b6a50	0.07588637
243	0x3dd8dcc2	0.10588981
244	0xbe29648b	-0.1654226
245	0xbdb6669e	-0.089062914
246	0x3cf9c933	0.030491447
247	0x3ee86865	0.45392147
248	0xbbc89f9b	-0.006122542
249	0xbe1c2b22	-0.15250829
250	0xbcb18357	-0.021669073
251	0xbeb7b6ae	-0.3588156
252	0xbd66ead3	-0.05637629
253	0x3e962b24	0.2932979
254	0xbe87d9cd	-0.26533356
255	0xbd896668	-0.067089856

linears.1.bias f4 [20]
0	0xba7e16aa	-0.0009692708
1	0x3c3a8c59	0.011386001
2	0xbeaaddf2	-0.33372456
3	0xbdd8ab80	-0.10579586
4	0xbe271aa8	-0.16318762
5	0x3e3f3d98	0.1867584
6	0xbe311124	-0.17291695
7	0x3e762fde	0.24041697
8	0xbe1ec7d1	-0.15505911
9	0xbe0e4400	-0.13893127
10	0x3cb03863	0.021511262
11	0xbcdc42a1	-0.02688724
12	0xbdf55c95	-0.11980549
13	0x3ca55d64	0.020186134
14	0xbe153524	-0.14571053
15	0x3e06bc0e	0.13157675
16	0x3e362250	0.17786527
17	0xbd2f7558	-0.042836517
18	0xbd564520	-0.052312016
19	0x3d9035ba	0.070414975

linears.2.weight f4 [20, 20]
0	0x3c1d837e	0.00961387
1	0xbe1ea699	-0.1549324
2	0x3ea6bf2b	0.32567725
3	0x3ea400e9	0.32031944
4	0x3ea55d7c	0.32297885
5	0xbe9506f1	-0.29106858
6	0x3d52c48e	0.05145698
7	0xbead769a	-0.33879548
8	0xbddaffc7	-0.10693317
9	0xbce6ee74	-0.028189875
10	0xbe3a2ef4	-0.18181974
11	0xbf3e7cb5	-0.7440904
12	0x3dd3f269	0.103489704
13	0xbb7cb61b	-0.0038560692
14	0x3e83d5f7	0.2574918
15	0xbe22a735	-0.15884097
16	0xbe050be6	-0.1299282
17	0xbd9f04d2	-0.07764591
18	0xbcebdd16	-0.028791945
19	0xbec0dd4e	-0.37668842
20	0x3ee77caa	0.452123
21	0xbccb2d90	-0.024802
22	0x3d16e503	0.036839496
23	0x3c86379d	0.01638394
24	0x3e267667	0.16256104
25	0xbe7903e4	-0.2431789
26	0x3e38d7e2	0.18051103
27	0xbf34aad7	-0.7057318
28	0x3e029dff	0.12755583
29	0x3d8a149b	0.067422114
30	0x3d8f9fa0	0.07012868
31	0xbf00f470	-0.5037298
32	0xbe283954	-0.16428119
33	0x3d15aca8	0.03654161
34	0x3df05cbf	0.1173644
35	0x3d01d49f	0.031696912
36	0xbe36db40	-0.17857075
37	0x3e811e76	0.25218552
38	0xbe2785bd	-0.16359611
39	0xbd2acdba	-0.041700102
40	0x3e65b130	0.22430873
41	0x3da47583	0.08030226
42	0x3d514317	0.051089372
43	0x3e46b709	0.1940576
44	0xbc81b56c	-0.015833579
45	0xbdaecefc	-0.08535573
46	0x3e6ddc0b	0.23228471
47	0xbe949ab3	-0.29024276
48	0x3c4de349	0.012566396
49	0x3c1fef1e	0.0097616
50	0x3da67335	0.08127443
51	0x3f0a10d7	0.53931946
52	0x3f09247e	0.5357131
53	0xbe116a7e	-0.1420078
54	0x3eb1228c	0.3459667
55	0x3e86bc67	0.26315615
56	0xbdd62d09	-0.104578085
57	0xbe50159d	-0.20320745
58	0x3d116530	0.03549689
59	0x3d493fa6	0.049132966
60	0x3ef1852a	0.4717191
61	0xbe844ccc	-0.2583984
62	0x3e125412	0.14289883
63	0x3ec74c6e	0.389255
64	0x3e4d679c	0.20059055
65	0x3d530a90	0.051523745
66	0xbea093ea	-0.3136285
67	0x3e0781e9	0.1323315
68	0xbe0bf965	-0.13669355
69	0xbf0a8c39	-0.5412021
70	0x3e0d8aec	0.13822526
71	0xbe967e66	-0.2939331
72	0xbe50518d	-0.20343609
73	0x3e342aec	0.17594498
74	0xbc532135	-0.012886335
75	0x3d980ec7	0.074246936
76	0x3e18cf7f	0.14922903
77	0xbe7177cb	-0.23580854
78	0xbdce028b	-0.10059079
79	0xbe9b2dff	-0.3030853
80	0x3e4074d8	0.18794572
81	0x3d37dd4f	0.04488879
82	0x3e0a2a7e	0.13492772
83	0xbdd6a8d7	-0.104814224
84	0x3e8e77aa	0.2782567
85	0xbe27eb01	-0.1639824
86	0xbde5360f	-0.111919515
87	0xbe87736d	-0.2645525
88	0x3dc4c424	0.09607723
89	0x3d18b70a	0.037283935
90	0x3d20db29	0.039271507
91	0x3e099d8c	0.13439006
92	0xbe0f61ba	-0.14002123
93	0xbe43ab91	-0.19108416
94	0x3dd7ca52	0.105366364
95	0xbe895dd9	-0.26829413
96	0xbde92b75	-0.11385242
97	0x3e8aeec3	0.27135286
98	0xbcc2202c	-0.023696981
99	0x3c9fcde0	0.019507349
100	0xbde7d753	-0.11320367
101	0xbe011f1c	-0.12609524
102	0xbdbabd13	-0.09118094
103	0x3e03117c	0.12799639
104	0x3ebd71a4	0.37000763
105	0xbca4c6e6	-0.020114373
106	0xbd607f41	-0.05480886
107	0xbe10850c	-0.14113253
108	0xbcff1601	-0.031138422
109	0x3e33b49f	0.1754937
110	0xbcb5bde0	-0.022185266
111	0x3dadb65e	0.084820494
112	0xbe4078c5	-0.1879607
113	0xbe253537	-0.16133581
114	0xbe8def13	-0.27721462
115	0xbb4ee587	-0.0031569914
116	0xbe9f3686	-0.31096286
117	0x3e16a6e8	0.14712107
118	0xbb2a69cc	-0.0026003001
119	0xbcff792d	-0.03118571
120	0x3d7dba5f	0.061945315
121	0x3d047312	0.032336302
122	0xbb9104fd	-0.0044256435
123	0xbcbce038	-0.023056135
124	0xbded28d7	-0.11580055
125	0x3ebb824f	0.36622855
126	0x3e1515f5	0.14559157
127	0xbea70105	-0.32617965
128	0x3e848692	0.2588392
129	0xbe42ae2b	-0.19011752
130	0xbe7e09fb	-0.24808495
131	0x3df39bb8	0.11894935
132	0xbcc45791	-0.023967536
133	0xbe1312c1	-0.14362623
134	0xbe2f2ba2	-0.17106488
135	0xbeb72b21	-0.35775092
136	0xbe59873c	-0.21242994
137	0x3e1df7dc	0.15426582
138	0xbd7d1d84	-0.061795726
139	0xbe3b7eb5	-0.18310054
140	0xbe6344b2	-0.22194174
141	0xbc976c42	-0.018484239
142	0xbe72a904	-0.23697287
143	0xbd951072	-0.07278527
144	0x3d2aee3d	0.041731108
145	0x3e711121	0.2354169
146	0xbe6589af	-0.22415803
147	0x3ee2177a	0.44158536
148	0xbe883752	-0.26604706
149	0xbe5cd9b1	-0.21567418
150	0xbf03ca96	-0.51480997
151	0x3e7c5b67	0.24644242
152	0x3c4fd0aa	0.012684027
153	0xbdda838f	-0.10669624
154	0x3c40ccd3	0.011767584
155	0x3ea44ff2	0.32092243
156	0x3f02cceb	0.5109393
157	0x3e6b318e	0.22968122
158	0x3c3264ed	0.01088832
159	0x3d56f395	0.05247839
160	0x3e072d10	0.13200784
161	0x3e1e5768	0.1546303
162	0x3e543675	0.20723899
163	0xbceb0888	-0.028690591
164	0x3b8358b8	0.004008379
165	0x3c3cf88e	0.011533869
166	0xbe2eee1d	-0.1708302
167	0x3d8a37ed	0.06748948
168	0xbe857781	-0.26067737
169	0xbab03807	-0.0013444432
170	0x3dc7dc98	0.09758872
171	0xbd479f4d	-0.048735905
172	0x3e76a4a0	0.24086237
173	0xbcd2f19c	-0.025749974
174	0x3dc625c1	0.0967517
175	0x3ea0ff50	0.31444788
176	0x3c84d27c	0.016213648
177	0x3d0e854d	0.034795094
178	0xbd341e73	-0.04397435
179	0xbe6ab362	-0.22919992
180	0xbe05d9bb	-0.13071339
181	0x3de7d20d	0.11319361
182	0x3d818f8a	0.06326206
183	0x3de88904	0.11354259
184	0x3df3d18e	0.11905204
185	0x3ce4675c	0.027881317
186	0xbe2063bb	-0.15663044
187	0xbeeea37d	-0.46609107
188	0x3ea2b621	0.31779578
189	0xbe67b5ff	-0.2262802
190	0x3e216bd9	0.15763797
191	0xbce0e8a6	-0.027454685
192	0x3e7ee2aa	0.24891153
193	0x3d116b0a	0.03550247
194	0xbc9c6e02	-0.019095425
195	0x3e977a34	0.2958542
196	0x3de0c62d	0.10975299
197	0xbe0ae57b	-0.13564102
198	0xbe234339	-0.15943612
199	0xb91c0586	-0.00014879377
200	0xbc967ae8	-0.018369153
201	0x3d85b07f	0.065278046
202	0xbe2f7f88	-0.17138493
203	0x3e9a0b9b	0.3008698
204	0x3e8d7e6e	0.2763552
205	0xbe7d61ea	-0.24744383
206	0xbe8517e6	-0.25994796
207	0xbbebf820	-0.0072012097
208	0x3e85895e	0.26081365
209	0x3d50b40a	0.05095295
210	0x3e13d618	0.14437139
211	0xbee72878	-0.45148063
212	0xbe6d1e5b	-0.23156111
213	0x3e8b5be1	0.27218536
214	0x3d9b52b7	0.07584136
215	0xbdda38a1	-0.10655332
216	0xbf078d48	-0.52949953
217	0x3e57768b	0.21041314
218	0xbe6ea60f	-0.23305534
219	0xbda1edbd	-0.07906673
220	0xbe2b4f15	-0.16729386
221	0xbddbe679	-0.107373185
222	0x3da97985	0.08275131
223	0x3d2ab15c	0.04167305
224	0xbe9381ef	-0.2881007
225	0xbeaaa4c0	-0.3332882
226	0x3d0755a1	0.033040646
227	0x3d8fb0c1	0.07016135
228	0xbe15d78f	-0.1463301
229	0x3d78c3cc	0.0607336
230	0x3cccf6f6	0.025020104
231	0x3e5da3d2	0.21644524
232	0x3cea5c65	0.02860851
233	0x3d8087ef	0.06275927
234	0x3cdf2a6c	0.027241908
235	0xbeac5e71	-0.33665803
236	0xbdc2a3a3	-0.095038675
237	0x3e93ff49	0.28905705
238	0x3ec29d3e	0.3801059
239	0xbe187271	-0.14887406
240	0xbe02513a	-0.12726298
241	0x3ee51bfb	0.4474791
242	0xbdb2afdf	-0.08724951
243	0x3e704375	0.23463233
244	0x3e66f9a5	0.2255617
245	0xbe4b1708	-0.19833004
246	0x3eedc12e	0.46436447
247	0xbd64d9a6	-0.05587163
248	0x3eeac115	0.45850435
249	0xbc9fd9e7	-0.019513084
250	0x3df1aa98	0.11800116
251	0xbecc3494	-0.39883864
252	0x3db00f6b	0.08596691
253	0x3ec10f68	0.37707067
254	0x3df16553	0.11786904
255	0x3e965627	0.29362604

linears.2.bias f4 [20]
0	0xbe8a6b72	-0.270351
1	0xbd2bd9f8	-0.041955918
2	0xbdebdf1d	-0.11517165
3	0x3ddf7416	0.109108135
4	0xbb90cfa2	-0.004419283
5	0xbd636b4f	-0.05552226
6	0xbdf1e9c3	-0.11812165
7	0x3e5d2f65	0.21600111
8	0x3d863992	0.065539494
9	0x3b586cf9	0.0033023937
10	0x3cae80b7	0.02130161
11	0x3b1410ff	0.0022593138
12	0xbd551693	-0.05202348
13	0x3dcb1cc5	0.09917597
14	0x3d3d20ee	0.046173982
15	0x3c61aeba	0.013774568
16	0x3c2b34a1	0.010449559
17	0xbd37356e	-0.04472869
18	0xbda39d34	-0.079889685
19	0xbd827674	-0.063702494

linears.3.weight f4 [20, 20]
0	0x3ee56ac9	0.44808033
1	0x3e5f0030	0.21777415
2	0xbdcd11b1	-0.1001314
3	0x3e08bd0c	0.13353366
4	0x3e229461	0.15876915
5	0xbb0b04a7	-0.002121249
6	0xbe3b2b51	-0.18278243
7	0xbe08e386	-0.13368043
8	0xbdad2ba4	-0.084555894
9	0x3e71fb17	0.2363094
10	0x3e24b3bb	0.16084187
11	0xbe41f2ef	-0.18940328
12	0x3e290b0b	0.16508119
13	0xbe8f8aeb	-0.28035673
14	0x3df447a8	0.1192773
15	0xb97e677e	-0.00024261881
16	0xbf141dd8	-0.5785804
17	0x3d4883ed	0.04895394
18	0xbe83ef3b	-0.25768456
19	0x3ea8e2e2	0.32985598
20	0xbe1e8c37	-0.15483175
21	0x3e341031	0.17584302
22	0x3cd6d54e	0.026224758
23	0x3db8c0c6	0.090211436
24	0x3da06793	0.07832255
25	0xbe4a516a	-0.1975762
26	0xbe427b21	-0.18992282
27	0x3ec296e7	0.38005754
28	0xbe3fe4a5	-0.18739565
29	0x3e1bca2b	0.1521384
30	0x3ef2e9ef	0.47444102
31	0xbe15d9f6	-0.14633927
32	0x3deef795	0.11668316
33	0xbe336f86	-0.17523012
34	0xbe104ada	-0.14091054
35	0x3e3214a9	0.17390694
36	0xbe00ddfc	-0.1258468
37	0x3dd03eb9	0.101682134
38	0xbcc25788	-0.023723379
39	0xbea776d3	-0.32707843
40	0x3e2667d4	0.16250545
41	0xbde1c7a0	-0.110244036
42	0x3e47fd1c	0.19530147
43	0x3e8c6962	0.2742415
44	0x3d9f86b9	0.07789368
45	0x3da3fbf8	0.080070436
46	0xbca911f2	-0.02063844
47	0x3dbf2f5e	0.093352064
48	0x3c34d74a	0.011037657
49	0x3d5e827c	0.05432366
50	0xbf021f06	-0.5082859
51	0xbeb527c4	-0.353819
52	0x3e0d2d13	0.13786726
53	0x3e8a50a1	0.2701464
54	0x3ec792e8	0.38979268
55	0x3d26f7f1	0.0407638
56	0x3d42b096	0.047531687
57	0x3d38ba8f	0.04509979
58	0x3e3c8e88	0.18413746
59	0xbd6f3ac3	-0.05840565
60	0x3e5c9997	0.21542965
61	0xbde82f76	-0.113371775
62	0x3e890122	0.26758677
63	0x3d0d7158	0.03453192
64	0xbd21cd84	-0.039502636
65	0x3e31e053	0.17370729
66	0x3e9f41da	0.31104928
67	0xbe959895	-0.29217973
68	0xbbadade6	-0.0053002713
69	0x3d89c241	0.06726504
70	0xbe283d92	-0.16429737
71	0x3deb55fa	0.11491008
72	0xbd03f8bf	-0.032219645
73	0xbe89511d	-0.26819697
74	0xbd0bde17	-0.03414735
75	0x3d9857bd	0.0743861
76	0x3f0b1751	0.54332453
77	0x3b3fd6cd	0.0029272318
78	0xbe30630a	-0.1722528
79	0xbd271db5	-0.040799815
80	0xbe45f915	-0.19333299
81	0xbdad3965	-0.08458213
82	0x3c47b83d	0.012189922
83	0xbf03832f	-0.51372045
84	0x3e03b24c	0.12860984
85	0xbdb1495b	-0.086565696
86	0x3e98614b	0.2976173
87	0xbe288f22	-0.16460851
88	0xbd2fe61c	-0.04294406
89	0xbe0e9dd9	-0.13927402
90	0x3da37407	0.07981115
91	0xbe8f40f5	-0.27979246
92	0x3e87d394	0.2652861
93	0xbda33ed5	-0.07970969
94	0xbc1b39fe	-0.009474276
95	0xbdc54b81	-0.09633542
96	0x3f3da882	0.7408525
97	0x3f01c931	0.5069762
98	0xbc525aa3	-0.012838992
99	0xbed89beb	-0.42306456
100	0xbdb2630f	-0.087103
101	0xbe4f1674	-0.20223409
102	0x3eca6ab6	0.3953454
103	0xbe3d35e8	-0.18477595
104	0xbe8bf87f	-0.27338025
105	0xbe4caa2e	-0.19986793
106	0x3eaeac98	0.34116054
107	0x3e1c6510	0.15272927
108	0x3f217bf7	0.6307978
109	0xbe7042da	-0.23463002
110	0xbd60b1fd	-0.054857243
111	0xbe82b18d	-0.25526085
112	0x3df0e573	0.11762514
113	0x3e2c543b	0.16829006
114	0xbed1ffad	-0.41015378
115	0xbe289c7a	-0.16465941
116	0x3dccf88c	0.10008344
117	0xbe182a5e	-0.14859912
118	0x3dea256f	0.11432921
119	0xbdfe0190	-0.12402642
120	0xbdef343d	-0.116798855
121	0xbe9fd953	-0.31220493
122	0x3db135af	0.086528175
123	0xbe203dc5	-0.15648563
124	0x3ec4f6dc	0.3846959
125	0x3e9c7dec	0.3056482
126	0xbd73377f	-0.059379097
127	0xbf4cd826	-0.80017316
128	0x3da6a55b	0.08137008
129	0x3c050b6e	0.008120401
130	0xbe644903	-0.22293477
131	0x3e45c9f0	0.19315314
132	0xbebe2267	-0.37135622
133	0x3daf6157	0.08563488
134	0xbe8d7164	-0.27625573
135	0x3f071230	0.52762127
136	0xbea3eb80	-0.3201561
137	0xbd7b42f2	-0.06134314
138	0x3ed3b64e	0.41350025
139	0xbb678215	-0.0035325338
140	0xbf1915f5	-0.5979913
141	0xbf25bf59	-0.647451
142	0x3e62ee8a	0.22161308
143	0xbf492af5	-0.7858117
144	0xbe812932	-0.25226742
145	0xbc294986	-0.010332471
146	0xbe6c358f	-0.23067306
147	0x3e780aaf	0.24222825
148	0xbd18d1ed	-0.037309576
149	0x3d74df85	0.059783477
150	0xbee1a8a9	-0.4407399
151	0x3ca20062	0.019775573
152	0x3eb635d3	0.3558794
153	0x3e2ebde1	0.1706462
154	0xbedff3e1	-0.43740752
155	0xbe1cf530	-0.15327907
156	0x3e2332ac	0.15937299
157	0xbd06b715	-0.032889444
158	0x3da9de77	0.08294385
159	0x3e3d44ae	0.1848323
160	0xbe6c01f5	-0.23047622
161	0xbd34c642	-0.044134386
162	0x3d003778	0.0313029
163	0xbe1cfabc	-0.15330023
164	0xbe3e2505	-0.1856881
165	0x3dfa95a7	0.12235575
166	0xbd0c4c4f	-0.03425246
167	0x3d14fb76	0.036372624
168	0xbe9bab95	-0.30404344
169	0x3db8fb89	0.090323515
170	0xbdec4c30	-0.11537969
171	0x3e6bea6d	0.23038645
172	0x3da8867f	0.08228778
173	0x3ed83983	0.42231378
174	0x3e2eb6b8	0.17061889
175	0x3db00627	0.085949235
176	0x3d6781c2	0.05652023
177	0x3e888d11	0.26670125
178	0x3ec5a601	0.38603213
179	0xbefb6d7d	-0.4910697
180	0x3ee54268	0.44777226
181	0xbf04d7d2	-0.51891816
182	0xbe04f171	-0.12982728
183	0x3eb5dcdf	0.35520074
184	0xbc9dfe94	-0.019286431
185	0xbe343f71	-0.17602326
186	0x3e226fe6	0.15862998
187	0x3ede027c	0.4336127
188	0x3d586258	0.052828163
189	0xbd7ba61c	-0.06143771
190	0x3e912ab8	0.28352904
191	0xbe1f39ce	-0.15549394
192	0x3cca3b66	0.024686527
193	0xbce47970	-0.027889937
194	0x3dc7efa6	0.09762506
195	0xbd3702e6	-0.0446805
196	0x3d2ee3fe	0.0426979
197	0xbd9d1163	-0.07669332
198	0x3c581026	0.013187444
199	0x3ec4cfab	0.38439688
200	0x3e82c039	0.2553728
201	0x3ea76590	0.32694674
202	0xbd9ea25f	-0.077458136
203	0xbdaaf572	-0.08347596
204	0x3ea5304d	0.32263413
205	0xbe0c3eb7	-0.13695799
206	0xbde33cd0	-0.110955834
207	0x3e1fa0d9	0.15588702
208	0x3e219560	0.15779638
209	0xbc83cbc1	-0.016088368
210	0xbe5fb607	-0.21846782
211	0x3dc767ff	0.097366326
212	0x3d89fd3e	0.06737755
213	0x3e3e1da9	0.18566002
214	0xbe481703	-0.19540028
215	0x3e09163e	0.13387391
216	0xbe370674	-0.17873555
217	0x3e920fac	0.28527582
218	0xbddf000f	-0.10888683
219	0xbf048980	-0.5177231
220	0x3d46aede	0.04850661
221	0x3df8436f	0.12122237
222	0xbe43c87d	-0.19119449
223	0xbd34943e	-0.044086687
224	0x3dd530e3	0.10409715
225	0x3ec1a9c1	0.37824824
226	0xbe8b93db	-0.27261242
227	0xbc2925d7	-0.010323963
228	0xbdde43dc	-0.10852787
229	0xbe9d972a	-0.30779392
230	0xbd602702	-0.0547247
231	0xbe70dbc5	-0.23521335
232	0xbe4b2f3f	-0.19842242
233	0x3e7e3919	0.24826469
234	0xbe17e2b4	-0.14832574
235	0x3e8d658d	0.2761654
236	0x3cadbf9f	0.021209536
237	0xbf0b3a6a	-0.5438601
238	0xbeab2169	-0.33423927
239	0xbe5f64c0	-0.21815777
240	0x3c5a0ed5	0.0133092
241	0x3a7762bc	0.0009437015
242	0xbcf30c09	-0.029668825
243	0x3bad135d	0.0052818493
244	0x3d24033e	0.040042154
245	0xbea9d798	-0.33172297
246	0x3e922492	0.28543526
247	0x3baf2101	0.0053445105
248	0xbdd9eadd	-0.106405
249	0xbe168ceb	-0.14702193
250	0x3e93f2c0	0.2889614
251	0xbe6b5b3e	-0.22984025
252	0x3dfc383b	0.123154126
253	0xbf19bce9	-0.6005388
254	0xbbc1686c	-0.0059023406
255	0xbdaadcbf	-0.08342885

linears.3.bias f4 [20]
0	0xbe2e7255	-0.17035802
1	0x3d9c0a97	0.07619207
2	0x3d897d14	0.0671331
3	0xbce7b9f5	-0.028286913
4	0xbd96bd9d	-0.073603846
5	0xbd5fec17	-0.054668512
6	0xbd762cc6	-0.060101293
7	0xbde2c0bc	-0.110719174
8	0xbe614d1f	-0.22002076
9	0x3dbe3a15	0.09288422
10	0x3df25476	0.11832516
11	0x3c193fdc	0.009353604
12	0xbd9001bb	-0.0703158
13	0xbd8cabb2	-0.06868686
14	0x3d37c037	0.044861045
15	0x3deae818	0.114700496
16	0xbd5f1f96	-0.054473482
17	0xbb9d93b4	-0.0048088674
18	0xba049714	-0.0005057913
19	0xbd997511	-0.07493032

linears.4.weight f4 [20, 20]
0	0xbf07fef0	-0.5312338
1	0xbe50485d	-0.20340104
2	0xbe89a20c	-0.26881444
3	0x3dce7557	0.100809745
4	0xbccd4935	-0.025059322
5	0x3ed941a1	0.42432883
6	0xbdfc5275	-0.12320415
7	0x3dc1f268	0.094700634
8	0x3e92a07e	0.2863807
9	0xbeb679eb	-0.3563989
10	0x3b4bcd7c	0.003109782
11	0x3d7c2e15	0.061567385
12	0x3dc0302b	0.09384187
13	0xbe1636d3	-0.14669351
14	0xbda9c7a5	-0.08290032
15	0xbe7ba65b	-0.24575178
16	0xbdb1a606	-0.086742446
17	0x3df91b23	0.12163379
18	0xbdc0f2e0	-0.09421325
19	0x3e41c5cf	0.18923114
20	0x3dfc1e0d	0.12310419
21	0x3e41b9e7	0.18918572
22	0xbe3d6d0a	-0.18498626
23	0xbe3d5f14	-0.184933
24	0x3c94ea3b	0.018178096
25	0x3ee289bf	0.44245717
26	0xbe39a7da	-0.18130437
27	0xbccd3f68	-0.025054649
28	0xbe9d6849	-0.30743626
29	0xbd61c194	-0.05511625
30	0xbdee1673	-0.116253756
31	0x3e2e4070	0.17016768
32	0x3c885d41	0.01664603
33	0x3eb7e1fa	0.35914594
34	0xbda599eb	-0.08085998
35	0xbe54765f	-0.2074828
36	0x3e5aa9b5	0.213538
37	0x38e9ecda	0.00011154423
38	0xbe17026f	-0.14747022
39	0xbe120a60	-0.1426177
40	0x3d6cfaa6	0.057856224
41	0x3d743f96	0.059630953
42	0xbee7b592	-0.45255715
43	0xbef1991b	-0.47187123
44	0xbdafe108	-0.08587843
45	0x3eb426c2	0.3518582
46	0xbf1b60b9	-0.6069446
47	0x3e981010	0.29699755
48	0xbe435297	-0.19074474
49	0xbe8638e3	-0.26215276
50	0x3dd77c26	0.10521726
51	0xbee213a5	-0.44155613
52	0xbcf607f3	-0.030033087
53	0xbe080ef3	-0.13286953
54	0xbccfce76	-0.025367003
55	0xbe3ee500	-0.18642044
56	0xbca62299	-0.02028017
57	0x3e9ccdcd	0.30625764
58	0x3c178460	0.009247869
59	0x3e039cd6	0.12852797
60	0xbee30985	-0.443432
61	0x3d70d935	0.058800895
62	0x3ee75840	0.45184517
63	0x3d871cff	0.065973274
64	0xbd94e77c	-0.07270715
65	0x3e211e6c	0.15734261
66	0xbd8f4212	-0.06995024
67	0x3e3d2786	0.18472108
68	0x3e6a08b6	0.22854885
69	0x3e8b7288	0.27235818
70	0xbe86e93f	-0.26349828
71	0x3dd26639	0.10273404
72	0xbeb3d3d1	-0.3512254
73	0xbe3aaa6b	-0.18229072
74	0x3d11b130	0.03556937
75	0x3eaae8fb	0.33380875
76	0x3da02439	0.07819409
77	0xbe46090e	-0.19339392
78	0xbe96730d	-0.29384652
79	0x3ddb7429	0.10715515
80	0x3e9dcf1d	0.30822077
81	0xbd8b9d42	-0.06817104
82	0x3ebff2bd	0.37489882
83	0xbe5b5bf4	-0.21421796
84	0x3dd1cb5b	0.10243865
85	0x3bd0a543	0.006367357
86	0xbe667527	-0.22505628
87	0xbe98b9a9	-0.29829147
88	0xbe647a72	-0.22312334
89	0x3dc16b7a	0.09444328
90	0xbda61f04	-0.081113845
91	0x3e3a8faa	0.18218866
92	0x3e887561	0.26652053
93	0x3d2ecbab	0.0426747
94	0xbd594125	-0.053040642
95	0x3e4881b8	0.19580734
96	0xbeac3ad3	-0.3363863
97	0xbdbbadcd	-0.09164009
98	0xbe431eb3	-0.1905468
99	0x3cf831e0	0.03029722
100	0xbe9f2434	-0.31082308
101	0xbdd1812b	-0.10229715
102	0xbcefb590	-0.02926138
103	0xbe0f5c45	-0.14000042
104	0x3d3e8b49	0.04651955
105	0xbd8d001e	-0.06884788
106	0x3d7860c5	0.06063916
107	0x3e095852	0.13412598
108	0x3ef285a7	0.47367594
109	0x3e35dd3f	0.1776018
110	0x3e00b406	0.12568673
111	0xbe0ef476	-0.13960442
112	0xbe7b882c	-0.24563664
113	0xbe05da96	-0.13071665
114	0xbeec37ac	-0.46136224
115	0x3e906643	0.2820302
116	0x3e5452f6	0.20734772
117	0x3e8df122	0.27723032
118	0x3d8ad451	0.067787774
119	0xbe8e6969	-0.27814797
120	0x3ed7e872	0.4216953
121	0xbe2c88e2	-0.16849092
122	0xbe6d56bc	-0.23177618
123	0x3eda1c60	0.42599773
124	0x3de59418	0.11209887
125	0xbd6b229d	-0.057406057
126	0x3e0f2d49	0.13982119
127	0xbee91484	-0.45523465
128	0x3d80cd53	0.062891625
129	0xbe69ebc9	-0.22843851
130	0xbe337b53	-0.17527513
131	0xbe20656f	-0.15663694
132	0x3e25cced	0.16191454
133	0x3e6148cb	0.22000425
134	0xbbdee168	-0.006801773
135	0xbe849583	-0.25895318
136	0xbe8a0297	-0.269551
137	0x3eae0baa	0.33993274
138	0xbcbd12fd	-0.023080343
139	0x3e203c3e	0.1564798
140	0xbdf4b01b	-0.11947652
141	0xbd92fae2	-0.07176758
142	0x3eab1408	0.3341372
143	0x3dad060a	0.084484175
144	0xbd3999bd	-0.045312632
145	0x3dee476f	0.116347186
146	0x3e5e6b23	0.21720557
147	0x3e82fcc5	0.25583473
148	0x3f1a83fd	0.6035765
149	0xbe026840	-0.1273508
150	0xbd8e2b46	-0.069418475
151	0xbebb696a	-0.36603862
152	0x3eb63367	0.35586092
153	0xbd2bb8e3	-0.04192437
154	0xbeb4a5b5	-0.35282674
155	0x3d070775	0.032966096
156	0x3e24934e	0.16071817
157	0x3c64c7e1	0.0139636705
158	0x3e3d23c6	0.18470678
159	0xbeaf948f	-0.3429303
160	0xbe17c98d	-0.1482298
161	0xbe40946f	-0.18806623
162	0xbe3e24bb	-0.18568699
163	0xbdeb6557	-0.114939384
164	0x3ac1e9ce	0.0014794411
165	0x3ec6e580	0.3884697
166	0x3d8ed7b7	0.06974738
167	0x3e98faea	0.29878932
168	0xbc616916	-0.013757965
169	0xbe9209f8	-0.2852323
170	0x3e2859bc	0.16440481
171	0x3d6757d9	0.056480262
172	0x3d04cd1f	0.03242218
173	0x3e26eaf4	0.16300565
174	0xbe4c16ce	-0.19930574
175	0x3ef3a2a5	0.47585025
176	0xbc2bca4b	-0.010485242
177	0x3d826084	0.06366065
178	0x3ed09c31	0.40744165
179	0x3ef57697	0.4794204
180	0x3ddffc92	0.10936846
181	0x3eb79dde	0.3586263
182	0x3e958f3e	0.29210848
183	0x3cefe36e	0.029283252
184	0xbeb80b04	-0.35945904
185	0xbe2942c5	-0.16529377
186	0xbe22ffb6	-0.15917858
187	0x3e183892	0.1486533
188	0xbc234763	-0.00996575
189	0xbeaafaa7	-0.33394358
190	0x3c85c2f6	0.016328316
191	0xbe04384c	-0.129121
192	0x3dd32aea	0.103109196
193	0x3c809c4f	0.015699534
194	0xbf014fb3	-0.50512236
195	0xbb862897	-0.004094194
196	0x3dafd6f8	0.08585924
197	0xbea5af67	-0.32360384
198	0x3ec25eea	0.3796304
199	0xbecc4b3d	-0.39901152
200	0xbdfd1469	-0.123574086
201	0x3ee8ea9a	0.45491487
202	0x3e9cf743	0.30657396
203	0x3e3d4784	0.18484312
204	0xbe674b4a	-0.22587314
205	0xbe9fe94b	-0.31232676
206	0x3ea59252	0.32338196
207	0x3e5124c9	0.20424189
208	0x3dafed43	0.08590176
209	0xbd4ccf44	-0.05000235
210	0x3f01cb1c	0.50700545
211	0x3cc01256	0.023446243
212	0x3e3f42c4	0.18677813
213	0x3e553977	0.20822702
214	0xbd31db71	-0.043422166
215	0x3e8392c9	0.25697926
216	0xbcf18b5d	-0.029485399
217	0x3cef384c	0.02920165
218	0xbe913807	-0.28363058
219	0xbe35f55b	-0.17769377
220	0xbe4b5acb	-0.19858854
221	0x3dd12ff6	0.10214226
222	0x3e2dec32	0.16984633
223	0x3d7615ab	0.060079258
224	0xbea00876	-0.31256455
225	0xbe6cd9a9	-0.23129906
226	0xbc7ff9c1	-0.015623511
227	0xbf4a1837	-0.789432
228	0xbec1d404	-0.37857068
229	0x3de8c5d1	0.113658555
230	0xbcabb38c	-0.020959638
231	0x3d85a6cf	0.06525957
232	0x3c15a96c	0.009134632
233	0xbe29a910	-0.16568398
234	0x3ec6bad6	0.3881442
235	0x3d7efed1	0.06225473
236	0xbefefb51	-0.49801114
237	0x3dc2c21f	0.09509682
238	0xbe3d62c5	-0.18494709
239	0xbee446b6	-0.44585198
240	0x3d553b86	0.05205872
241	0xbdf8d2b8	-0.121495664
242	0xbe5b1713	-0.21395521
243	0xbe3d6a32	-0.18497542
244	0x3e2d9558	0.16951501
245	0x3f0d6a28	0.55240107
246	0xbc811200	-0.015755653
247	0x3b06e4a8	0.0020583067
248	0x3dfb3dcb	0.122676454
249	0xbe112afe	-0.14176556
250	0xbdeed210	-0.1166116
251	0x3e6f3477	0.23359857
252	0xbd8ccf21	-0.06875444
253	0x3e81e9f0	0.25373793
254	0xbcd51403	-0.026010519
255	0x3e0ad985	0.1355954

linears.4.bias f4 [20]
0	0xbce5141b	-0.027963689
1	0x3c91b78a	0.017787714
2	0x3ccb09f5	0.024785021
3	0xbd4dbc00	-0.05022812
4	0xbd3abb36	-0.045588695
5	0x3b805706	0.003916624
6	0xbdf5d459	-0.12003393
7	0xbd41bb6f	-0.04729789
8	0xbd02512b	-0.03181569
9	0xbca09773	-0.019603467
10	0xbbabc965	-0.005242514
11	0x3e5e8733	0.21731262
12	0x3c232082	0.009956481
13	0xbc97cf61	-0.018531503
14	0x3d152780	0.036414623
15	0xbd581f21	-0.05276406
16	0xbc21503e	-0.009845791
17	0x3c6ade35	0.014335205
18	0xbd50fd2e	-0.0510227
19	0xbd814288	-0.06311518

linears.5.weight f4 [1, 20]
0	0x3e03b8b5	0.12863429
1	0xbd8ec5a6	-0.06971292
2	0x3ddc25ae	0.10749374
3	0x3f035efd	0.51316816
4	0xbeac194e	-0.33613056
5	0x3f12874e	0.5723771
6	0xbf1503b6	-0.5820879
7	0x3f050af0	0.51969814
8	0x3ecba693	0.39775524
9	0x3e50ca70	0.20389724
10	0x3e98020d	0.29689065
11	0xbf541371	-0.82842165
12	0x3c6fdc24	0.014639888
13	0xbe803d76	-0.2504689
14	0x3e5b984f	0.2144482
15	0x3ef2e059	0.4743679
16	0x3e73db14	0.2381404
17	0xbccace38	-0.024756536
18	0x3e517911	0.2045634
19	0x3f5542eb	0.83305234

H1.weight f4 [20, 2]
0	0xbb42bf3e	-0.002971604
1	0xbd9a86c1	-0.075452335
2	0x3e668597	0.22511898
3	0x3e88cdd8	0.26719546
4	0xbe9c508f	-0.3053021
5	0x3f1eefee	0.62084854
6	0xbef2f3f5	-0.4745175
7	0xbf0837fa	-0.53210413
8	0xbe8648dc	-0.26227462
9	0x3d701bcd	0.058620263
10	0xbc84eed6	-0.016227167
11	0x3de21ac9	0.11040265
12	0x3e63e2d3	0.22254495
13	0xbdd0dab2	-0.10197963
14	0xbe3cbd77	-0.1843165
15	0x3dc895e2	0.09794213
16	0x3d372281	0.04471064
17	0xbeb32f49	-0.34997013
18	0xbf0763e1	-0.5288678
19	0x3ee907b7	0.45513698
20	0x3effff20	0.49999332
21	0xbeb1de8f	-0.3474011
22	0x3e950422	0.29104716
23	0x3e8dc741	0.2769108
24	0x3e1ff601	0.15621187
25	0xbe0d83d8	-0.13819826
26	0x3f14ad0e	0.5807656
27	0xbe46647b	-0.19374268
28	0x3ec8f28b	0.39247546
29	0xbe8fdc7d	-0.28097907
30	0x3efddacb	0.49580988
31	0xbf111127	-0.566668
32	0x3e5cf543	0.21577935
33	0xbde94b15	-0.11391274
34	0x3e78f535	0.24312289
35	0x3f20c0f2	0.6279441
36	0x3a2d7902	0.0006617458
37	0xbdd7ce70	-0.10537422
38	0xbe52671d	-0.20547147
39	0x3d972434	0.07379952

H1.bias f4 [20]
0	0x3dc0d2e2	0.09415223
1	0xbe62ae90	-0.22136903
2	0xbd93ad47	-0.072107844
3	0x3ec594d8	0.3859012
4	0xbe4c7e00	-0.1996994
5	0x3e2bcd04	0.16777426
6	0x3e3eca66	0.18631896
7	0xbe95b0bf	-0.2923641
8	0x3e830783	0.25591668
9	0xbeab6c83	-0.33481225
10	0x3f329af7	0.6976771
11	0xbeaf08d0	-0.3418641
12	0x3e75cd88	0.24004185
13	0x3e756198	0.2396301
14	0x3ee4c715	0.44683138
15	0x3ec6d233	0.38832244
16	0x3dbacee3	0.09121492
17	0x3e3416fc	0.17586893
18	0xbdd01e3c	-0.10162017
19	0xbe08698d	-0.13321514

d f4 [1761]
0	0x3a0414f2	0.00050385215
1	0xb8a53ee0	-7.8795245e-05
2	0xb9d0ddb8	-0.00039838045
3	0x3a12512f	0.00055815553
4	0xb835726b	-4.3260323e-05
5	0xbb54b202	-0.0032454734
6	0x3a3ab58c	0.00071223895
7	0x39a4dcb2	0.00031444948
8	0xba2ed9c2	-0.00066700217
9	0x38e66b7a	0.00010987274
10	0xb81254da	-3.4888137e-05
11	0xb795fddb	-1.7880395e-05
12	0x3a052d28	0.0005080276
13	0x3a552893	0.0008131351
14	0xbacd9a68	-0.0015686275
15	0xbb23be25	-0.002498516
16	0x39ffc81a	0.00048786477
17	0xbaaa35bc	-0.0012985985
18	0x38e6a10c	0.00010997252
19	0x3a5cc3b7	0.0008421498
20	0x38269d18	3.972379e-05
21	0xbaf5404e	-0.0018711181
22	0xb9f8619d	-0.00047374974
23	0x3aac8943	0.0013163466
24	0x394cf6c9	0.0001954689
25	0x3a835ae6	0.0010021597
26	0xba9a8b14	-0.0011790716
27	0xbaea27b8	-0.001786462
28	0x3a28cb8a	0.0006439021
29	0x3a22f30c	0.00062160264
30	0xba289855	-0.00064313906
31	0xbac42e92	-0.0014967492
32	0x391fde23	0.00015246174
33	0x3a5a6532	0.00083311193
34	0xb96df2b2	-0.00022692492
35	0xbb447e79	-0.002998261
36	0xb9a5f6df	-0.00031655186
37	0xb9fbb800	-0.0004801154
38	0xba7671bd	-0.00094011036
39	0x3acd5542	0.0015665668
40	0x3929f51e	0.00016208409
41	0xba31d682	-0.00067839783
42	0xbaae4cc4	-0.0013298024
43	0x39ee03c2	0.00045397697
44	0x38921693	6.966027e-05
45	0x38efe001	0.00011438132
46	0x390ffc6c	0.00013731577
47	0xb98f9e8c	-0.00027393212
48	0x38c112cd	9.206459e-05
49	0xb827a876	-3.9972794e-05
50	0x3a3c096a	0.00071730337
51	0xba2cc6a1	-0.00065908773
52	0x39866ffc	0.00025641907
53	0x3a063a23	0.00051203574
54	0x3a2b435b	0.0006533169
55	0x39445a24	0.00018725597
56	0x3a1b9dd5	0.00059362996
57	0x398394c7	0.00025097115
58	0x3a329836	0.00068128423
59	0x3a39117e	0.00070597965
60	0x390d4da3	0.0001347573
61	0xb83f4e00	-4.561059e-05
62	0xb96a5995	-0.00022349351
63	0x398da320	0.00027015153
64	0xb9140082	-0.00014114569
65	0x3730b3b2	1.0532256e-05
66	0x390748fa	0.00012901789
67	0xb84eec25	-4.9334154e-05
68	0x38a6fbac	7.9623744e-05
69	0xb936008d	-0.00017357078
70	0x39b7b0ef	0.00035036306
71	0xb8d72390	-0.00010258623
72	0x3924ab17	0.00015703995
73	0x38ad8a46	8.275038e-05
74	0x39825e25	0.00024865675
75	0x389b5bf9	7.408107e-05
76	0x38d00fd6	9.9211626e-05
77	0xb98af5b8	-0.00026504486
78	0x38409d9d	4.5923156e-05
79	0xb8e9bd1a	-0.00011145529
80	0xb911e387	-0.00013913038
81	0x390bd479	0.00013335225
82	0x3a0cedea	0.0005376028
83	0xb9b4542d	-0.0003439499
84	0x39358bda	0.00017313604
85	0x38f50da6	0.000116850526
86	0xb9580b66	-0.00020603611
87	0x392e0791	0.00016596752
88	0xb99a5356	-0.0002943526
89	0x39a9cbe8	0.00032386114
90	0xb9a3de64	-0.00031255477
91	0xb780de0f	-1.5362193e-05
92	0xb9215b42	-0.00015388153
93	0xb94a557c	-0.00019296067
94	0xb991c9f2	-0.00027807016
95	0xb987a6dd	-0.0002587353
96	0xb96505e7	-0.0002184134
97	0x39dbafc2	0.00041901885
98	0xb90fd03f	-0.0001371512
99	0x390cb085	0.00013417199
100	0xb7dc2871	-2.6244876e-05
101	0x383df330	4.5287597e-05
102	0xb8797088	-5.947103e-05
103	0xb893d024	-7.0482754e-05
104	0x389ae443	7.385809e-05
105	0xb8394257	-4.416922e-05
106	0xb845e763	-4.7183956e-05
107	0x38defe04	0.00010633099
108	0xb92ec3a3	-0.00016666813
109	0x3846cae0	4.739582e-05
110	0xb9530865	-0.00020125655
111	0x38cea81b	9.8541575e-05
112	0xb90136c0	-0.00012322795
113	0xb792b980	-1.7490936e-05
114	0xb94a5f34	-0.00019299687
115	0xb8cff9f7	-9.917089e-05
116	0xb88f5459	-6.834482e-05
117	0xb8bee797	-9.103043e-05
118	0xb797ff78	-1.8119565e-05
119	0x3863865d	5.4246153e-05
120	0x3938e033	0.00017631128
121	0xb8ee4497	-0.000113615
122	0xba002221	-0.0004887898
123	0x391c503c	0.00014907209
124	0xb8565cf4	-5.1108145e-05
125	0xb933afce	-0.00017136263
126	0x390a66f6	0.00013199062
127	0xb7d6580a	-2.5551784e-05
128	0x39178881	0.00014451334
129	0xb9aa3d76	-0.0003247072
130	0x39960b38	0.00028618588
131	0xb8aeb406	-8.3304985e-05
132	0x38d37cac	0.00010084486
133	0x38e802ee	0.00011063168
134	0x395e782b	0.00021216336
135	0x39a6af77	0.0003179272
136	0x390d5ed5	0.00013482136
137	0xb940795e	-0.0001835576
138	0x3950e447	0.00019921466
139	0x3797b056	1.8082716e-05
140	0x394badb9	0.00019424305
141	0xb88d62c8	-6.7418034e-05
142	0xb9a13717	-0.00030749358
143	0x398d1277	0.00026907373
144	0xb7d2d3b7	-2.5132538e-05
145	0xb82c5921	-4.1091003e-05
146	0x3896ad51	7.18484e-05
147	0xb8397354	-4.4214845e-05
148	0x389eefe5	7.578711e-05
149	0xb989f500	-0.00026313215
150	0x39854c95	0.00025424795
151	0xb9283507	-0.00016041483
152	0x38fd90a5	0.00012090922
153	0xb9016f64	-0.00012343895
154	0x396f4882	0.00022819827
155	0x396faef2	0.00022857988
156	0x38937366	7.031001e-05
157	0xb9af8de4	-0.00033484318
158	0x38db292c	0.000104504026
159	0x38117a03	3.4684326e-05
160	0xb8c896c3	-9.564825e-05
161	0x3961a722	0.00021519934
162	0x3830fd53	4.2197596e-05
163	0xb9b33237	-0.00034178954
164	0xb7e81c50	-2.766974e-05
165	0x3881f6c7	6.197165e-05
166	0xb87517c1	-5.8434674e-05
167	0x390de5af	0.00013532372
168	0xb946ab36	-0.00018946533
169	0x39076684	0.00012912793
170	0xb9853ca7	-0.00025412926
171	0x399dfb48	0.00030132593
172	0xb8e75eed	-0.0001103262
173	0x38bbfebf	8.964305e-05
174	0xb959ece2	-0.00020782978
175	0xb8834470	-6.259314e-05
176	0xb8839f08	-6.276189e-05
177	0x394532fb	0.00018806376
178	0xb8a10df8	-7.67968e-05
179	0xb82607d4	-3.9584775e-05
180	0xb7eccc2f	-2.8228473e-05
181	0xb8c8fb99	-9.583607e-05
182	0x3a24c1ce	0.00062849827
183	0x3923adad	0.0001560959
184	0x38fe529b	0.0001212705
185	0xb6561a97	-3.1903962e-06
186	0xb911cfdd	-0.00013905713
187	0x38a509f7	7.869669e-05
188	0x3872e2e1	5.7908594e-05
189	0x39289049	0.00016075479
190	0xb92ae533	-0.00016297847
191	0xb9b1f541	-0.000339428
192	0xb7cac33b	-2.4171188e-05
193	0xb98e7067	-0.00027168097
194	0xb8a9b428	-8.092105e-05
195	0xb94c8451	-0.00019504248
196	0xb93cd876	-0.00018009715
197	0x39ac0c8d	0.00032815748
198	0xb91c7cbf	-0.00014923791
199	0x381c9968	3.733617e-05
200	0xb9c1795e	-0.00036902254
201	0x395ba46a	0.00020946717
202	0x3a1dd51e	0.00060208316
203	0x39519715	0.00019988076
204	0x39260a50	0.00015834835
205	0x39c7e5fc	0.0003812759
206	0xb96fff6d	-0.0002288797
207	0x38834d78	6.2609965e-05
208	0xb99d82ed	-0.0003004292
209	0x3956479f	0.00020435311
210	0xb9d96cfa	-0.0004147066
211	0xb7e6072b	-2.7421474e-05
212	0xb920e6f9	-0.00015344833
213	0x38923f32	6.9735936e-05
214	0xb97f3b7d	-0.00024340856
215	0xb763ff41	-1.3589685e-05
216	0xb98b7287	-0.00026597476
217	0x3982c174	0.00024939666
218	0xb9bde5a7	-0.00036219993
219	0xb89398e9	-7.037988e-05
220	0x3935d035	0.00017339068
221	0xb8f68da8	-0.000117565796
222	0xb99da76d	-0.00030070115
223	0x355977bd	8.101304e-07
224	0x367a31a5	3.72818e-06
225	0xb9279714	-0.00015982642
226	0x390c8f98	0.00013404933
227	0xb9231d4d	-0.00015555807
228	0x383d8ff8	4.5195193e-05
229	0xb98da2d1	-0.00027014923
230	0x392a4eb9	0.0001624179
231	0xb93e5f74	-0.00018155371
232	0x3987b51d	0.00025884146
233	0xb6634c28	-3.3869965e-06
234	0x3945d5a0	0.00018866966
235	0x3988f84d	0.0002612494
236	0x3927fa63	0.00016019637
237	0xb95e5b45	-0.0002120557
238	0x3956ef72	0.0002049783
239	0xb8e45858	-0.000108883425
240	0xb914a478	-0.00014175649
241	0xb7deb10a	-2.6546903e-05
242	0x390f9623	0.00013693473
243	0x3835c226	4.3334578e-05
244	0x3832c67c	4.262336e-05
245	0xb63181cd	-2.645061e-06
246	0xb8946fcd	-7.0780145e-05
247	0x3828a1c0	4.0204963e-05
248	0xb778d90f	-1.483249e-05
249	0xb86be467	-5.6241082e-05
250	0xb9303210	-0.00016803318
251	0xb93174b9	-0.00016923518
252	0x37aee304	2.0848129e-05
253	0x38ddeaaf	0.000105818144
254	0xb73df5cd	-1.1322508e-05
255	0x391a69f7	0.0001472606

old_dirs f4 [1761]
0	0xba22fb26	-0.00062172336
1	0xbb97f156	-0.004636924
2	0xbb01c580	-0.0019801557
3	0xbc29ca38	-0.010363154
4	0xbacc52ec	-0.0015588677
5	0xba0efbf8	-0.00054544164
6	0xbb1828d2	-0.002321769
7	0xbb27ed14	-0.0025623487
8	0xba814494	-0.0009862357
9	0xbbd72e30	-0.0065667853
10	0xba1270e0	-0.00055862777
11	0xb9c8a200	-0.00038267672
12	0xb93a0640	-0.0001774067
13	0xbac25ef0	-0.0014829319
14	0xbae03d90	-0.0017108191
15	0xbc0d7b08	-0.00863529
16	0x3a43def0	0.000747188
17	0x3bf1f954	0.0073844586
18	0xb7bdaa80	-2.2609951e-05
19	0xba45c564	-0.0007544367
20	0xbb8e8d48	-0.004350338
21	0xbd01d7ee	-0.031700067
22	0xba4c7248	-0.00077990117
23	0xbb99fb00	-0.004699111
24	0xbadf9e7c	-0.0017060782
25	0xbbd1624c	-0.0063898917
26	0x3b83e22a	0.0040247636
27	0x3cbffc08	0.023435608
28	0xbb2b7fba	-0.002616866
29	0xbc4ec494	-0.01262011
30	0x39272900	0.00015941635
31	0x3a224358	0.00061898446
32	0x3953bb44	0.0002019229
33	0x3b05a850	0.0020394512
34	0xb9703400	-0.00022907555
35	0x399bb500	0.0002969876
36	0xbaa5ebb5	-0.0012658747
37	0xbbc52c3c	-0.006017236
38	0xbad091ac	-0.0015912554
39	0xbc102cec	-0.008799773
40	0xbaa24098	-0.001237887
41	0xbb6496d0	-0.003487993
42	0xba606de8	-0.0008561299
43	0xba64bac0	-0.00087253377
44	0xbaeab484	-0.0017906581
45	0xb9af9a50	-0.00033493573
46	0xb9e2d4ae	-0.00043264538
47	0xbb31c184	-0.00271234
48	0x3b1a131c	0.0023509925
49	0xb7404100	-1.1459226e-05
50	0xbc02db36	-0.007986834
51	0xbab9b7b0	-0.0014169123
52	0xbb0dabe6	-0.0021617352
53	0x3bc4f29c	0.0060103666
54	0xbb6849ac	-0.0035444302
55	0xb8c30f80	-9.301212e-05
56	0x3a0c6e90	0.0005357051
57	0xb944a880	-0.00018754788
58	0xbb0d79bc	-0.0021587452
59	0xbb200990	-0.0024419762
60	0x3978e1a0	0.00023735175
61	0xba74b0c8	-0.0009334204
62	0xbaa2bf90	-0.0012416709
63	0x3ac1b6f4	0.0014779256
64	0x39bc7c74	0.0003595088
65	0xba35a3c4	-0.0006929005
66	0xb8b43b60	-8.594128e-05
67	0x38c8df20	9.5783034e-05
68	0x3a76d938	0.00094165234
69	0xba5d5a60	-0.0008443948
70	0x384bcb00	4.858803e-05
71	0xba5c4640	-0.0008402802
72	0x39080fb0	0.00012975815
73	0xb960e560	-0.00021447754
74	0x39d49820	0.00040549133
75	0x3a7d9f30	0.0009674905
76	0x395a34e0	0.00020809798
77	0xbac4a3b0	-0.0015002396
78	0x3a1b4a6c	0.00059238705
79	0x3990d18d	0.00027621948
80	0xb96cad68	-0.00022571313
81	0x3a5f5db8	0.000852074
82	0x3a83960c	0.0010039224
83	0xbaabfec0	-0.0013122186
84	0xb9913ea4	-0.00027703226
85	0x3a27ec84	0.0006405788
86	0x381a4380	3.6779325e-05
87	0xb829e780	-4.050834e-05
88	0xba54aec4	-0.00081132003
89	0x3a20f6f8	0.0006140317
90	0xb7f1e100	-2.8834213e-05
91	0x3a49ecc8	0.00077028247
92	0xb91a03b0	-0.00014687958
93	0x39345820	0.00017198967
94	0xb9a74980	-0.00031907484
95	0xba37bc80	-0.00070089847
96	0xb95d6ac0	-0.0002111597
97	0x3ab4b18e	0.0013785826
98	0xba105c18	-0.0005506887
99	0xb95caf80	-0.00021046214
100	0x39bb89f8	0.00035770214
101	0xba87b394	-0.0010353201
102	0xbaf8a186	-0.0018969036
103	0x3ab9a92e	0.0014164799
104	0xb8ebbf50	-0.00011241308
105	0xba6b9846	-0.0008987229
106	0x39dae446	0.00041750277
107	0xb9cdfcb4	-0.00039288925
108	0x3ab627d6	0.001389737
109	0xbaf1c064	-0.0018444178
110	0x3a8aad29	0.001058017
111	0xba7015c4	-0.0009158517
112	0x3a216ac0	0.00061575696
113	0x3a3fea60	0.00073209964
114	0x3aa63280	0.0012679845
115	0x3b01b11b	0.00197894
116	0x3a3b6636	0.00071487145
117	0xbad3c9e4	-0.001615819
118	0x3a4cab3c	0.00078074983
119	0xb8c4d668	-9.3859446e-05
120	0x3927b430	0.00015993486
121	0xba487278	-0.00076464517
122	0xba979df8	-0.0011567464
123	0x3ab0a8cc	0.001347804
124	0x39d7e3a2	0.00041177595
125	0xba1cf850	-0.0005987929
126	0xb93a6488	-0.00017775793
127	0x3957ea40	0.00020591263
128	0x3a49d9e0	0.00077000074
129	0xba35be48	-0.0006932956
130	0xb8eb1280	-0.00011209119
131	0xba319930	-0.0006774841
132	0x35e45000	1.7010607e-06
133	0xb9b21b80	-0.00033971295
134	0x397bf960	0.00024030125
135	0x3a592a50	0.0008284198
136	0x38d192c0	9.993231e-05
137	0xbab937f8	-0.001413106
138	0x3a037308	0.00050143944
139	0x39a6261c	0.0003169038
140	0x394bc850	0.00019434211
141	0xba5e8850	-0.000848894
142	0xbaa634d8	-0.0012680544
143	0x3abc7a84	0.0014379774
144	0x39d95e56	0.0004145975
145	0xba209270	-0.00061253365
146	0xb9253da0	-0.00015758583
147	0x39311c80	0.00016890652
148	0x3a6ef640	0.00091156736
149	0xba6c2150	-0.00090076495
150	0x37981d00	1.8133316e-05
151	0xba4abb88	-0.0007733633
152	0x386ce140	5.6476565e-05
153	0xb9a28fa0	-0.00031006057
154	0x39cb5780	0.0003878437
155	0x3a8ad200	0.0010591149
156	0x390bb7e0	0.00013324572
157	0xbab389a4	-0.0013697636
158	0x3a07f594	0.00051864353
159	0x39a8a61e	0.00032167224
160	0xb93d89e8	-0.00018075819
161	0x3a278870	0.0006390875
162	0x3a867b74	0.001026018
163	0xba8459ea	-0.0010097597
164	0xb8f7eaec	-0.000118216354
165	0x39f88a30	0.00047405204
166	0xb87cc600	-6.0265884e-05
167	0x3844ac00	4.689023e-05
168	0xba480000	-0.00076293945
169	0x3a6bbbd8	0.00089925295
170	0xb9ab6198	-0.00032688375
171	0x3a1a2db8	0.00058814464
172	0xb9519910	-0.00019988813
173	0xb8bdc0a0	-9.0481015e-05
174	0xba0a6934	-0.0005279959
175	0xba8465e0	-0.0010101162
176	0xb984a3b0	-0.0002529896
177	0x3a70e2e0	0.00091890804
178	0xb9d62288	-0.00040842989
179	0xb8c13ae8	-9.213929e-05
180	0xb9064488	-0.00012804766
181	0x3a07826a	0.00051692745
182	0x3a32b698	0.000681737
183	0xba567bfe	-0.00081819284
184	0xb9408538	-0.00018360175
185	0x39e62020	0.00043892954
186	0x37f6b6a0	2.9410527e-05
187	0xb84600f0	-4.720775e-05
188	0xb9fbec0e	-0.00048050325
189	0x39c225a9	0.00037030622
190	0x37e2b840	2.7027098e-05
191	0x39e9f10c	0.00044620817
192	0xb8989754	-7.276112e-05
193	0x38b401c8	8.5834006e-05
194	0xb92d8f50	-0.00016551954
195	0xb9da18c0	-0.0004159864
196	0xb91253aa	-0.00013954812
197	0x3a8256f6	0.0009944129
198	0xb9c3149c	-0.00037208654
199	0xb9100f90	-0.00013738708
200	0xba1cc0a4	-0.00059796334
201	0x3b16e17a	0.0023022578
202	0x3b4867a4	0.0030579353
203	0xbb6e76cc	-0.0036386726
204	0xba21b348	-0.00061683776
205	0x3adc127c	0.0016790177
206	0xb79e0480	-1.8837163e-05
207	0x368ba000	4.1611493e-06
208	0xbb1df8b0	-0.0024104528
209	0x3b1747e8	0.002308363
210	0xba117f10	-0.0005550245
211	0x3b0bdba0	0.0021340623
212	0xba06b0a8	-0.0005138018
213	0x3948ac40	0.00019137654
214	0xbaa981e0	-0.0012932383
215	0xbb2c14d8	-0.002625754
216	0xba331ff0	-0.0006833067
217	0x3b5fbcb0	0.0034139566
218	0xbabcff4c	-0.0014419346
219	0xb9f697d2	-0.0004703389
220	0xb837fe20	-4.3867272e-05
221	0x3812ef80	3.5032164e-05
222	0x38251e70	3.9367413e-05
223	0x37c95800	2.4002045e-05
224	0x392791e0	0.00015980704
225	0x383c0aa0	4.4832588e-05
226	0xb924a7c4	-0.00015702756
227	0x39212442	0.00015367664
228	0xb87dcd80	-6.0511287e-05
229	0x38c7d818	9.52931e-05
230	0xb952fb4c	-0.00020120776
231	0x3806fa60	3.218127e-05
232	0xb9151d24	-0.00014220603
233	0xb98a22c4	-0.00026347314
234	0xb91d7274	-0.00015015324
235	0xb8931ec0	-7.015234e-05
236	0xb9143620	-0.00014134543
237	0xb7f098a0	-2.8681301e-05
238	0xb8401d28	-4.580352e-05
239	0x3902d9c8	0.00012478896
240	0xb960a148	-0.00021422387
241	0x3a6aece0	0.0008961689
242	0x3aa04d1c	0.0012230012
243	0xbabd9d20	-0.0014466383
244	0xb9c9b1b2	-0.000384701
245	0x3a3448a0	0.0006877277
246	0x38f7ef60	0.00011822465
247	0xb90e0bb0	-0.00013546529
248	0xba68cc28	-0.00088805193
249	0x3a484950	0.0007640319
250	0x38290880	4.0300656e-05
251	0x3a502420	0.00079399534
252	0xb8b310a0	-8.538482e-05
253	0x39892a68	0.0002616227
254	0xb9ab5ab0	-0.0003268323
255	0xba67ed60	-0.00088473223
