Parallel PINN/kg_autograd_last.pt (torch, 784477 bytes, 115 tensors)

linears.0.weight f4 [20, 2]
000000 11 6d 3c 3c 92 88 77 be 3b 02 59 3e ce 86 8a 3e
       0.011500613 -0.24173191 0.21192257 0.27055973
000010 d2 24 bb be 54 d7 24 3f ab cf f1 be c5 65 03 bf
       -0.3655153 0.64391065 -0.4722875 -0.51327163
000020 48 9c aa be ca 76 04 3d 18 c3 c4 3c 10 bc a7 3d
       -0.33322358 0.03233985 0.02401881 0.08190167
000030 d4 7f 82 3e 66 c4 b4 bd 3d 9a 6b be 7e eb fc 3d
       0.2548815 -0.088265225 -0.23008056 0.12349604
000040 45 36 18 3d 15 46 c8 be 99 c1 15 bf 4e d6 cd 3e
       0.03716113 -0.39115968 -0.5849853 0.40202564
000050 be b7 f4 3e ef c6 b3 be 4c 6b 81 3e 02 71 84 3e
       0.47796434 -0.35112712 0.25277174 0.25867468
000060 89 21 29 3e 81 8a 0d be bf 8e 09 3f 50 9e 47 be
       0.16516699 -0.13822366 0.5373344 -0.19493985
000070 8e 16 de 3e 80 d5 af be 66 3f ea 3e 7a 98 17 bf
       0.43376583 -0.34342575 0.45751494 -0.59217036
000080 30 a6 6d 3e 62 c6 43 be b8 8e 90 3e d0 6e 1b 3f
       0.23207927 -0.19118646 0.28233886 0.6071596
000090 68 df 48 bc 3d 71 7b bd 1f 46 0d be bd 89 ad 3d
       -0.012260295 -0.06138729 -0.1379628 0.08473537

linears.0.bias f4 [20]
000000 a3 87 b6 3d 96 6b 88 be e8 4a a8 3b 51 94 b2 3e
       0.089125894 -0.26644582 0.0051358826 0.3487878
000010 1f b0 3c be 4f ab 45 3e 6e b0 e8 3d 25 fd 82 be
       -0.1842656 0.1930363 0.11361776 -0.2558376
000020 0b d3 8c 3e 09 2f a3 be a7 9d 47 3f f5 4c 69 be
       0.27504763 -0.31871822 0.77974933 -0.22783263
000030 87 76 58 3e a9 8e 0a 3e 21 68 00 3f 39 78 e1 3e
       0.21138965 0.13530983 0.5015889 0.44037035
000040 39 b0 6a 3d 67 40 5f 3e 5b 3e 1b be da bc cd bd
       0.057296965 0.21801911 -0.15160505 -0.10045786

linears.1.weight f4 [20, 20]
000000 e2 3f d7 bd f3 9b 74 3d cd 27 ce 3e 3c 3b 84 3d
       -0.105102316 0.059719037 0.4026474 0.064566106
000010 02 5f 8d 3e cb 99 13 be 50 e4 a3 be 73 3a 82 be
       0.27611548 -0.14414136 -0.32010126 -0.25435218
000020 58 f9 95 3d bb 13 4e be d3 8a c0 3e ea 03 b4 3d
       0.07322949 -0.20124714 0.37605914 0.08789809
000030 f9 d1 89 be b3 c1 ac be 1e 23 50 3e 13 c8 81 3e
       -0.2691801 -0.3374153 0.20325896 0.25347957
000040 e0 26 a5 3d 52 c7 2d 3d 95 89 3e bd 56 19 7b 3e
       0.080640554 0.042426415 -0.046517927 0.24521384
000050 61 06 a9 be 13 a7 ef 3d 36 5f 32 be e6 f2 00 be
       -0.3301268 0.11701789 -0.17419133 -0.12592658
000060 6d 91 bc bd 84 93 b5 be b5 a7 55 3e f9 54 bb 3c
       -0.09207425 -0.35464108 0.20864756 0.022867667
000070 09 44 86 be ec 76 d1 be a5 30 12 be e2 62 0d bc
       -0.26223782 -0.40911043 -0.14276369 -0.0086295325
000080 bb 49 07 3d 77 38 d9 3e 9a 2e d5 3c 4a 75 d9 bc
       0.0330293 0.42425892 0.026023198 -0.026545186
000090 cd 53 7c 3e 09 b0 79 3d c1 db e4 3e 6d fa 66 3e
       0.24641342 0.060958896 0.4469891 0.22556467
0000a0 46 9c e0 3c cf 16 49 bd 13 a4 0f be 7e ac f2 bc
       0.027418267 -0.049094018 -0.14027433 -0.029623266
0000b0 00 6a d6 3e b6 cb d9 be b2 b6 0c be 90 c3 c2 3d
       0.41877747 -0.42538232 -0.13741568 0.09509957
0000c0 d5 2b 92 be db ec 92 3e 34 ca d7 be b6 22 e6 3d
       -0.28549066 0.2869633 -0.42146456 0.11237089
0000d0 cb d2 a6 be 23 4f e0 be 36 ac 19 bf 09 88 a4 3d
       -0.32582697 -0.43810377 -0.600284 0.08033759
0000e0 bb 57 98 be 5b 1d 0d be 7b ed fa bd 97 07 d2 3e
       -0.29754433 -0.1378073 -0.12252327 0.41021416
0000f0 eb 63 e8 be 4e cb 2c be ad 80 98 bd 50 dd d7 3e
       -0.4538873 -0.1687443 -0.07446418 0.42161036
000100 3c 8f 3a bd 8f 22 8c 3e 32 d6 3d 3e 5f 63 b3 3e
       -0.045546755 0.27370116 0.1853874 0.35036752
000110 ea 7f 8f be 03 0b 79 be 79 a7 06 3e 2b f8 ed bd
       -0.28027278 -0.24320607 0.13149823 -0.116196
000120 8c 3d 52 3e c2 39 db be 20 50 48 be 2f bf ae 3d
       0.20531291 -0.42817503 -0.19561815 0.08532559
000130 65 f9 13 3d bf 4f f9 3d e0 df 0e 3e 60 f7 ee be
       0.036126513 0.121734135 0.13952589 -0.46673107
000140 b4 c7 6e 3d a7 25 c5 3e 55 f0 a0 be cf db c8 3e
       0.05829592 0.3850529 -0.3143336 0.392302
000150 b1 31 66 bd 9a 41 f4 3d 0c 42 17 be c5 29 90 3e
       -0.056199733 0.11926575 -0.14771289 0.28156868
000160 b0 4f 5d be e0 68 7c 3d 79 6e 69 3d 79 16 4e 3e
       -0.2161243 0.061623454 0.05699012 0.2012576
000170 77 a2 f9 3d 24 e3 e5 ba 51 11 bd 3e 49 34 85 be
       0.12189191 -0.0017539007 0.36927274 -0.26016453
000180 1c 6a c9 3d 5e 72 87 be 26 ba 34 be b3 fd 08 3d
       0.09834692 -0.26454443 -0.17649135 0.03344507
000190 82 3a 6d be 2e ab 82 be 89 63 0c bb 9b 40 12 be
       -0.2316685 -0.25521225 -0.0021421632 -0.14282458
0001a0 f3 f9 0e 3b 10 c2 a7 3d 96 a4 4c 3e 28 e9 93 be
       0.0021816462 0.08191311 0.1998466 -0.28888822
0001b0 ef 48 29 bc f2 c5 a7 be b1 7f 3a 3e 0f ea 90 3d
       -0.01033233 -0.32768208 0.18212773 0.07075893
0001c0 b9 43 ce 3e 9a 04 ec 3d 54 df 67 be a5 50 b4 3d
       0.40286043 0.11524315 -0.22643787 0.08804444
0001d0 40 6e 95 3b 8e 7c 71 3e d4 d1 37 be f1 c0 45 bf
       0.004560262 0.2358267 -0.17951137 -0.7724753
0001e0 05 de a1 3d 07 62 b4 bc e9 86 62 be 97 37 1b be
       0.07903675 -0.0220194 -0.22121777 -0.15157925
0001f0 eb d8 b0 3e cd 71 d1 bc 5f 3e 04 be e5 70 2c be
       0.34540495 -0.02556696 -0.12914418 -0.16839941
000200 da 23 d1 be c4 a1 24 bd 93 72 ff bd 71 dc 19 3f
       -0.40847665 -0.040193334 -0.12473025 0.6010199
000210 25 b8 05 be 2f 87 50 bb e2 3e 4d be 05 fb cc 3c
       -0.13058527 -0.0031818857 -0.20043519 0.02502204
000220 45 f4 07 3e fd 66 f1 3c 35 59 22 be 3f 8e 8b 3e
       0.13276775 0.029468054 -0.15854342 0.27256963
000230 01 67 c3 bd 83 88 2a be 60 61 af be 9d ec 6b be
       -0.09541131 -0.16653638 -0.3425398 -0.2303948
000240 f4 34 75 bc 18 d8 85 3d db 6d 87 be 4c e0 2d 3d
       -0.014966238 0.06535357 -0.26451 0.042450234
000250 18 d7 1f 3e cd b0 4d be e2 ce a9 be 3c 99 66 3e
       0.15609396 -0.20086975 -0.33165652 0.22519392
000260 9c 64 96 be 7b 80 08 be da c2 69 3d e4 b1 18 3f
       -0.29373634 -0.13330261 0.05707059 0.5964644
000270 3f d8 5c 3b e4 68 8f 3d 43 4b 1c bf ee 8c 4e 3e
       0.0033698229 0.07002428 -0.6105234 0.20170948
000280 80 a3 c4 bd 25 9e 8f 3e 4c 87 e2 be 36 82 29 be
       -0.09601498 0.28050342 -0.44243848 -0.16553578
000290 35 36 9a be 1f 9d bf be 2e 61 05 be e3 91 4e 3e
       -0.30119482 -0.3742456 -0.13025352 0.20172839
0002a0 93 28 1c 3e 9d d5 0c 3e fd ec d4 3e 1d d7 41 3e
       0.15249853 0.13753362 0.41587058 0.18929715
0002b0 f1 68 2a bd 0d ff d3 3d 85 f0 70 be 5d 27 8b be
       -0.041603986 0.103513815 -0.23529251 -0.2717847
0002c0 06 f7 d8 3d 0c f6 79 bd fe e1 90 bd 34 b9 23 be
       0.10593991 -0.061025664 -0.070743546 -0.15988618
0002d0 c1 05 2d 3e e6 73 03 be ac 24 87 be 6e c3 b5 be
       0.16896726 -0.1283718 -0.26395166 -0.35500664
0002e0 fe 24 09 3e 88 f7 36 bd 21 b0 4f 3e 54 91 8e bd
       0.13393018 -0.044669658 0.20282032 -0.06961313
0002f0 ec 29 9e 3e 5a 08 59 3d cb 62 6e be 78 5c af bc
       0.3089136 0.05298648 -0.23279874 -0.021406397
000300 c4 a5 0d bc dd 22 66 3d 4e 0d 98 be 3d 64 d4 3c
       -0.008645479 0.056185592 -0.2969765 0.025926704
000310 6e 23 1b be cd be fd 3d 7e 6f 93 3d 4a 23 62 be
       -0.15150234 0.12389908 0.07199 -0.22083774
000320 99 67 81 3e b4 07 9f 3e f8 af 06 bd 3b 0e 12 be
       0.2527435 0.31060565 -0.03288266 -0.14263241
000330 0c 4e 8a 3c 22 c3 4a be df 0d 5b 3d 14 d9 bd be
       0.016882919 -0.19801 0.053480025 -0.3707968
000340 95 3f 38 bd 8a 2a 95 bd 2c e1 34 3e 6a 29 05 be
       -0.04498251 -0.07283504 0.17664021 -0.1300408
000350 9f fc 84 3e 2e c4 48 be 8b ed 9a 3e 8f d6 58 be
       0.25973985 -0.19606087 0.30259356 -0.21175598
000360 41 c4 8d 3e 4c e1 ce 3d 2a cf e6 3d e3 2c 40 3e
       0.27688792 0.10101566 0.11269982 0.18767123
000370 e5 eb 0f 3e ac 17 07 bf a6 01 52 be 23 4e 23 be
       0.1405483 -0.52770495 -0.20508441 -0.15947776
000380 c8 fe 92 be 7f b6 02 bd cf 78 a5 3d 96 52 c6 be
       -0.28710008 -0.031912323 0.08079683 -0.38734883
000390 c3 97 b0 3e 54 38 b8 3e 54 67 64 bf 9e c6 ff be
       0.34490785 0.35980475 -0.89220166 -0.4995622
0003a0 53 54 19 be dc c8 08 3f c5 c2 f3 be 29 70 b0 be
       -0.14973573 0.5343149 -0.47609535 -0.3446057
0003b0 d3 b1 5c 3d df 71 95 3e a8 06 19 3d d4 e7 a2 be
       0.053880524 0.2918844 0.037359864 -0.31817496
0003c0 f1 0c b9 be e5 92 9f 3d 4a 4f 97 3d b2 49 f7 3d
       -0.36142686 0.0779169 0.0738817 0.12074603
0003d0 19 bc 23 be 88 e3 d3 bd 96 cd cd 3c 4d cd ed 3e
       -0.15989722 -0.103461325 0.025122445 0.46445695
0003e0 ee a6 99 3a df 77 17 be f2 ca e6 bc 4b 54 b9 be
       0.0011722723 -0.14791821 -0.028172944 -0.36197123
0003f0 f9 b5 67 bd 12 f4 85 3e 60 40 88 be f0 2f a8 bd
       -0.056570027 0.26162773 -0.26611614 -0.08212268

linears.1.bias f4 [20]
000000 8f 79 e5 3c f2 a6 86 bd 41 75 b4 be af 2e b8 bd
       0.028012065 -0.06574811 -0.35245708 -0.08993279
000010 90 88 f3 bd 66 32 22 3e e9 f3 1a be 91 15 8b 3e
       -0.118912816 0.15839538 -0.15132107 0.2716489
000020 71 a9 20 be e9 63 fb bd bd a3 16 3b 14 a8 d5 bd
       -0.15689637 -0.12274916 0.002298578 -0.10432449
000030 d0 93 09 be ca e0 2a 3d cd 60 68 be e2 c4 4e 3e
       -0.13435292 0.04171828 -0.22693177 0.20192292
000040 f2 d6 33 3e 91 20 85 bd a0 5d 79 bd 02 02 c8 3d
       0.17562464 -0.06500352 -0.060880303 0.09766008

linears.2.weight f4 [20, 20]
000000 93 3e 95 3c c4 77 06 be b8 41 b5 3e 8b 2e b3 3e
       0.018218314 -0.13131624 0.35401702 0.34996447
000010 b5 23 b7 3e d8 32 9c be e2 5c 92 3d ca 1d ad be
       0.3576943 -0.3050754 0.07146622 -0.3381179
000020 e9 bd 9c bd 05 d3 28 bd 24 e3 4d be a9 c6 48 bf
       -0.0765341 -0.04121687 -0.20106179 -0.7842813
000030 64 5e ff 3d 50 34 54 bd e4 0a 84 3e 78 97 25 be
       0.124691755 -0.0518077 0.2578956 -0.16171062
000040 f7 57 22 be 28 2b ec bc be 5c 34 bd 00 f4 cd be
       -0.15853868 -0.028829172 -0.04403376 -0.4022522
000050 9f b9 e6 3e 3a 8f b4 bb 67 ae ae 3c 22 a3 2a 3d
       0.45063493 -0.005510238 0.021323396 0.04165948
000060 b5 43 2c 3e 42 bf 5f be 7f ba 2c 3e 56 f7 33 bf
       0.16822703 -0.21850303 0.16868018 -0.7029928
000070 07 96 11 3e 62 ae 66 3d 2f f9 5a 3d 8a 02 08 bf
       0.14217387 0.05631865 0.053460296 -0.53128874
000080 11 23 0b be 92 5e 5b 3c e1 83 a6 3d 90 fa d0 3c
       -0.13587596 0.013389247 0.08130623 0.025510103
000090 81 f8 29 be 40 18 91 3e 33 a2 19 be 40 81 70 bd
       -0.16598703 0.28338814 -0.1500328 -0.058717012
0000a0 de d1 5c 3e 19 ad 94 3d 84 4a 45 3d 98 f0 41 3e
       0.21564433 0.07259578 0.048166767 0.18939435
0000b0 eb b9 95 bc ed bc be bd 1d 55 6a 3e cc 5a 96 be
       -0.01827713 -0.093133785 0.2288403 -0.29366148
0000c0 b5 c3 4a bb 66 3e 1c 3c 60 fa a8 3d b0 5e 0d 3f
       -0.0030939404 0.009536361 0.0825088 0.55222607
0000d0 88 b5 08 3f 68 83 04 be 5c 14 b8 3e 54 e2 84 3e
       0.53401995 -0.12940753 0.35953033 0.25953925
0000e0 d4 f7 de bd f0 20 57 be cb 86 05 3d 1d de 52 3d
       -0.10887113 -0.21008658 0.03259925 0.051481355
0000f0 3f 84 eb 3e 4a 24 7e be 57 71 d4 3d 00 b2 dd 3e
       0.45999333 -0.2481853 0.1037318 0.43299866
000100 1e 9b 4e 3e 87 24 90 3d e5 c8 b6 be 1a ce 06 3e
       0.2017636 0.07038217 -0.35700145 0.13164559
000110 18 85 1c be f2 14 09 bf e8 5a df 3d 05 3c 9a be
       -0.15285146 -0.53547585 0.10906011 -0.30123916
000120 35 c7 24 be c8 5c 23 3e 77 42 6e bd e3 c3 a9 3d
       -0.16091616 0.15953362 -0.058168855 0.082893156
000130 aa 50 1d 3e e6 b9 41 be 1a 34 cc bd bc 02 aa be
       0.15362802 -0.18918571 -0.09970875 -0.3320521
000140 bc 4c 43 3e a3 97 41 3d 9d 7f 1a 3e 89 86 d2 bd
       0.1907224 0.047263753 0.15087743 -0.10279567
000150 da 59 97 3e de 6c 3c be 06 2a db bd 2a 2b 88 be
       0.2956074 -0.18400905 -0.10701375 -0.26595432
000160 12 fc ce 3d 83 f6 17 3d 6e 2d 04 3d f6 88 07 3e
       0.10106672 0.037100326 0.032269888 0.1323584
000170 a5 ab 0e be d7 da 53 be 95 10 f6 3d a0 fc 8b be
       -0.13932665 -0.2068895 0.120148815 -0.27341175
000180 ea 3f fd bd 36 88 8f 3e b2 e8 25 bd ad f8 b5 3c
       -0.12365706 0.28033608 -0.04050512 0.022213304
000190 49 44 01 be 33 f6 eb bd 1f 4f db bd 23 f9 12 3e
       -0.12623705 -0.11521568 -0.107084505 0.1435285
0001a0 c7 50 b9 3e e2 c6 ac bb 85 ba 8d bd 8b 5e 22 be
       0.3619444 -0.005272732 -0.069203414 -0.15856378
0001b0 58 61 39 bd bd 5b 34 3e a3 8c c0 bc bd 97 c3 3d
       -0.04525885 0.1761312 -0.02350456 0.09550426
0001c0 44 1a 33 be 78 14 1e be 36 6d 93 be af e7 1d bc
       -0.17490488 -0.15437496 -0.2879426 -0.009637757
0001d0 e4 50 9d be 64 c3 22 3e ea a4 bd 3b f8 76 44 bd
       -0.30725777 0.15894848 0.0057874816 -0.04796502
0001e0 24 1a 89 3d fe 9e 1b 3d 05 0c f4 b8 69 97 84 bc
       0.06694439 0.037993424 -0.000116370655 -0.01618548
0001f0 9c 6a e1 bd 58 b8 b5 3e 4d 77 12 3e dc 35 ab be
       -0.11006662 0.35492206 0.14303322 -0.3343953
000200 12 b8 84 3e d2 be 3f be 07 9b 7d be 97 72 ee 3d
       0.25921685 -0.18725136 -0.2476617 0.1164295
000210 3d 96 a8 bc 63 b8 13 be c5 a2 32 be 19 19 ba be
       -0.020579452 -0.14425807 -0.17444904 -0.36347273
000220 00 3d 5d be 5f 65 1e 3e b6 b6 6f bd c0 0c 3e be
       -0.21605301 0.15468358 -0.058523856 -0.18559551
000230 14 f7 64 be 36 9e 59 bb d1 2c 8d be 44 1a 8a bd
       -0.22359878 -0.0033205873 -0.27573255 -0.06743291
000240 5c df 3d 3c 59 ef 85 3e 93 fd 7f be 01 29 da 3e
       0.011588898 0.2615917 -0.24999075 0.42609408
000250 29 88 8f be 95 da 53 be da 34 fe be 5c ad 86 3e
       -0.2803357 -0.20688851 -0.49649698 0.26304138
000260 3e e4 7f 3c 93 d6 bc bd cf 19 24 bb b9 48 9b 3e
       0.015618382 -0.09220614 -0.0025039797 0.3032892
000270 cd 7f 0a 3f 04 4a 60 3e 41 de b8 3c 3f 3d 32 3d
       0.5410126 0.21903235 0.022566916 0.04351544
000280 e4 42 08 3e b4 a9 21 3e 58 12 53 3e ac 4a 18 bd
       0.13306767 0.15787393 0.20612466 -0.037180588
000290 c4 87 5c 3b 0b 46 55 3c 79 43 25 be dc 0f 95 3d
       0.0033650259 0.013017188 -0.1613902 0.072784156
0002a0 d9 05 81 be b0 93 71 ba 45 de d0 3d 7a f8 39 bd
       -0.25199774 -0.00092154276 0.101986445 -0.04540298
0002b0 97 0c 6e 3e 12 d8 d6 bc 47 26 cf 3d bd 80 a1 3e
       0.2324699 -0.026226077 0.10114723 0.31543532
0002c0 ec a1 9d 3c 94 cc da 3c b8 84 2f bd 94 56 62 be
       0.01924225 0.026708879 -0.04285118 -0.2210334
0002d0 cf 66 08 be a4 d5 d2 3d ee 95 9f 3d 33 8c fa 3d
       -0.13320468 0.10294655 0.07792269 0.12233772
0002e0 4f b1 f8 3d e9 f2 5d 3c 83 d9 27 be 36 12 f0 be
       0.12143194 0.013546684 -0.16391568 -0.46888894
0002f0 dc 0c 9f 3e 35 52 67 be df 18 1a 3e b8 da d6 bc
       0.31064498 -0.22589953 0.1504855 -0.02622734
000300 f6 c5 80 3e 18 b1 dd 3c 9b 10 69 bb 5d 3c 97 3e
       0.25151032 0.027061984 -0.0035562876 0.2953824
000310 99 45 ce 3d a6 2b f4 bd 4d 07 39 be 73 01 a5 bb
       0.100718684 -0.11922388 -0.18069191 -0.005035573
000320 68 a9 2f bc 1d 63 9f 3d 71 dc 0b be 83 db 98 3e
       -0.010721542 0.07782576 -0.1365831 0.29854974
000330 5b f0 98 3e c9 b9 83 be 19 a0 6a be 26 5a 67 3a
       0.29870877 -0.2572768 -0.22912635 0.0008825384
000340 c6 12 8f 3e f9 93 48 3d 87 ce 06 3e bf 2e f0 be
       0.2794401 0.048969243 0.13164721 -0.46910664
000350 99 bf 6f be 94 aa 72 3e 0b 8a a6 3d 08 b1 bf bd
       -0.23412932 0.23697883 0.08131798 -0.09359938
000360 86 ca 0d bf 6a 16 63 3e 5b e4 7b be 6e 50 9a bd
       -0.5538715 0.22176519 -0.2459883 -0.07534872
000370 77 98 2a be 0e e4 f3 bd 89 d3 b8 3d 40 6b 2f 3d
       -0.16659723 -0.11908732 0.09024722 0.04282689
000380 01 82 93 be 62 82 b1 be 1d 4e f1 3c 4a b5 9d 3d
       -0.28810123 -0.34669787 0.029456193 0.07700594
000390 56 78 14 be bd 24 86 3d e7 a9 aa 3c 7e 6f 5f 3e
       -0.1449903 0.06549976 0.020832969 0.21819875
0003a0 b7 ec e7 3c 1a a5 80 3d 9c 9f 14 3d 28 eb ab be
       0.028311117 0.062814906 0.036285028 -0.33577847
0003b0 5c 3f c7 bd 1c 6f 95 3e 51 52 bd 3e 15 4d 16 be
       -0.09728882 0.29186332 0.36976865 -0.14677842
0003c0 f3 e9 08 be 2d f3 ee 3e a7 77 ed bd 4e 7c 73 3e
       -0.13370495 0.46669903 -0.115950875 0.23777887
0003d0 45 a8 5e 3e 76 cf 35 be 75 4f e8 3e 38 62 97 bd
       0.21743877 -0.17754921 0.4537312 -0.073917806
0003e0 d1 d4 e3 3e 31 b3 b7 bc df 37 09 3e 7d 82 c8 be
       0.44498304 -0.022424312 0.1340022 -0.39162055
0003f0 94 06 af 3d 42 e3 ca 3e e6 88 cb 3d e7 f4 91 3e
       0.085461766 0.3962651 0.09938221 0.28507158

linears.2.bias f4 [20]
000000 9f 12 6c be fc d3 ad bc af c0 f3 bd 0c f7 f9 3d
       -0.23053978 -0.021219246 -0.11901986 0.122053236
000010 d2 d1 f9 bb 27 8c 7a bd 6b ad 01 be 8a e8 50 3e
       -0.0076238895 -0.061168816 -0.1266381 0.20401207
000020 21 89 8e 3d 63 37 0e 3c 20 c2 de 3c 77 24 75 3b
       0.06959749 0.008680197 0.027192175 0.0037405768
000030 79 13 67 bd 69 73 3d 3e 2b 60 bd 3d ab 5a 09 3d
       -0.056415055 0.18501057 0.09246858 0.033533733
000040 61 3b dd bc 69 6c 03 bd ad b8 81 bd 2a b5 bd bd
       -0.027005853 -0.03208581 -0.06334052 -0.0926307

linears.3.weight f4 [20, 20]
000000 94 3b ef 3e d3 85 7b 3e 4c 98 97 bd fa 1e 0b 3e
       0.46725142 0.24562769 -0.07402095 0.13586035
000010 42 41 3d 3e bb 8b af 3c 79 3f 35 be 2f ae 05 be
       0.18481925 0.021428933 -0.17699994 -0.13054727
000020 fd 43 a8 bd b8 93 6e 3e 33 42 2c 3e 8c 64 46 be
       -0.08216093 0.23298538 0.16822128 -0.19374293
000030 3e 65 4f 3e 85 a0 9e be bd fb c9 3d f7 17 df 3b
       0.20253465 -0.30981842 0.098624684 0.0068082768
000040 14 b6 0f bf eb 7c 5c 3d 7f 4c 91 be 8f 3a a7 3e
       -0.56137204 0.05383007 -0.28378674 0.32661864
000050 51 27 21 be d4 e2 2c 3e c5 6c be 3c 67 25 b8 3d
       -0.15737654 0.16883403 0.023245225 0.08991509
000060 70 68 9b 3d 32 a9 48 be d3 de 40 be 88 1b c9 3e
       0.07588279 -0.19595793 -0.18835 0.39278817
000070 37 5c 3c be 80 58 1e 3e 31 c7 f3 3e 44 40 13 be
       -0.18394552 0.15463448 0.47612908 -0.14379984
000080 c6 71 d8 3d f3 fb 36 be 78 dd 12 be ab 74 2d 3e
       0.105685756 -0.17869548 -0.14342296 0.16939037
000090 15 a0 fb bd 69 d0 d8 3d da cb 96 bc f6 17 a1 be
       -0.122863926 0.10586626 -0.01840775 -0.31463593
0000a0 3c 55 1b 3e da ab fd bd ee bc 3a 3e 3b c0 8f 3e
       0.15169233 -0.12386294 0.18236133 0.28076348
0000b0 9b 79 7d 3d f4 49 8f 3d 3b 48 ed bc e3 74 e3 3d
       0.06188355 0.06996527 -0.028965106 0.11106279
0000c0 e7 28 6c 3c d5 8a 64 3d 2b 91 02 bf 02 5b b8 be
       0.014414049 0.055796463 -0.5100276 -0.36006933
0000d0 09 59 00 3e f4 a3 94 3e d6 d1 cd 3e 26 88 18 3d
       0.12533964 0.29031336 0.40199155 0.037239216
0000e0 2b 39 2a 3d 92 3a 30 3d d4 55 48 3e c1 68 6f bd
       0.041558426 0.043024607 0.19563991 -0.05844951
0000f0 42 48 6e 3e 69 fa cf bd 87 19 93 3e 3f e4 07 3d
       0.23269752 -0.10155184 0.28730413 0.033176657
000100 17 5d b2 bc d1 cb 42 3e bc a5 a0 3e c7 77 94 be
       -0.021772904 0.19023062 0.31376445 -0.28997633
000110 1e 14 4a ba 96 5a 84 3d c2 b8 1a be eb 69 05 3e
       -0.0007708686 0.064625904 -0.15109542 0.13028686
000120 7f 51 de bc 71 9d 9b be 48 a0 7d bd f8 a7 8f 3d
       -0.02713847 -0.30393556 -0.061920434 0.07014459
000130 ef 97 0f 3f 95 a5 c6 3c d7 80 38 be 22 1c c9 bc
       0.5609121 0.024248878 -0.18017898 -0.024549548
000140 d0 eb 42 be b6 8b a6 bd 88 0a 71 3c 1f 6b 03 bf
       -0.19035268 -0.081321165 0.0147119835 -0.5133533
000150 77 e8 07 3e 21 a2 b3 bd d9 61 98 3e 6c 6e 32 be
       0.13272272 -0.08771158 0.29762152 -0.17424935
000160 b2 a5 36 bd ad 1c 10 be 12 68 9f 3d 2a ef 8d be
       -0.044591613 -0.14073439 0.07783522 -0.2772153
000170 51 c5 86 3e be eb ae bd c8 bf 44 bc 88 b4 bc bd
       0.26322415 -0.08541058 -0.012008615 -0.09214121
000180 62 28 3c 3f bd aa 01 3f 6a da 6b bc 19 28 db be
       0.7349912 0.5065115 -0.014395336 -0.4280403
000190 08 ba c5 bd da 0a 5c be a9 f7 c8 3e cd 76 41 be
       -0.09654623 -0.21488515 0.3925145 -0.18892975
0001a0 4c 25 8f be a3 ca 58 be 66 1f ad 3e d1 8f 0d 3e
       -0.27958143 -0.2117105 0.33813018 0.13824393
0001b0 bb 46 21 3f 8d dd 71 be e9 16 6f bd f5 d6 81 be
       0.6299855 -0.23619671 -0.05837146 -0.25359312
0001c0 0d 0d d5 3d 94 64 2f 3e 64 4c cd be 40 82 2a be
       0.1040288 0.17128211 -0.40097344 -0.16651249
0001d0 42 5d af 3d d8 f2 1b be 30 2d 01 3e f7 5e 0a be
       0.085627094 -0.15229356 0.12614894 -0.13512789
0001e0 ea 03 e2 bd f6 83 9d be 8d 7c b4 3d 8b d6 23 be
       -0.11035903 -0.3076474 0.08812819 -0.1599981
0001f0 38 5e c7 3e d5 0b 9e 3e c5 aa 6c bd d3 90 4e bf
       0.3893907 0.30868402 -0.057780046 -0.80689734
000200 b3 b4 a7 3d 43 8e c7 3b ca 36 5f be 2d 5f 4f 3e
       0.081887625 0.006089957 -0.21798244 0.2025115
000210 80 27 bd be 57 ff a3 3d 74 22 8f be c2 e3 06 3f
       -0.369442 0.080076866 -0.27955973 0.5269128
000220 96 db a2 be ac aa 57 bd 71 9d d2 3e 89 0a 78 3a
       -0.31808156 -0.052653 0.41135743 0.0009462019
000230 8c c0 1f bf 5f 5f 2d bf 31 92 4e 3e 32 ce 50 bf
       -0.6240318 -0.6772365 0.20172955 -0.8156463
000240 60 ca 88 be e2 74 33 bd 52 42 6c be fc 12 44 3e
       -0.267169 -0.04381264 -0.23072174 0.19147867
000250 3c 88 0d bd 5f 31 83 3d 1e 48 e1 be 36 19 49 3d
       -0.03455375 0.06405901 -0.44000334 0.04909631
000260 99 22 a0 3e f0 46 1b 3e bf fc d5 be e5 3d 20 be
       0.31276396 0.1516378 -0.41794392 -0.15648611
000270 74 3b ff 3d fd fc 3e bd d0 f1 da 3d 11 e5 33 3e
       0.12462512 -0.046627987 0.10690653 0.1756785
000280 65 7a 82 be 57 24 b0 bd ac bc 0e 3c ef a3 1d be
       -0.25484005 -0.08600681 0.008711975 -0.15394567
000290 ef 06 51 be 6d 28 c3 3d ff 87 01 bd 20 dd 5b 3d
       -0.20412801 0.09529195 -0.031623837 0.053677678
0002a0 cf 27 8f be 50 af c0 3d a1 6d d4 bd 9a 6f 80 3e
       -0.2796006 0.09408438 -0.103724726 0.25085145
0002b0 73 29 b9 3c bd 22 cb 3e ac 9f 42 3e 64 25 8d 3d
       0.022602772 0.3967494 0.19006222 0.06891897
0002c0 3d 9c a4 3c 39 40 8f 3e 3a 63 d1 3e 7e 39 f4 be
       0.020094031 0.27978685 0.40896016 -0.47700113
0002d0 fb 68 df 3e 1d b7 07 bf 9e 46 0f be 0f a5 b5 3e
       0.4363478 -0.53013784 -0.13991782 0.35477492
0002e0 1d 89 e9 bc b4 cb 3a be e7 c9 25 3e f0 a3 e4 3e
       -0.028507764 -0.18241769 0.16190301 0.44656324
0002f0 1b ca 61 3d d7 71 6f bd c5 e4 90 3e 8c 47 23 be
       0.055124383 -0.058458176 0.28299537 -0.15945262
000300 48 73 5e 3c bc 31 e3 bc eb c4 ce 3d f5 20 41 bd
       0.01357729 -0.027733676 0.10096153 -0.04715057
000310 05 98 2e 3d 17 41 aa bd c1 26 95 3c 00 5f c8 3e
       0.042625446 -0.08313196 0.018206956 0.3913498
000320 3e e2 84 3e 00 a3 aa 3e 0a 42 94 bd 40 1a 9e bd
       0.2595386 0.33327484 -0.072391585 -0.077198505
000330 68 a4 a7 3e 87 91 05 be 30 41 dd bd 80 9d 23 3e
       0.3274262 -0.13043796 -0.10803449 0.1597805
000340 ea 27 1f 3e 91 9c 77 bc 26 74 59 be c6 2f db 3d
       0.1554257 -0.015113012 -0.21235713 0.107024714
000350 09 ae 6a 3d ce fc 30 3e 41 25 5c be d7 db 08 3e
       0.05729488 0.17283937 -0.21498586 0.13365112
000360 44 55 2b be b0 4b 96 3e ff 5c e1 bd 86 af fe be
       -0.16731745 0.2935462 -0.11004066 -0.4974329
000370 5b e9 1d 3d 59 98 de 3d 2c 04 4a be 11 e2 4e bd
       0.038552623 0.10868902 -0.19728154 -0.050508562
000380 26 2a c9 3d 0d 03 c0 3e 3b eb 88 be fd 32 f0 3a
       0.09822492 0.37502328 -0.26741967 0.0018325743
000390 15 ba d9 bd 67 47 9c be ee 0e 6c bd ba 7a 74 be
       -0.106311955 -0.30523226 -0.057631426 -0.23874941
0003a0 32 97 4f be d7 21 7f 3e 2e 1b 0f be 1c 72 8b 3e
       -0.2027252 0.24915253 -0.13975212 0.27235496
0003b0 69 63 8a 3c 5a 81 0c bf ac c5 a8 be f4 d0 5f be
       0.016893106 -0.54884875 -0.32963312 -0.21857053
0003c0 30 1a d3 3c a5 bd 55 3c e0 e3 a1 bc 4e 70 09 3c
       0.025769323 0.013045703 -0.01976198 0.008388592
0003d0 f0 d7 48 3d 1c 80 a5 be 90 23 90 3e 30 78 66 bb
       0.04903406 -0.32324302 0.28152132 -0.0035166852
0003e0 e1 ad da bd ae 79 18 be 2f fd 93 3e f0 9d 6d be
       -0.10677696 -0.14890167 0.289041 -0.2320478
0003f0 d1 8f 10 3e 83 f3 18 bf 4e 10 ee bb cf 0a a6 bd
       0.14117362 -0.5974657 -0.0072651273 -0.0810753

linears.3.bias f4 [20]
000000 75 99 20 be 63 16 95 3d 02 71 b6 3d 3a b1 21 bd
       -0.15683539 0.072796606 0.08908273 -0.039475657
000010 8a fe 90 bd dd 22 4c bd 18 4d 90 bd 67 e3 21 be
       -0.070797995 -0.049837936 -0.070459545 -0.15809403
000020 47 14 3e be 70 1d d7 3d 20 ce fd 3d a4 00 52 3c
       -0.18562423 0.10503662 0.12392831 0.012817536
000030 88 ca b1 bd 6e 6b 9e bd d3 82 ed 3c bf e8 0f 3e
       -0.08681208 -0.07735334 0.028993046 0.1405363
000040 7f d5 aa bd f7 0a 5e bc 1a a7 87 bc 63 1f 87 bd
       -0.083415024 -0.013552419 -0.016559172 -0.065977834

linears.4.weight f4 [20, 20]
000000 8f 7f 07 bf 21 61 55 be b2 33 88 be 88 0d c8 3d
       -0.52929014 -0.20837833 -0.2660194 0.09768206
000010 3a 8f eb bc 1f 09 d9 3e 9d 22 f0 bd 40 1d c5 3d
       -0.02875482 0.4238977 -0.11725352 0.096247196
000020 28 27 96 3e be d7 b6 be 6a 7e c7 3b ec 74 72 3d
       0.2932675 -0.35711473 0.006088068 0.059193537
000030 7c 79 b6 3d 5f 05 18 be 97 55 bb bd bc a9 73 be
       0.0890989 -0.14845799 -0.09147184 -0.23795217
000040 50 a6 a8 bd b3 6e fb 3d ec 43 c3 bd df fd 3f 3e
       -0.082348466 0.122769736 -0.095344394 0.18749188
000050 80 d0 fc 3d c6 bd 42 3e a0 74 40 be c2 b9 39 be
       0.12344456 0.19017705 -0.18794489 -0.18137267
000060 05 9d a2 3c 77 49 e2 3e 81 96 39 be ef a8 d4 bc
       0.019850263 0.44196674 -0.18123819 -0.02595946
000070 1e a6 9f be 82 eb 63 bd 41 c2 f1 bd ba 73 2e 3e
       -0.31181425 -0.05564452 -0.11804629 0.17036334
000080 2f 2f a8 3c ea da b8 3e 4c 29 9d bd 96 d2 58 be
       0.020530311 0.36104518 -0.076738924 -0.21174082
000090 4c ca 58 3e 87 0b 55 39 dc 41 16 be ad 1a 12 be
       0.2117092 0.00020317557 -0.14673561 -0.14267989
0000a0 ff 11 74 3d 07 c3 66 3d 4e 6e e7 be 10 e4 f2 be
       0.059587475 0.056338336 -0.45201343 -0.47439623
0000b0 9c 07 bb bd 7d 86 b3 3e 96 7f 1a bf 8c f3 96 3e
       -0.09132311 0.35063544 -0.6035093 0.29482687
0000c0 23 32 43 be db 97 84 be a2 94 d2 3d b6 25 e3 be
       -0.19062094 -0.25897107 0.10282256 -0.4436471
0000d0 cb fd 01 bd 64 2d 0c be bf a7 f8 bc ad c5 39 be
       -0.031736176 -0.1368919 -0.030353425 -0.18141814
0000e0 c1 57 96 bc 58 ad 9d 3e 35 a9 21 3c 68 ad 00 3e
       -0.018352391 0.30796313 0.009867002 0.12566149
0000f0 08 22 e4 be 81 31 56 3d e7 cc e7 3e dd 4d 2b 3d
       -0.44557214 0.052293304 0.45273516 0.041822303
000100 92 fb c3 bd 1e 07 24 3e f3 08 96 bd 38 f0 40 3e
       -0.095694676 0.1601834 -0.07325926 0.18841636
000110 26 58 72 3e 09 70 94 3e f3 aa 89 be f5 a6 c0 3d
       0.23666438 0.28991726 -0.26888236 0.094068445
000120 62 cb b8 be 8c 7e 52 be 38 17 10 3c e0 32 c0 3e
       -0.3609267 -0.20556086 0.008794598 0.37538815
000130 3c 0a c6 3d 7b 2b 43 be af 47 94 be 70 5a b5 3d
       0.09669921 -0.19059555 -0.2896094 0.0885514
000140 cc d3 9c 3e 7e 25 82 bd 35 84 c4 3e a2 40 60 be
       0.30630338 -0.06354807 0.38382116 -0.21899655
000150 69 69 d6 3d a5 28 42 3c 89 0f 72 be 54 4d 95 be
       0.10469324 0.011850511 -0.23638739 -0.2916056
000160 90 20 61 be 14 bd c7 3d 1e ff 97 bd 1e 52 41 3e
       -0.21985078 0.09752861 -0.074217066 0.18878981
000170 78 14 84 3e 6a f1 2d 3d c0 d4 56 bd 6a 44 4a 3e
       0.25796866 0.04246656 -0.052448988 0.1975266
000180 c9 7b a9 be 0c d9 be bd 54 94 42 be 4a db 0a 3d
       -0.33102253 -0.09318742 -0.19001895 0.033900537
000190 0c 8a a0 be 0b 5c d0 bd 1c 36 90 bc 29 c0 1a be
       -0.3135532 -0.10173806 -0.017603926 -0.15112366
0001a0 b4 63 21 3d 2d 6b 8a bd 67 de 82 3d d4 bb 07 3e
       0.039401725 -0.067587234 0.06390076 0.13255244
0001b0 4e c5 fb 3e 64 c2 33 3e 36 28 06 3e e5 44 05 be
       0.4917397 0.17554623 0.13101277 -0.13014562
0001c0 0b 3a 84 be 58 70 0a be dc 2b f4 be 63 6e 96 3e
       -0.25825533 -0.13519418 -0.47689712 0.29381093
0001d0 df 11 56 3e d2 93 8e 3e b5 3e 87 3d 84 6e 90 be
       0.20905255 0.27847153 0.06603757 -0.28209317
0001e0 9f 5a d9 3e 54 e1 25 be 65 f0 7c be cf 77 e3 3e
       0.4245195 -0.16199237 -0.24701078 0.44427344
0001f0 40 fe 07 3e c0 cd 69 bd f8 75 0b 3e ca 24 ea be
       0.13280582 -0.057080984 0.1361922 -0.45731193
000200 54 00 2f 3d 14 be 70 be 65 14 32 be 57 50 29 be
       0.042724922 -0.23510009 -0.17390592 -0.16534553
000210 0c 00 3d 3e 81 20 74 3e 32 f5 a0 3c 22 14 92 be
       0.18457049 0.23840524 0.019648168 -0.28530985
000220 38 32 8e be ea 68 ad 3e 86 09 d2 bc e8 31 29 3e
       -0.2777269 0.33869106 -0.025639307 0.16522944
000230 49 be f2 bd 3f f5 94 bd 3e 8c ae 3e 65 29 9a 3d
       -0.118527 -0.072733395 0.3409137 0.07527427
000240 9a 5b 69 bd 53 7d e7 3d 00 e5 62 3e 01 71 7b 3e
       -0.056972124 0.113032006 0.22157669 0.24554826
000250 4b 0b 1d 3f 1a cb 05 be 92 37 82 bd f8 48 b9 be
       0.61345357 -0.13065758 -0.063582554 -0.36188483
000260 91 f6 b0 3e 88 66 3d bd 14 79 b9 be 10 50 26 3d
       0.34563115 -0.04624036 -0.36225188 0.040603697
000270 6f 7c 20 3e 6d 36 7a 3c c7 25 36 3e 47 9a b1 be
       0.15672468 0.015271765 0.17787848 -0.34688017
000280 b7 97 19 be 24 e5 43 be e3 84 38 be 87 ce f7 bd
       -0.14999281 -0.19130379 -0.18019442 -0.12099939
000290 53 5c 06 bb 02 ef c6 3e db a0 98 3d 81 54 99 3e
       -0.0020501807 0.38854223 0.07452556 0.29947284
0002a0 81 ee 66 bb d5 f5 92 be 77 5a 2b 3e c2 f9 67 3d
       -0.0035237374 -0.2870318 0.16733728 0.056634672
0002b0 17 5d d6 3c 65 0f 24 3e f4 fb 57 be d5 f7 f8 3e
       0.026167436 0.16021498 -0.21092206 0.4862658
0002c0 b2 b8 b8 bb 4f 26 84 3d 2e da ce 3e d9 2e f4 3e
       -0.005637252 0.06452619 0.40400833 0.47691992
0002d0 44 95 e0 3d f9 1e b5 3e b3 df 95 3e f7 ac cc 3c
       0.1096597 0.35375193 0.2927223 0.02498482
0002e0 6d 52 ba be 32 43 2a be af 49 21 be 3e 67 18 3e
       -0.3639101 -0.16627195 -0.15750764 0.14883134
0002f0 0f d1 a9 bb 4b 98 a9 be 9e 4b 6b 3c 4b 2c 08 be
       -0.0051823924 -0.33124003 0.01436129 -0.13298146
000300 da 8b cc 3d bc 95 37 3c df ba 02 bf 7e 0c 55 3b
       0.09987612 0.011205133 -0.5106639 0.0032508667
000310 ee 48 b6 3d f3 3e a5 be f2 47 c2 3e bf 30 cd be
       0.08900629 -0.3227459 0.37945515 -0.40076253
000320 35 e7 f8 bd e5 51 e6 3e 8f 26 9b 3e 48 7b 3b 3e
       -0.12153474 0.44984356 0.30302855 0.18308747
000330 67 d2 6c be ff ff a0 be 23 ca a6 3e 67 3f 51 3e
       -0.23127137 -0.3144531 0.32576093 0.20434342
000340 82 ad af 3d 6b 0f 2e bd 73 0a 00 3f 38 7d 61 3c
       0.08578016 -0.042495172 0.50015944 0.013762765
000350 2a f8 40 3e 14 78 50 3e 73 e4 3c bd 95 1d 88 3e
       0.18844667 0.20358306 -0.046116304 0.2658507
000360 e8 8d c8 bc ef 9c 05 3d 41 4d 90 be 6f 69 3b be
       -0.024481729 0.032620367 -0.2818394 -0.18301938
000370 10 d4 54 be b9 07 f3 3d ca 12 32 3e 9d 61 9a 3d
       -0.2078402 0.11866707 0.1738998 0.075381495
000380 ab dd 94 be a0 e4 67 be 4c de 3b bd 2f c6 48 bf
       -0.2907537 -0.22645807 -0.045866296 -0.78427404
000390 c9 02 c4 be 73 90 f6 3d b6 e3 af bc ac 1c 95 3d
       -0.38283375 0.1203927 -0.021470886 0.07280859
0003a0 89 66 80 3c 36 1e 1c be 10 b4 d6 3e b2 ea 0b 3d
       0.015673893 -0.152459 0.41934252 0.03415937
0003b0 e4 35 02 bf de 9b be 3d 9d cc 33 be 3f 06 e2 be
       -0.5086348 0.09307073 -0.17558523 -0.4414539
0003c0 50 87 52 3d eb b0 f6 bd c1 2d 5c be ee c0 3b be
       0.051398575 -0.12045463 -0.21501829 -0.18335316
0003d0 41 9c 2e 3e bb 42 0d 3f 6e 2f 7f bc 07 61 73 3a
       0.17051794 0.5517995 -0.015575273 0.00092841726
0003e0 89 7e f7 3d 3e 13 12 be 23 a9 f0 bd 17 ae 6f 3e
       0.120846815 -0.14265153 -0.1175101 0.23406254
0003f0 e5 10 89 bd 6a 79 82 3e 70 67 c4 bc b5 15 08 3e
       -0.066926755 0.25483257 -0.023975104 0.1328953

linears.4.bias f4 [20]
000000 5e cf da bc 67 6e 81 3c a2 bb b3 3c 50 ec 5d bc
       -0.026710209 0.015799714 0.021940056 -0.013545111
000010 54 5b f6 bc 91 08 b4 3c a2 c2 e8 bd 66 20 34 bd
       -0.030072846 0.021976741 -0.11365248 -0.04397621
000020 10 f0 dd bc fa 20 ac bc 63 25 6a bc b0 40 59 3e
       -0.02709201 -0.021011818 -0.01429114 0.21216083
000030 ec 11 0e 3c 5e 2b 87 bc 6d 9f f2 3c 33 02 64 bd
       0.008671265 -0.016500171 0.029617036 -0.05566616
000040 e4 df 00 bc 43 50 47 3c 7f ac 51 bd 5f 6c 94 bd
       -0.00786588 0.012165132 -0.051189896 -0.07247233

linears.5.weight f4 [1, 20]
000000 3c b2 e2 3d 86 7a c7 bd bf c7 b5 3d 42 c1 0a 3f
       0.11069152 -0.09740166 0.08875989 0.5420114
000010 d6 c6 af be 81 b2 27 3f bf 03 16 bf 14 5d 0f 3f
       -0.34331387 0.6550675 -0.58599466 0.560014
000020 c2 7e d7 3e 79 2d 65 3e 7b 3c 97 3e d8 40 56 bf
       0.42088896 0.22380628 0.2953833 -0.83692694
000030 56 9c a7 3c 20 06 83 be 46 ff 5a 3e 3c ad fa 3e
       0.020460289 -0.2559061 0.21386442 0.48960292
000040 54 63 69 3e 94 c1 5b bd dc 87 53 3e 4d 8a 57 3f
       0.22791797 -0.053651407 0.20657295 0.84195405

H1.weight f4 [20, 2]
000000 11 6d 3c 3c 92 88 77 be 3b 02 59 3e ce 86 8a 3e
       0.011500613 -0.24173191 0.21192257 0.27055973
000010 d2 24 bb be 54 d7 24 3f ab cf f1 be c5 65 03 bf
       -0.3655153 0.64391065 -0.4722875 -0.51327163
000020 48 9c aa be ca 76 04 3d 18 c3 c4 3c 10 bc a7 3d
       -0.33322358 0.03233985 0.02401881 0.08190167
000030 d4 7f 82 3e 66 c4 b4 bd 3d 9a 6b be 7e eb fc 3d
       0.2548815 -0.088265225 -0.23008056 0.12349604
000040 45 36 18 3d 15 46 c8 be 99 c1 15 bf 4e d6 cd 3e
       0.03716113 -0.39115968 -0.5849853 0.40202564
000050 be b7 f4 3e ef c6 b3 be 4c 6b 81 3e 02 71 84 3e
       0.47796434 -0.35112712 0.25277174 0.25867468
000060 89 21 29 3e 81 8a 0d be bf 8e 09 3f 50 9e 47 be
       0.16516699 -0.13822366 0.5373344 -0.19493985
000070 8e 16 de 3e 80 d5 af be 66 3f ea 3e 7a 98 17 bf
       0.43376583 -0.34342575 0.45751494 -0.59217036
000080 30 a6 6d 3e 62 c6 43 be b8 8e 90 3e d0 6e 1b 3f
       0.23207927 -0.19118646 0.28233886 0.6071596
000090 68 df 48 bc 3d 71 7b bd 1f 46 0d be bd 89 ad 3d
       -0.012260295 -0.06138729 -0.1379628 0.08473537

H1.bias f4 [20]
000000 a3 87 b6 3d 96 6b 88 be e8 4a a8 3b 51 94 b2 3e
       0.089125894 -0.26644582 0.0051358826 0.3487878
000010 1f b0 3c be 4f ab 45 3e 6e b0 e8 3d 25 fd 82 be
       -0.1842656 0.1930363 0.11361776 -0.2558376
000020 0b d3 8c 3e 09 2f a3 be a7 9d 47 3f f5 4c 69 be
       0.27504763 -0.31871822 0.77974933 -0.22783263
000030 87 76 58 3e a9 8e 0a 3e 21 68 00 3f 39 78 e1 3e
       0.21138965 0.13530983 0.5015889 0.44037035
000040 39 b0 6a 3d 67 40 5f 3e 5b 3e 1b be da bc cd bd
       0.057296965 0.21801911 -0.15160505 -0.10045786

d f4 [1761]
000000 d1 13 27 3a 44 b2 b9 38 6a b0 eb ba a9 75 98 ba
       0.00063734973 8.854692e-05 -0.0017981653 -0.0011631745
000010 6f 93 00 3a 3a 49 d2 39 0b 1b fd 3a e9 4f 96 39
       0.0004904782 0.0004010888 0.0019310428 0.00028669767
000020 a4 59 c0 ba 13 96 bf ba 9a 91 88 ba 47 c8 ca ba
       -0.0014675152 -0.0014616869 -0.0010419369 -0.0015471064
000030 ef ff c5 3a c7 5e ac 3a fb 9e a1 ba dc 5d 8d 39
       0.0015106181 0.0013150804 -0.0012330705 0.00026963546
000040 a0 97 9d b8 df c2 04 3b 87 44 76 ba 5d cc 35 39
       -7.514586e-05 0.0020257754 -0.00093943666 0.00017337636
000050 f2 cb c8 b8 32 74 07 3a df 8c e3 b9 a4 93 37 3a
       -9.574731e-05 0.0005167156 -0.0004340177 0.0007002896
000060 1c 28 21 b9 11 33 b6 39 d1 b3 d7 3a ea c7 9d ba
       -0.00015369098 0.00034751793 0.0016456788 -0.0012037728
000070 b0 69 08 39 35 3a 8d ba e3 5c 9f ba b8 45 a9 ba
       0.00013009342 -0.0010774793 -0.001215842 -0.0012914455
000080 af 24 be 37 ab 80 d4 37 9b 69 3f ba 4c 09 85 36
       2.2666847e-05 2.5332285e-05 -0.0007301808 3.964791e-06
000090 7c a0 95 b8 6f 30 b7 3a af 23 fa b9 69 e0 04 3a
       -7.134766e-05 0.0013976226 -0.00047710302 0.000506884
0000a0 f0 39 54 39 84 39 b2 ba d6 a0 a6 ba c4 da 7b 3b
       0.00020239479 -0.0013597463 -0.0012712728 0.0038429955
0000b0 1d 12 4b ba e3 67 4b 3a 4a 52 1e 3a b8 ab 92 ba
       -0.00077465345 0.0007759316 0.00060394837 -0.0011190092
0000c0 7f e5 ec 3a 17 da 90 ba 8d d3 3c 3b d0 de 89 ba
       0.0018073766 -0.0011051324 0.0028812618 -0.0010518674
0000d0 85 40 76 3a c1 69 6f 3a ba d3 ef 3a f0 25 2d 3a
       0.00093937694 0.0009132885 0.0018297352 0.00066050794
0000e0 36 29 2c 3a f1 7e d2 38 5a 4b 0e 3a 91 62 dd b9
       0.000656742 0.00010037225 0.00054280984 -0.00042225842
0000f0 92 60 83 37 fe ce e5 b7 60 3a aa 38 db c8 c0 39
       1.5661386e-05 -2.7395316e-05 8.117105e-05 0.00036770743
000100 4a 30 90 39 3a 38 eb 38 0c fd 1f b9 9d c2 82 39
       0.00027501798 0.00011216146 -0.00015257689 0.0002494053
000110 83 45 39 b9 28 1b b8 37 d2 9a 6b 39 78 c9 32 38
       -0.0001766887 2.1947155e-05 0.00022469021 4.262614e-05
000120 e0 2d 4b b8 41 fb 2b ba 09 60 30 39 df fe 9f b9
       -4.8441696e-05 -0.0006560572 0.00016820444 -0.00030516737
000130 50 a3 8a b8 5a 8d 28 38 6f ae 0e b9 11 f2 f3 b7
       -6.610772e-05 4.0185965e-05 -0.00013607157 -2.9080578e-05
000140 1a 01 be b9 a5 0a b6 39 98 0d 64 39 4a 13 93 ba
       -0.00036240445 0.00034721676 0.00021748838 -0.0011220959
000150 c9 54 ba 38 7c db cd 39 ce 2d 97 b9 65 79 50 b7
       8.8849636e-05 0.00039264176 -0.00028835092 -1.24260305e-05
000160 49 41 cf b9 95 e8 99 39 e2 58 7a b9 65 40 00 3a
       -0.00039530758 0.0002935572 -0.0002387497 0.0004892408
000170 06 a8 d1 b9 8f 3d 9e 39 87 1e 9c b9 c7 70 ac 39
       -0.00039988774 0.00030181973 -0.00029777383 0.00032890422
000180 86 b8 cf b9 ff 06 bb 39 f7 6e a7 b9 87 99 bf 39
       -0.00039619597 0.00035672632 -0.00031935397 0.00036544746
000190 b8 6d c2 b9 7c 30 c9 39 c8 d6 f0 b8 6b 10 a2 39
       -0.0003708431 0.0003837383 -0.00011484098 0.0003091128
0001a0 6e c1 d6 38 41 ba 33 b9 ef d6 2f b8 09 2b f6 39
       0.00010240344 -0.00017140155 -4.1923424e-05 0.0004695284
0001b0 8e 43 b8 b8 43 11 31 3a 7c 79 92 ba 2f 7f 51 39
       -8.786387e-05 0.00067545864 -0.0011175121 0.00019979173
0001c0 87 3c 06 ba 5f d2 c4 b9 7c 90 6c ba 4a 7b 53 ba
       -0.00051207136 -0.00037540772 -0.00090242154 -0.0008067383
0001d0 4b 83 bf b9 fa 5f 36 ba 24 44 c3 38 9d f1 33 39
       -0.0003652818 -0.00069570506 9.311017e-05 0.00017160778
0001e0 af 8c 8c 38 85 dd 23 b8 fe 63 63 b9 2a db 71 39
       6.7019246e-05 -3.9068535e-05 -0.00021685657 0.00023065196
0001f0 a0 a8 78 38 01 e6 2f 39 40 30 69 b7 6c 04 3b 38
       5.9284852e-05 0.00016774984 -1.3899116e-05 4.4588392e-05
000200 0d 3d 30 b9 20 ce 96 b8 0f cc b7 39 16 7a 87 38
       -0.00016807411 -7.190951e-05 0.00035056515 6.460042e-05
000210 b3 cd 5e 39 2e 1a 84 b9 85 aa b0 39 65 e3 01 b9
       0.00021248199 -0.00025196507 0.00033696383 -0.0001238711
000220 bd d3 10 39 1c 0a bf 38 64 9f 32 b9 48 77 a7 b8
       0.00013811789 9.109473e-05 -0.0001703478 -7.9853984e-05
000230 c7 54 8c 39 94 fc 8a b9 60 6f 15 ba 21 46 0c 3a
       0.00026766045 -0.00026509597 -0.0005700495 0.0005351026
000240 07 6d 8c 39 a0 b8 9d b9 29 23 e5 37 1c 89 9e 39
       0.00026784113 -0.0003008293 2.73153e-05 0.00030238263
000250 67 17 ff 38 5c 30 09 ba 51 f8 e0 39 65 1f 8f b9
       0.000121637066 -0.00052333414 0.0004290962 -0.00027298476
000260 d7 55 b7 39 f8 ee 47 ba 18 bd fb 39 3e 15 ad 39
       0.00034968436 -0.00076268567 0.00048015337 0.00033012958
000270 89 48 4e 39 55 8b 25 ba fd 57 91 39 ea 63 f1 b8
       0.00019672712 -0.00063150126 0.00027722112 -0.00011510386
000280 97 97 5a b6 fa 3f 21 b9 e5 aa 0f 39 80 29 98 b9
       -3.2572768e-06 -0.0001537799 0.00013701206 -0.0002902262
000290 02 49 8f b9 f4 65 29 39 94 1b 2a 38 95 84 22 b9
       -0.0002732948 0.00016155076 4.0556843e-05 -0.00015498915
0002a0 85 5b b0 b7 39 b6 27 39 3b 23 1d 38 47 a6 51 b8
       -2.1023452e-05 0.00015994244 3.7464528e-05 -4.998434e-05
0002b0 92 8c 21 b8 73 ef 8a 39 f6 8c 21 b8 8d c0 73 38
       -3.8516308e-05 0.00026499815 -3.851667e-05 5.811504e-05
0002c0 99 ba 18 b8 10 e2 e9 39 41 5e d8 b8 d1 f4 7f 38
       -3.6413407e-05 0.00044609653 -0.00010317239 6.102474e-05
0002d0 21 21 15 37 20 a5 ad 39 43 7e 56 b9 b2 62 5a ba
       8.8888055e-06 0.0003312016 -0.00020455667 -0.0008330747
0002e0 e2 61 0f b9 8e a9 6f 39 45 61 2a b9 1c 2b 11 38
       -0.00013674007 0.0002285598 -0.00016248699 3.4610843e-05
0002f0 82 05 ed b8 96 85 05 b9 e5 35 9d 38 52 de aa 39
       -0.000113020666 -0.00012733633 7.496382e-05 0.00032590568
000300 e8 f4 82 b8 1a 37 b4 38 87 38 00 39 e3 6f 1c 3a
       -6.2445004e-05 8.593332e-05 0.0001222809 0.00059676
000310 b4 c0 d3 b8 9f a4 cc 39 47 59 74 b9 79 13 2d 38
       -0.00010097158 0.00039032564 -0.00023302912 4.126455e-05
000320 37 15 da 38 89 ee 5a ba f7 17 83 ba b6 60 0a 3a
       0.000103990016 -0.00083515845 -0.0010001649 0.0005278693
000330 83 40 f7 39 c5 c0 83 38 3b 9e c1 b9 c4 09 70 b9
       0.00047159576 6.282473e-05 -0.0003692972 -0.00022891822
000340 79 49 5f 3a 62 a2 e6 b9 a5 71 88 b9 fb af 4b ba
       0.0008517723 -0.00043990003 -0.00026024613 -0.00077700586
000350 3f e9 75 b9 c7 c0 16 3a 51 4a 1d b9 dd 3c c5 3a
       -0.00023451912 0.0005750772 -0.00015000372 0.0015048046
000360 85 54 bc b9 c7 c0 8d ba fa 0c e6 b8 d2 0a 86 39
       -0.00035921126 -0.0010814898 -0.00010969672 0.00025566533
000370 e9 e8 7b 39 32 c0 3d b9 82 d8 a4 b9 08 97 9c 39
       0.00024023991 -0.00018096043 -0.00031441828 0.00029867166
000380 68 de d5 b8 ff 01 51 b9 49 79 8f 38 40 5c 98 39
       -0.00010198058 -0.00019932537 6.8413625e-05 0.0002906043
000390 6d 1f ae b7 8a 60 81 b9 30 c3 ac 39 7f ab a4 b7
       -2.075705e-05 -0.00024676725 0.00032951823 -1.9630183e-05
0003a0 58 4f 1f 39 e5 93 97 b9 5b 1f be 39 cd a2 30 39
       0.0001519298 -0.00028911154 0.00036262986 0.00016845316
0003b0 1a d4 59 39 9f a8 bc b9 0c fc fd 38 7f 19 2f 38
       0.00020773747 -0.00035983787 0.000121109275 4.1746996e-05
0003c0 a7 4f e2 b9 fc 24 c2 39 25 f7 10 3a a3 81 7f ba
       -0.00043165425 0.0003703012 0.00055299915 -0.00097467954
0003d0 1e c0 22 b9 34 43 b8 39 52 a6 a6 b7 29 71 02 ba
       -0.00015521093 0.00035145285 -1.9866191e-05 -0.00049759686
0003e0 cd 6b 5f b9 bf 33 1e 3a e0 06 26 ba 80 38 9e 39
       -0.00021307096 0.00060349324 -0.0006333422 0.00030178204
0003f0 d9 22 d7 b9 9e 5b 4c 3a 93 f4 30 ba 84 3f 61 b8
       -0.0004103396 0.00077956344 -0.00067503116 -5.3703334e-05

old_dirs f4 [1761]
000000 60 45 90 b7 bc 5d 21 3a 54 71 91 3a e0 a5 51 bb
       -1.7198443e-05 0.000615563 0.0011096396 -0.0031989738
000010 00 96 1d 37 66 68 6e ba 00 08 0e b9 68 c7 fb ba
       9.392854e-06 -0.0009094536 -0.00013545156 -0.0019209208
000020 30 7a 99 3a 28 2c bf ba 1c 2b 24 ba d0 54 b4 b9
       0.0011709388 -0.0014585303 -0.00062625273 -0.00034395466
000030 20 82 b4 39 10 12 6b 3a 22 d9 0a 3b 80 ed 28 ba
       0.00034429226 0.000896723 0.002118655 -0.00064440817
000040 34 20 88 ba 40 92 f2 3a 64 9b 45 b9 b4 d8 ad 39
       -0.0010385574 0.0018506721 -0.00018845272 0.00033158588
000050 68 47 a5 3b 50 05 aa 3a f4 47 34 3a 10 99 ef ba
       0.0050439127 0.0012971554 0.0006877177 -0.0018279869
000060 98 b9 5c 3a 00 88 32 b9 a4 45 89 bb 00 f0 5c 37
       0.00084199896 -0.00017026067 -0.00418921 1.3168901e-05
000070 fa e6 db 3a 80 58 a0 38 a0 de 98 b9 80 17 bb 38
       0.001677721 7.645879e-05 -0.00029157568 8.921232e-05
000080 40 1e 54 b9 70 9f 9e 37 18 9a 66 ba 4a f4 88 3a
       -0.00020229165 1.8909312e-05 -0.00087967655 0.001044878
000090 7c 4a 7c 3a 40 49 e9 b9 2f 82 a8 3a a0 82 05 3a
       0.0009624136 -0.000444958 0.001285618 0.0005093012
0000a0 56 39 98 39 63 92 55 bb d0 2a b2 ba fe 48 e3 ba
       0.00029034418 -0.0032588474 -0.0013593081 -0.0017340479
0000b0 50 77 99 ba 9c 7a e7 39 f0 0f 6c b9 b8 b3 d4 ba
       -0.0011708532 0.00044151105 -0.00022512651 -0.0016227877
0000c0 f5 f6 20 3b 35 8a 68 39 cc ce 55 bb be fc b3 ba
       0.002456126 0.0002217673 -0.0032624481 -0.0013731939
0000d0 52 86 8c ba 33 0b 12 3b 90 98 d0 ba 80 23 8c 3a
       -0.0010721183 0.0022284507 -0.0015914608 0.0010691732
0000e0 06 cc 8c 38 98 00 af 3a df f4 ae ba ec fc a4 b9
       6.7137225e-05 0.0013351617 -0.0013348124 -0.0003146896
0000f0 00 13 3a 38 c0 0c c2 37 a8 bb 88 b9 40 4b eb 38
       4.436355e-05 2.313254e-05 -0.00026079756 0.000112196896
000100 e0 53 f8 b7 c0 f4 e9 b8 f8 48 b1 38 e0 ca a4 b7
       -2.9602961e-05 -0.00011155894 8.453609e-05 -1.9644795e-05
000110 80 c4 a9 37 a0 e7 c1 b8 20 4e 98 b8 00 6d dc 37
       2.0237872e-05 -9.246101e-05 -7.262477e-05 2.62768e-05
000120 80 b2 a5 37 ec e1 82 39 00 fc 64 b6 00 02 4a 37
       1.9752653e-05 0.00024963857 -3.412133e-06 1.2040604e-05
000130 e0 29 e6 38 f0 46 a7 b9 08 38 b9 38 60 84 2a b8
       0.000109750545 -0.00031905575 8.831924e-05 -4.0654442e-05
000140 c0 c5 86 37 90 a3 61 b8 30 b8 e4 38 d0 e6 4b b8
       1.606613e-05 -5.379651e-05 0.00010906195 -4.8613932e-05
000150 80 dd 21 38 a8 d7 06 38 d0 33 22 b8 00 81 21 b7
       3.859168e-05 3.2148935e-05 -3.8672064e-05 -9.626383e-06
000160 40 f3 f1 37 00 d3 af b7 a0 8b ba 38 40 70 6c b8
       2.884271e-05 -2.095988e-05 8.895178e-05 -5.6371326e-05
000170 60 64 b1 37 38 3f ee b8 00 68 7c 38 20 3d 76 38
       2.1146785e-05 -0.000113605 6.017834e-05 5.8707898e-05
000180 c0 05 ab b7 bc 9f 36 39 90 43 d7 b7 00 52 a4 35
       -2.0387466e-05 0.00017416378 -2.5661458e-05 1.2242817e-06
000190 48 b6 51 b9 1c ad 00 3a 10 26 c2 b8 a0 cb fc b9
       -0.00019999698 0.0004908608 -9.2577306e-05 -0.00048216898
0001a0 54 f7 d3 b9 b0 13 69 38 69 16 80 39 18 6c 90 b8
       -0.0004042933 5.5569864e-05 0.0002443076 -6.886589e-05
0001b0 50 21 97 b9 80 ea 47 b9 00 26 92 36 cc b1 0f 3a
       -0.00028825784 -0.00019065477 4.355563e-06 0.0005481511
0001c0 80 b9 f2 b7 71 d8 13 3a 20 aa 4c 38 80 4c 10 b8
       -2.8935028e-05 0.0005639857 4.879583e-05 -3.440352e-05
0001d0 b0 04 a7 38 00 25 23 38 40 7a 0e b8 40 fe c8 b7
       7.964054e-05 3.8896687e-05 -3.3969292e-05 -2.3960252e-05
0001e0 d0 2b bc 38 10 e3 03 39 3e 10 2a ba 70 f4 e6 38
       8.972699e-05 0.00012577721 -0.00064874056 0.00011012785
0001f0 e0 14 ca b8 16 02 84 b9 94 17 3f 39 60 ca a5 b7
       -9.635999e-05 -0.00025178556 0.00018223963 -1.9763771e-05
000200 40 e8 11 38 f8 f2 95 b9 40 e2 57 b9 60 41 20 39
       3.4786994e-05 -0.0002860052 -0.00020588282 0.00015283143
000210 60 df 04 38 42 ae 09 3a 00 47 24 37 e0 cd fb 38
       3.1679287e-05 0.00052521017 9.791693e-06 0.0001200696
000220 ac bd 89 39 8c 50 2e ba 30 d0 51 39 90 45 ab b8
       0.00026271993 -0.00066495757 0.00020009349 -8.1668724e-05
000230 80 bf 84 38 a0 1e e9 38 b8 e5 04 ba 80 c5 70 38
       6.32992e-05 0.0001111601 -0.0005069631 5.7404395e-05
000240 a0 71 f3 b8 58 3d 40 b9 d4 43 3a 39 e0 ab 46 b8
       -0.00011608307 -0.00018333399 0.0001776361 -4.736695e-05
000250 00 a4 9a 37 d0 71 81 b9 40 8e fc b8 c0 c5 0c 39
       1.8434599e-05 -0.00024689594 -0.000120427925 0.00013425108
000260 00 ec 33 38 68 e2 fb 39 c0 38 0e 38 60 50 d2 38
       4.2896718e-05 0.00048043136 3.390829e-05 0.00010028551
000270 68 ef 65 39 00 82 fb b9 f0 ce 19 39 00 7e a5 b8
       0.00021928328 -0.00047971308 0.00014668307 -7.8912824e-05
000280 00 6c fd 34 78 0c c0 b8 34 18 33 39 e0 64 36 38
       4.7203503e-07 -9.157596e-05 0.00017079787 4.348613e-05
000290 4c cf ad 38 90 45 82 38 6b b4 c6 b8 40 5e db 37
       8.287895e-05 6.21184e-05 -9.474981e-05 2.6150723e-05
0002a0 e0 b4 f6 37 1c be 11 39 90 19 f8 37 d0 4d d8 b8
       2.9409712e-05 0.00013899099 2.9575807e-05 -0.00010314176
0002b0 e0 37 63 b7 9f 8e 88 b9 f8 f5 12 b8 a0 9e 5d b8
       -1.3543264e-05 -0.00026046202 -3.503819e-05 -5.2838237e-05
0002c0 d0 91 c1 b8 a4 f6 07 39 78 a7 55 b8 34 90 06 38
       -9.230117e-05 0.00012966484 -5.0939125e-05 3.208239e-05
0002d0 00 c1 75 b6 e0 b2 69 b8 84 7e 3d 39 d8 dc 61 b8
       -3.6620186e-06 -5.571812e-05 0.00018071575 -5.3849857e-05
0002e0 00 13 3b b6 85 cc 9f 38 c0 de 8b b7 a0 45 2e b8
       -2.787623e-06 7.6198055e-05 -1.6673817e-05 -4.1549676e-05
0002f0 60 7f 97 37 00 60 aa b5 50 a4 26 39 10 63 75 b8
       1.8059916e-05 -1.2693927e-06 0.00015892205 -5.850481e-05
000300 e0 95 0f 38 68 52 af b8 00 6d ae 38 40 e0 15 38
       3.423344e-05 -8.3599996e-05 8.3172694e-05 3.5733217e-05
000310 e0 4f 1d b8 e0 2e 84 39 02 59 7b b8 c0 34 a6 b6
       -3.7506106e-05 0.00025211927 -5.992596e-05 -4.9533264e-06
000320 80 0b 98 37 d8 ee d1 b9 38 32 46 3a 80 f7 11 39
       1.8125167e-05 -0.0004004154 0.0007560584 0.00013920479
000330 9c 27 22 39 5c 32 b0 39 b8 29 71 b9 60 e3 91 b8
       0.0001546428 0.00033606857 -0.00022999092 -6.956491e-05
000340 d0 71 44 39 f0 98 7a 39 a4 4a 09 3a 80 2d e0 b9
       0.00018734415 0.00023898832 0.00052372576 -0.0004275851
000350 40 db 9f 38 68 a8 3d ba c0 97 46 39 80 e1 8a 38
       7.622549e-05 -0.00072348723 0.00018939283 6.6223554e-05
000360 10 3b 92 b9 08 c0 52 3a b0 05 8e b9 c0 5e 46 38
       -0.00027891295 0.0008039479 -0.00027088588 4.729512e-05
000370 20 f6 20 38 38 e7 ba 38 3c 69 aa b9 40 fd a0 37
       3.8376194e-05 8.912239e-05 -0.00032503332 1.9191415e-05
000380 20 a2 40 b8 72 14 0a b9 ff ac a4 38 28 1e 05 37
       -4.5927358e-05 -0.00013168322 7.8523524e-05 7.934439e-06
000390 00 dc f3 35 a0 12 f8 b8 68 71 0e b9 80 f9 df 38
       1.8168939e-06 -0.00011829031 -0.00013584422 0.000106799416
0003a0 80 4c 35 36 fc f0 6b 39 c0 c3 a5 b7 00 81 0b 38
       2.701563e-06 0.0002250112 -1.9760686e-05 3.3260323e-05
0003b0 90 1e 03 39 e0 6c b5 b9 1e d5 db 38 dc 16 08 b8
       0.00012504519 -0.00034604128 0.0001048243 -3.2446216e-05
0003c0 c0 c8 b4 b7 70 67 84 b8 d0 7d 86 39 e0 5d 9c b8
       -2.1551154e-05 -6.313517e-05 0.0002565221 -7.456145e-05
0003d0 c0 da 84 38 98 71 c2 38 58 05 c1 b8 40 65 90 37
       6.334996e-05 9.271799e-05 -9.2039525e-05 1.7213286e-05
0003e0 00 14 ed 35 c0 b3 c3 38 50 10 a4 38 b0 45 98 b8
       1.7663697e-06 9.3318056e-05 7.823168e-05 -7.260905e-05
0003f0 80 d3 24 b7 ec 37 87 b9 00 38 f4 36 00 9a 1d b7
       -9.824405e-06 -0.00025790872 7.278286e-06 -9.393785e-06
