Parallel PINN/kg_forward_best.pt (torch, 784255 bytes, 115 tensors)

linears.0.weight f4 [20, 2]
000000 a4 f8 02 bd 79 7e 49 bd 74 8a 66 3e a0 a4 89 3e
       -0.031975403 -0.04919288 0.22513753 0.2688341
000010 2e df a7 be 14 36 2d 3f df cc 00 bf 84 53 06 bf
       -0.3278746 0.6766064 -0.5031261 -0.52471185
000020 b3 8a 7a be d8 a2 f9 3d ce 6d dd bc be b9 c2 3d
       -0.24466972 0.12189263 -0.027029898 0.09508084
000030 bd f7 8d 3e 36 d7 b9 bd d3 34 73 be 30 f2 0c 3e
       0.27728072 -0.09074251 -0.2375062 0.13764262
000040 87 33 13 3c 63 3f ad be c2 5b 0f bf 4e e5 e4 3e
       0.008984453 -0.33837423 -0.55999386 0.44706196
000050 5c 9c 04 3f d5 ad af be 7a 56 94 3e d3 1d 95 3e
       0.51801085 -0.3431231 0.28972226 0.29124317
000060 f0 25 3e 3e e2 d1 0f be 1e 5c 1e 3f 6c 40 6b be
       0.1856916 -0.14044908 0.6185931 -0.22973794
000070 91 ef d2 3e 59 b6 9d be 5f 72 f5 3e 20 6f 13 bf
       0.411984 -0.30803183 0.4793882 -0.5759144
000080 70 f1 5d 3e df c5 01 be 3c f8 89 3e cb 0a 25 3f
       0.21674132 -0.12673138 0.269472 0.64469594
000090 a8 6a 8d 3a 16 3e dc bd 8d c0 77 be 2e 2a 3d 3c
       0.0010789232 -0.107540295 -0.24194546 0.011545701

linears.0.bias f4 [20]
000000 b7 13 07 3e 54 84 61 be b7 f8 81 bd 72 03 c4 3e
       0.13191114 -0.22023135 -0.06346267 0.3828388
000010 3f 24 40 be 06 11 41 3e 2c e5 1d 3e a6 88 99 be
       -0.18763827 0.1885415 0.15419453 -0.29987067
000020 f9 fb 87 3e 36 f0 ad be 1c f6 3b 3f 16 d9 8f be
       0.26559427 -0.3397233 0.7342241 -0.2809531
000030 31 68 63 3e 9f 46 4b 3e 48 d2 f5 3e f1 fc d3 3e
       0.22207715 0.19851159 0.48011994 0.41403916
000040 22 d5 bd 3d 31 37 5f 3e 25 9a 1c be ec a1 fb bd
       0.092691675 0.21798398 -0.15293176 -0.122867435

linears.1.weight f4 [20, 20]
000000 02 0d 96 bd d0 7a 55 3d a7 33 d7 3e dd 16 07 3d
       -0.073267 0.052119076 0.42031595 0.03298079
000010 e5 12 82 3e c1 5d 1a be 52 cb a5 be d2 7f 6a be
       0.2540504 -0.15074827 -0.32381684 -0.22900322
000020 c8 ea 83 3d 48 35 38 be f2 b5 c3 3e 3e e1 da 3d
       0.06441265 -0.17989075 0.3822475 0.10687493
000030 ec b2 8f be 90 2b bc be 78 f4 4b 3e bd 55 6f 3e
       -0.28066194 -0.36751986 0.19917476 0.2337255
000040 d8 87 9d 3d c6 b4 ac 3d 13 7d 2b bd c2 58 91 3e
       0.07691926 0.08432917 -0.041867327 0.2838803
000050 41 80 b7 be 82 ab eb 3d b4 ce 12 be 6c 07 e7 bd
       -0.35840037 0.11507322 -0.14336663 -0.112807125
000060 d5 a2 4f bd 4d 92 ad be d8 f1 4d 3e fe f5 56 3c
       -0.050692398 -0.3390068 0.20111787 0.013120173
000070 29 cb 86 be 8a 44 c7 be 51 76 3b be 61 28 a8 bc
       -0.26326874 -0.3891948 -0.18306853 -0.020527067
000080 41 4f 7d 3c 8b 36 ce 3e ec c1 26 39 e1 ee 49 bd
       0.01546079 0.40275988 0.00015903235 -0.04930008
000090 2b d2 68 3e 45 c0 67 3d 25 a9 d8 3e e0 cf 5b 3e
       0.22736423 0.056579847 0.42316547 0.21466017
0000a0 1a a6 ed 3c cf aa 56 bd c1 11 f3 bd 98 2d 07 bd
       0.029009867 -0.05240899 -0.11868621 -0.033002466
0000b0 b5 eb db 3e 33 2e d7 be 4d dc 10 be 27 eb cc 3d
       0.42953268 -0.42027435 -0.14146538 0.10005789
0000c0 ca ad 8e be 8c 8b 98 3e aa ca d6 be 8b 6e ec 3d
       -0.27866966 0.29793966 -0.41951495 0.11544522
0000d0 4d 61 a8 be 2e 68 d7 be f6 2b 1c bf 66 81 90 3d
       -0.32886735 -0.4207167 -0.6100458 0.07055931
0000e0 fa 31 9e be 91 0f 12 be 9d 0b 11 be 3d 27 d6 3e
       -0.30897504 -0.1426375 -0.14164586 0.4182681
0000f0 78 d6 dd be 3e 47 3c be 59 c3 e9 bd a0 d3 e1 3e
       -0.4332769 -0.18386552 -0.11414213 0.4410677
000100 11 d4 9f bd 64 16 91 3e 07 3c 3d 3e 13 93 af 3e
       -0.0780412 0.28337395 0.1847993 0.34291896
000110 b5 57 88 be b4 e6 84 be 3c 98 19 3e 36 31 11 be
       -0.26629415 -0.25957263 0.14999479 -0.14178929
000120 e2 9f 60 3e b9 bf cb be e3 4b 31 be 4d d8 02 3e
       0.2193599 -0.3979471 -0.17314105 0.12777825
000130 33 02 3d 3d 3b a5 dc 3d 82 6f 10 3e 54 6d ec be
       0.046144675 0.10773703 0.14105037 -0.4617716
000140 e9 14 a3 3d 80 80 ba 3e 1e 5b 9e be dc 77 bf 3e
       0.07962973 0.36426163 -0.30928892 0.37396133
000150 91 d0 af bd 6c 3b e2 3d 6a 1f 20 be ef 4f 9b 3e
       -0.08584703 0.1104649 -0.15636984 0.30334422
000160 20 3e 56 be 5e 5d a4 3d 82 e5 62 3d 03 36 59 3e
       -0.20922136 0.08025621 0.055394657 0.2121201
000170 39 12 dc 3d af 68 4f bc 90 c3 b6 3e ba ca 89 be
       0.10745663 -0.012659236 0.35696077 -0.2691248
000180 fb 41 ac 3d d2 9c 75 be e9 1c 30 be 7d d7 99 3d
       0.08411022 -0.23985603 -0.17198528 0.07511804
000190 93 f1 75 be 67 37 7a be 42 a4 5a bc 13 f7 0c be
       -0.24017935 -0.24435197 -0.013344826 -0.13766126
0001a0 71 2d 8e 3c 57 86 b5 3d 48 83 4f 3e 19 c1 99 be
       0.017355653 0.08863514 0.20264924 -0.30030134
0001b0 ed 59 cf bb 24 90 aa be 4e fb 2b 3e 15 76 8b 3d
       -0.0063278587 -0.33313096 0.16795084 0.06809632
0001c0 49 d0 cc 3e 8b f1 01 3e dc 4e 69 be 3e db c5 3d
       0.4000266 0.12689798 -0.22783989 0.09660958
0001d0 0a ae 01 3c 6f 1d 65 3e 9e a1 40 be 57 4f 4a bf
       0.007915029 0.2237451 -0.18811652 -0.79027313
0001e0 8e e4 91 3d 9f fc 77 bc f8 4c 53 be 21 29 3c be
       0.071236715 -0.015135913 -0.2063483 -0.18375064
0001f0 bd 8c ae 3e 63 08 1e bd f1 d0 e9 bd 80 c1 34 be
       0.3409175 -0.038582217 -0.114168055 -0.1765194
000200 3a a7 d0 be 19 b3 08 bd fc e0 e6 bd 79 ff 23 3f
       -0.40752584 -0.033373926 -0.11273381 0.64061695
000210 77 6d 0a be 9b 1e 20 3c 2b 08 4f be 04 16 7b 3c
       -0.1351832 0.009772922 -0.2021796 0.015325073
000220 61 06 13 3e 8c 23 45 3d 40 57 07 be b7 03 91 3e
       0.14357902 0.048129603 -0.13216877 0.28323147
000230 43 e3 27 be e6 87 05 be 4c 2b a3 be f0 69 7d be
       -0.16395287 -0.13040122 -0.3186897 -0.24747443
000240 6d d6 6a 3d 81 43 6d 3d e2 9e 78 be e2 b7 a8 3c
       0.0573334 0.057925705 -0.24279359 0.020595495
000250 20 94 24 3e 72 bf 51 be 60 19 ba be 5a b7 7b 3e
       0.1607213 -0.20483187 -0.36347485 0.24581662
000260 c9 2c 9f be b3 e3 20 be ac fb e6 3c 24 e1 12 3f
       -0.31088856 -0.1571186 0.028196178 0.5737479
000270 e4 1e 77 ba f4 1a 48 3d f3 3b 1a bf b2 70 22 3e
       -0.00094269053 0.04885383 -0.60247725 0.15863302
000280 d9 33 d8 bd 8d 94 97 3e ce 64 e1 be 2f c9 3b be
       -0.10556764 0.29605523 -0.4402222 -0.18338464
000290 be 95 a1 be f5 4f b0 be 60 0a 09 be 03 77 3f 3e
       -0.31559557 -0.34436002 -0.13382864 0.18697743
0002a0 6d bd 17 3e 58 06 17 3e 8f 85 d9 3e 8d e7 4b 3e
       0.14818354 0.14748514 0.4248471 0.19912548
0002b0 f5 11 4c bd 86 fc 18 3e 4a 2c 75 be 7c fe 87 be
       -0.049821813 0.1494008 -0.23942676 -0.26561344
0002c0 99 e1 d2 3d 31 85 3c bd a1 d1 ae bd fc 4a 23 be
       0.102969356 -0.04602546 -0.08536077 -0.15946573
0002d0 0a 3c 1a 3e b8 bd fa bd e4 47 80 be 47 5b b7 be
       0.15061966 -0.12243217 -0.25054848 -0.35811827
0002e0 1a ed 3b 3e a0 62 90 bd d7 a9 58 3e 56 a5 91 bd
       0.18352166 -0.07050061 0.21158539 -0.071116135
0002f0 92 14 9e 3e 6a 58 40 3d 6b b6 77 be ca 1f be bb
       0.3087507 0.04695932 -0.2419068 -0.0058021294
000300 4e 09 fc bb f0 da fa 3c ab 5e 9c be 80 ea 4b 3c
       -0.007691539 0.030621976 -0.30540976 0.012446046
000310 bc 52 14 be d7 14 d8 3d 2d b6 b8 3d 81 b9 6e be
       -0.14484686 0.1055085 0.09019122 -0.23312952
000320 4e d6 8b 3e d5 8e 97 3e fe 21 11 bd 41 c6 0b be
       0.2731194 0.2960116 -0.035432808 -0.13649847
000330 9b 4b 2c 3c b4 35 3d be 94 81 39 3d 8c 6e bd be
       0.010516073 -0.18477517 0.04528959 -0.36998403
000340 a7 f5 1d bd 15 e7 93 bd 31 2c 42 3e 73 07 17 be
       -0.03856435 -0.0722181 0.1896217 -0.14748935
000350 b3 cf 87 3e 45 2a 4a be e6 1a a0 3e a6 25 54 be
       0.2652565 -0.19742687 0.31270522 -0.20717487
000360 5b d5 8f 3e c4 31 dd 3d bd cc de 3d 01 aa 4c 3e
       0.28092465 0.10800508 0.108788945 0.19986726
000370 b4 6d 9a 3d ff b8 03 bf 0d d4 4e be 65 5c 00 be
       0.075404555 -0.51454157 -0.20198078 -0.12535246
000380 73 87 52 be 9e d8 89 bd dd c6 bf 3d 2f 7e e2 be
       -0.20559482 -0.067307696 0.09364102 -0.44236895
000390 07 d9 a4 3e 54 ce 94 3e fe c5 6a bf 5b 0d 00 bf
       0.3219683 0.29063666 -0.9170836 -0.5002038
0003a0 84 b0 03 be d2 66 fd 3e 81 ec ee be 0b 3b a8 be
       -0.12860304 0.49492508 -0.46664813 -0.32857546
0003b0 ba 69 8f 3d 65 ac 8b 3e fd 34 77 3d ce bd c2 be
       0.070025876 0.27279964 0.060353268 -0.38035434
0003c0 74 af bb be e6 29 92 3d 7c 5d a9 3d b0 78 06 3e
       -0.36657298 0.07136898 0.08269784 0.13131976
0003d0 8b a3 1e be d0 45 d5 bd 16 29 0f 3d 7c 93 ea 3e
       -0.15492074 -0.10413706 0.034951292 0.45815647
0003e0 c1 2b 6e 3b 5e c1 17 be 6a 8f 05 bd 90 1b bf be
       0.0036341997 -0.14819857 -0.032607473 -0.37325716
0003f0 76 e9 65 bd 44 a3 90 3e a5 d4 8d be 5f 66 b0 bd
       -0.05613085 0.28249562 -0.27701297 -0.08613276

linears.1.bias f4 [20]
000000 0e aa 8a 3c 72 f9 4a 3c 65 c4 aa be bb 9e 03 be
       0.016926792 0.012388574 -0.33352962 -0.1285352
000010 32 94 20 be 70 ac 44 3e fa ff 1e be dd 7f 94 3e
       -0.15681532 0.19206405 -0.15527335 0.29003802
000020 cc 93 23 be 2d 08 0c be 96 a4 a8 3c 00 a1 83 bc
       -0.15974349 -0.13674994 0.020586293 -0.016067982
000030 69 90 02 be 3f ac 20 3d 4e bc 29 be 37 30 27 3e
       -0.127504 0.039226767 -0.16575739 0.16326986
000040 15 c8 22 3e a0 d7 87 bd 8b c1 5c bd 0c fe c1 3d
       0.15896638 -0.06632924 -0.053895514 0.09472284

linears.2.weight f4 [20, 20]
000000 be f5 7a 3b 2e e0 0a be c4 61 b7 3e a1 d3 aa 3e
       0.0038293446 -0.1356208 0.35816777 0.33364585
000010 88 b6 ac 3e 79 ad ae be 9a 6d 48 3d 38 89 b0 be
       0.3373301 -0.34116724 0.04893265 -0.3447969
000020 d1 b4 cf bd 5c c1 de bc ba 32 55 be 8d f8 3b bf
       -0.1014191 -0.02719181 -0.20820132 -0.73426133
000030 5a 5b ff 3d c5 60 78 bc a8 f8 83 3e dc 1b 39 be
       0.12468596 -0.01515979 0.25775647 -0.18077034
000040 5d 6a 05 be d1 9a b4 bd 04 fd 65 bd fc bb c3 be
       -0.13028856 -0.088185914 -0.056149498 -0.38229358
000050 72 41 ee 3e 9b 48 df bc 26 f4 51 3d 59 ce fe 3b
       0.46534306 -0.0272563 0.05125823 0.0077760634
000060 a4 06 39 3e fe 8b 91 be 18 26 39 3e cf 54 30 bf
       0.1806894 -0.28427118 0.18080938 -0.6887941
000070 22 00 0c 3e 04 b7 87 3d 76 80 50 3d 12 bd 03 bf
       0.13671926 0.06626704 0.05090376 -0.51460373
000080 5c e6 1e be dd d6 f0 3c 12 ed de 3d f6 bd 1d 3d
       -0.15517563 0.02939933 0.10885061 0.03851124
000090 75 9e 34 be 60 9b 6a 3e dd d0 37 be 87 93 e1 bc
       -0.17638572 0.22910833 -0.17950769 -0.027536167
0000a0 1e da 61 3e f2 ea 9a 3d be cb 63 3d 4f 18 46 3e
       0.22055861 0.075643435 0.055614226 0.1934521
0000b0 2e 70 73 bc a3 3e a9 bd b8 ee 70 3e 68 7e 94 be
       -0.014858289 -0.082639 0.23528564 -0.2900269
0000c0 fb 90 48 3c 57 72 23 3c d4 63 a9 3d e2 ac 0a 3f
       0.012241597 0.009975991 0.08270994 0.5417005
0000d0 c2 f0 07 3f b3 4a 10 be be 7a b8 3e 7a ff 85 3e
       0.5310174 -0.14090995 0.36031145 0.26171476
0000e0 8c 44 e2 bd 2d 5b 4c be 2a 54 05 3d e6 e6 49 3d
       -0.110482305 -0.19956656 0.03255097 0.049292468
0000f0 cf 70 f4 3e 51 8b 7f be 06 ee f7 3d 87 95 c5 3e
       0.47742316 -0.24955489 0.12105946 0.38590643
000100 6b 38 66 3e c6 7e 9d 3c 6b 86 ae be 3e ce 23 3e
       0.22482459 0.01922549 -0.34086928 0.15996644
000110 b7 7b 00 be 0c c1 0c bf a6 e9 00 3e 37 c3 9f be
       -0.12547193 -0.54982066 0.1258913 -0.31203625
000120 95 54 3e be 82 5f 37 3e a7 53 19 bd 90 77 97 3d
       -0.18586953 0.17907527 -0.037433293 0.073958516
000130 8e 9b 29 3e 18 23 87 be ff fc d7 bd db 93 95 be
       0.16563246 -0.26393962 -0.10546302 -0.29214367
000140 48 d2 3f 3e 29 b5 33 3d f8 51 14 3e 49 11 cd bd
       0.1873256 0.04387394 0.14484394 -0.100130625
000150 80 6f 92 3e d2 cd 3c be 6f 78 ed bd f5 aa 86 be
       0.28600693 -0.18437889 -0.115952365 -0.26302305
000160 ba 64 c4 3d ce c8 0a 3d 9e 68 f6 3c dc 22 0e 3e
       0.095895246 0.03388291 0.030079182 0.13880485
000170 dc 5d 0c be 07 06 4a be 06 11 f1 3d 34 9b 8f be
       -0.1370768 -0.19728862 0.11770825 -0.28048098
000180 a7 0d e6 bd d0 a1 8b 3e c2 64 2c bd 76 df ad 3c
       -0.11233073 0.2727189 -0.042088278 0.021224719
000190 a1 2d e6 bd f6 b6 02 be 7d 98 a8 bd 9f 4f f4 3d
       -0.11239172 -0.12765107 -0.0823221 0.11929249
0001a0 27 29 c4 3e e0 fb 01 bd 6f 23 3d bd bd 1c 08 be
       0.38312647 -0.031734347 -0.04617637 -0.13292213
0001b0 51 a5 c3 bc 67 dc 2d 3e 72 63 dc bc e6 81 9f 3d
       -0.02388254 0.16978608 -0.026902888 0.07788448
0001c0 cc db 41 be 43 ae 26 be 90 ec 8b be 98 43 40 b9
       -0.18931502 -0.16277413 -0.2732892 -0.00018335728
0001d0 9d 6d a1 be 59 ad 0b 3e 1b 96 b2 bb 0a f9 bf bc
       -0.3152894 0.13640346 -0.005450023 -0.02343418
0001e0 cc e2 6c 3d de 9a 06 3d cd c7 c3 bb b3 69 7c bc
       0.057833478 0.032862537 -0.005974746 -0.01540606
0001f0 8e 0a f4 bd d7 4a bc 3e 71 6a 0e 3e e4 6f a9 be
       -0.11916076 0.36775848 0.13907792 -0.33093178
000200 2f 4f 83 3e 7f 0f 3e be b0 9b 7e be ef d9 00 3e
       0.2564635 -0.18560599 -0.24864078 0.12583135
000210 9d 5a a0 bc 34 e1 0a be cc 9b 35 be 27 99 ba be
       -0.019574458 -0.1356247 -0.17735213 -0.3644497
000220 7c 8d 53 be 4e 00 20 3e 99 3f 6c bd ce ca 40 be
       -0.20659441 0.15625116 -0.05767784 -0.18827364
000230 23 c7 6c be 0a 5c 94 bb b8 af 86 be cc c6 8a bd
       -0.2312284 -0.0045275735 -0.26305938 -0.06776199
000240 ce 25 b1 3c 95 25 8d 3e bd c3 6d be ab 53 db 3e
       0.021624472 0.27567735 -0.232192 0.4283727
000250 1a f9 8a be 56 77 5b be eb 46 00 bf 77 d3 81 3e
       -0.27143174 -0.21432242 -0.5010821 0.25356647
000260 04 4b 34 3c 7f a5 d3 bd 4f ae 17 3b d9 94 a2 3e
       0.011004213 -0.103343 0.0023144668 0.31754187
000270 3d c5 04 3f dd c8 75 3e f6 16 dd 3c 58 2d 24 3d
       0.5186346 0.24002405 0.026988488 0.040082306
000280 fc 2e 03 3e f7 7d 24 3e fd 63 48 3e c4 20 ba bc
       0.12810892 0.16063677 0.19569393 -0.022720702
000290 29 d1 e0 bb ab b1 c6 3c ce 73 36 be 71 33 6f 3d
       -0.0068608713 0.02425464 -0.17817613 0.058398668
0002a0 51 31 88 be 1c fd bc 39 5d d3 d0 3d 0d 14 2f bd
       -0.26600125 0.00036046735 0.10196564 -0.04274373
0002b0 ed 65 76 3e 54 f4 d0 bc 5d 50 c1 3d c1 a6 9e 3e
       0.24062319 -0.02550713 0.09439156 0.30986598
0002c0 0b ff c9 3c 52 1b 2b 3d 97 48 30 bd 3c 34 70 be
       0.024657747 0.0417741 -0.043037977 -0.23457426
0002d0 6b e1 03 be 17 cf de 3d f1 09 93 3d a2 fe e5 3d
       -0.12878959 0.10879343 0.071796305 0.11230208
0002e0 ad 08 04 3e fb 96 53 3c a8 84 23 be 6b 96 ea be
       0.12893935 0.0129144145 -0.15968573 -0.45817885
0002f0 a4 bf a3 3e 02 c4 6e be 49 7f 1a 3e 91 03 03 bd
       0.31982148 -0.23316959 0.15087618 -0.031985823
000300 a4 0f 81 3e e0 c8 ee 3c 52 29 10 bc 2a 99 94 3e
       0.25207245 0.029148519 -0.008798914 0.29023105
000310 eb 3a d7 3d 51 b3 0e be e2 7f 2f be 0b 09 c2 3a
       0.105092846 -0.13935591 -0.17138627 0.001480372
000320 58 d4 d0 bc 28 6a 99 3d a6 cf 1a be 84 cf 94 3e
       -0.025491878 0.07490951 -0.15118274 0.29064572
000330 92 b4 97 3e b4 d3 89 be 1b 22 7e be ea 11 82 3b
       0.29629952 -0.2691933 -0.24817698 0.0039694207
000340 d9 cd 8d 3e d4 0e 24 3d e6 49 03 3e d7 60 e9 be
       0.27696112 0.040053204 0.12821159 -0.45581695
000350 f5 fa 65 be 4b 93 86 3e b4 41 98 3d ab 00 d3 bd
       -0.22459014 0.2628425 0.07434407 -0.10302862
000360 c0 a0 09 bf bd 06 46 3e e9 93 78 be eb 4d 8a bd
       -0.5376091 0.19338508 -0.24275173 -0.06753143
000370 a4 a6 27 be 84 7f e7 bd 65 bd ac 3d 2d 84 33 3d
       -0.16372162 -0.113036186 0.08434562 0.043827225
000380 bb 9a 94 be 0e aa ac be 1e 4f ea 3c b4 69 90 3d
       -0.290243 -0.3372349 0.02860218 0.07051411
000390 56 c6 1a be f0 d5 7a 3d 10 66 c0 3c ab 22 5f 3e
       -0.15114722 0.061239183 0.023486167 0.21790569
0003a0 b3 80 f2 3c bc d9 7d 3d ef 48 f9 3c 01 55 ac be
       0.029602384 0.061975226 0.030430285 -0.33658603
0003b0 07 b9 c7 bd a1 9d 95 3e 40 9c c1 3e 71 5f 1c be
       -0.09752088 0.29221824 0.37814522 -0.15270783
0003c0 1e c9 0a be 52 3a e5 3e 30 7e b6 bd 8b f4 68 3e
       -0.13553283 0.44771057 -0.08910787 0.22749536
0003d0 95 89 66 3e ff 2a 34 be 00 e3 f5 3e 3c ee 72 bd
       0.22513421 -0.17594527 0.4802475 -0.05930923
0003e0 52 91 ec 3e 85 53 d1 bc 7b a8 f5 3d 3e 5a cb be
       0.4620462 -0.02555252 0.11995026 -0.39717287
0003f0 93 a9 9f 3d c3 74 c2 3e fa 77 f3 3d 73 61 99 3e
       0.077960156 0.37979707 0.11888118 0.2995716

linears.2.bias f4 [20]
000000 3d f1 8c be b3 d3 1b bd d6 43 e9 bd 57 d8 dd 3d
       -0.275278 -0.03804369 -0.11389892 0.10832279
000010 7f 31 48 ba 0b 32 6b bd 0d e6 02 be 82 15 58 3e
       -0.000763677 -0.05742077 -0.1278307 0.21101955
000020 05 06 9b 3d 75 9f 03 3b 69 c6 90 3c 00 8b cf 3a
       0.075695075 0.0020084057 0.017672734 0.0015834272
000030 5e bd 0f bd d4 0e 0f 3e 8f 7f 5c 3d 0f 02 ab 3c
       -0.035092704 0.139705 0.053832587 0.020875005
000040 e4 12 37 bb 24 f3 19 bd e1 4a 9b bd 90 13 b4 bd
       -0.0027934844 -0.037585393 -0.075826414 -0.08792794

linears.3.weight f4 [20, 20]
000000 51 95 ee 3e 11 9b 6b 3e f8 e8 b1 bd 7e c7 0f 3e
       0.46598294 0.23008372 -0.086870134 0.14040944
000010 00 d3 2b 3e 0c e5 80 3b 3e 52 3d be 61 08 07 be
       0.16779709 0.0039335545 -0.18488404 -0.1318679
000020 27 1d b9 bd d9 fc 73 3e 3b 38 27 3e cd 85 43 be
       -0.090387635 0.23826922 0.16330044 -0.1909401
000030 97 da 2d 3e 27 ff 91 be 5e e2 dd 3d 99 5a 88 3c
       0.16977917 -0.28514978 0.10834192 0.016644763
000040 3e 66 12 bf 7d 31 65 3d 5e 65 86 be 8b f9 ac 3e
       -0.5718726 0.0559554 -0.26249212 0.33784136
000050 57 5a 1e be 98 5e 30 3e 39 70 b4 3c a0 ed bf 3d
       -0.1546415 0.17223585 0.022026168 0.09371495
000060 b1 e6 99 3d 64 04 4d be 33 f9 44 be 19 2d c4 3e
       0.07514704 -0.20021206 -0.19235687 0.38315657
000070 a4 e0 3e be dd 70 1c 3e 41 51 f4 3e d0 77 18 be
       -0.18640381 0.15277429 0.47718242 -0.14889455
000080 91 28 ee 3d a0 42 31 be 7d 11 0c be 7a d3 31 3e
       0.11628831 -0.17310572 -0.13678546 0.17365828
000090 05 91 00 be 9e 27 ce 3d b0 f7 ba bc 89 9b a6 be
       -0.1255532 0.1006615 -0.022823185 -0.3254054
0000a0 bd 88 26 3e d6 23 e2 bd 11 f1 45 3e df fb 8d 3e
       0.16263099 -0.110419914 0.19330241 0.27731225
0000b0 39 ed 95 3d 14 17 a1 3d 71 c6 e8 bc e4 9c bb 3d
       0.07320637 0.0786573 -0.028414937 0.09160784
0000c0 d2 55 11 3c 14 c9 5a 3d 0e 75 03 bf e8 3c ba be
       0.008870559 0.05341442 -0.51350486 -0.36374593
0000d0 df 2c 14 3e ec 6a 94 3e af aa ca 3e 81 c8 1d 3d
       0.14470242 0.28987825 0.39583346 0.038521294
0000e0 20 e0 32 3d d8 16 21 3d 15 a0 3f 3e fd 85 92 bd
       0.043670774 0.039328426 0.1871341 -0.071544625
0000f0 e7 8b 6b 3e 88 89 d7 bd 08 42 8d 3e df 64 3f 3d
       0.23002587 -0.10524279 0.2758944 0.046727058
000100 2f c5 0b bd 35 41 35 3e 04 ce 9d 3e a5 60 96 be
       -0.034123596 0.17700656 0.3082124 -0.2937061
000110 77 08 00 bc 55 0f 83 3d 92 c8 23 be ce 6d f1 3d
       -0.007814518 0.06399409 -0.1599448 0.11788522
000120 76 0f 03 bd 6f 22 91 be fb c1 2f bd 2a af ad 3d
       -0.031997167 -0.28346583 -0.042909604 0.084806755
000130 22 35 0d 3f 53 44 38 3c 3a 6f 36 be 16 79 fb bc
       0.551592 0.0112467585 -0.17815867 -0.030697387
000140 96 d9 46 be 93 c6 a8 bd e4 2a 6d 3c 59 49 04 bf
       -0.1941894 -0.08241 0.014475558 -0.5167442
000150 5b df 06 3e 0b 49 ae bd d4 c0 9a 3e b8 26 2c be
       0.13171141 -0.085100256 0.3022524 -0.16811645
000160 79 6d 33 bd 11 6a 0e be 37 72 a3 3d 34 32 8c be
       -0.043805573 -0.13907649 0.07980769 -0.27382052
000170 45 e8 86 3e 6b 97 b7 bd 84 8c 70 bc 4d 35 c6 bd
       0.26349083 -0.089644276 -0.014681939 -0.09678135
000180 80 db 3d 3f e7 4b 02 3f 2f c8 78 bc e7 0c d6 be
       0.74163055 0.5089707 -0.015184446 -0.4180672
000190 67 9d e1 bd e3 32 5a be 6c 6f c5 3e c0 21 49 be
       -0.1101635 -0.21308474 0.3856157 -0.19641781
0001a0 01 28 8f be 07 a0 51 be 3c f7 b4 3e 71 db 21 3e
       -0.27960208 -0.20471202 0.35344875 0.15806367
0001b0 1e 88 22 3f a1 ff 6f be 1a e1 64 bd 14 10 7d be
       0.6348895 -0.23437358 -0.055878736 -0.24713165
0001c0 6e f3 db 3d 52 5a 1d 3e 4d e7 d1 be 6d 0b 35 be
       0.1073979 0.15366486 -0.4099678 -0.1768014
0001d0 a2 6d d3 3d 7c 26 20 be 44 66 eb 3d c0 e3 f2 bd
       0.10323645 -0.1563968 0.11494115 -0.11859846
0001e0 27 a1 dd bd b0 5b 9b be b7 eb be 3d 35 8d 1a be
       -0.10821753 -0.3034339 0.09322303 -0.15092929
0001f0 e7 49 c7 3e 57 0c 9f 3e e3 2c 7a bd 20 35 4e bf
       0.3892357 0.31064102 -0.061077964 -0.8054981
000200 c8 56 a1 3d fa 8a c0 3b b5 c5 63 be 04 1a 48 3e
       0.0787788 0.0058759423 -0.22243388 0.19541174
000210 e7 f3 bc be 9e 42 ab 3d 49 81 91 be b5 c5 07 3f
       -0.36904833 0.083623156 -0.2841895 0.5303605
000220 9b fe a1 be 10 1e 67 bd 1a ea d1 3e 64 11 39 bb
       -0.3163956 -0.056425154 0.40998918 -0.0028239125
000230 88 85 21 bf 2c a2 2b bf 16 43 54 3e e4 d1 4f bf
       -0.6309438 -0.6704433 0.20728716 -0.8117964
000240 4c 28 82 be 96 54 9a bc 44 81 4e be 23 b4 77 3e
       -0.2542137 -0.018839162 -0.20166498 0.2418981
000250 aa d5 e0 bc ec 14 5f 3d 14 16 de be 9d c2 02 3d
       -0.027445633 0.054463312 -0.4337622 0.03192388
000260 0c d9 b1 3e de dc 0c 3e 69 5a d9 be d7 8a 36 be
       0.34735906 0.13756129 -0.4245179 -0.178264
000270 84 ed 21 3e c8 46 2e bd ac 60 98 3d 90 c7 3b 3e
       0.15813261 -0.04254797 0.07440314 0.18337846
000280 97 eb 7e be 68 5c 54 bd a4 45 f1 3c 10 3f 23 be
       -0.24894558 -0.051845938 0.029452153 -0.15942025
000290 da cf 43 be 0a 67 ea 3d 43 d0 06 bd 47 9a 13 3d
       -0.19122258 0.114454344 -0.032913458 0.036035802
0002a0 ea 4e 9a be 8b 9b b1 3d 42 4c 00 be 8b 55 6c 3e
       -0.30138332 0.086722456 -0.1252909 0.23079507
0002b0 21 41 a7 3d 64 b2 db 3e d9 aa 3c 3e d3 ac 9a 3d
       0.08166719 0.4290954 0.18424548 0.07552495
0002c0 09 51 2e 3d 9d 67 86 3e 89 ba c9 3e c2 2c 02 bf
       0.04255775 0.26250926 0.39400128 -0.50849545
0002d0 45 2d e2 3e 68 c5 05 bf eb 6f 0b be dd d2 b3 3e
       0.44175163 -0.52254343 -0.13616912 0.35121813
0002e0 76 7c b6 bc a5 a4 37 be 5c 3f 25 3e 0a e1 de 3e
       -0.022276144 -0.179339 0.16137451 0.43531066
0002f0 26 01 5e 3d 92 47 72 bd 0b ce 92 3e c0 d1 20 be
       0.054200314 -0.059150286 0.28672823 -0.15705013
000300 dd ef c4 3c 27 94 e7 bc 94 cc ce 3d 7f da 3c bd
       0.024040157 -0.028268887 0.10097614 -0.04610681
000310 25 2b 2a 3d 66 a7 a7 bd 08 a6 63 3c 7e 89 c5 3e
       0.041545052 -0.081862256 0.013894565 0.3858146
000320 90 82 7e 3e 06 1c a9 3e f0 5a a0 bd 7f 8d a4 bd
       0.24854493 0.33029193 -0.07829845 -0.08034801
000330 49 fc a6 3e f0 e1 08 be 6e 2b cc bd cb 4b 24 3e
       0.32614353 -0.13367438 -0.09969221 0.16044538
000340 6b bb 21 3e dd ab 90 bc 78 51 57 be fe 5a da 3d
       0.1579415 -0.017660076 -0.21027172 0.10661887
000350 2f 25 68 3d 52 29 25 3e bc ec 58 be 3f 4e 09 3e
       0.056676086 0.16129044 -0.21184057 0.13408755
000360 c9 85 28 be 18 e3 91 3e 90 91 f2 bd 81 27 ff be
       -0.16457285 0.2849357 -0.1184417 -0.49834827
000370 4b 0f 45 3d 14 e4 ed 3d e0 85 45 be 9a 38 3a bd
       0.048110288 0.11615768 -0.1928935 -0.045464136
000380 f4 ce cf 3d 19 fc bf 3e 25 be 8d be c1 a8 f9 bb
       0.10146895 0.37497023 -0.2768413 -0.007618994
000390 e7 96 db bd a0 7c 9c be 0b 91 69 bd c9 0f 77 be
       -0.10722142 -0.3056383 -0.05702309 -0.24127115
0003a0 2e e4 48 be fd 6b 84 3e ca 20 10 be 2e e3 8c 3e
       -0.19618294 0.2586364 -0.14075008 0.27517074
0003b0 1a 66 72 3c 06 b2 0b bf fd 00 a9 be e8 eb 66 be
       0.014794851 -0.5456852 -0.33008566 -0.22550929
0003c0 77 e2 b4 3c c8 f3 3d 3a 23 c5 ca bc 75 e9 e1 3b
       0.022080643 0.0007246104 -0.024752205 0.0068942853
0003d0 56 7f 27 3d ce ff a8 be 3d 0c 8f 3e 58 4f 96 3b
       0.04089292 -0.33007663 0.27939025 0.004587095
0003e0 a8 85 da bd 0a 2d 17 be a8 a5 92 3e 97 55 6b be
       -0.10670024 -0.14763275 0.2864201 -0.22981869
0003f0 22 ec 00 3e 22 4c 18 bf c0 ac 86 bb b6 a5 a8 bd
       0.12590078 -0.5949117 -0.004109949 -0.08234732

linears.3.bias f4 [20]
000000 2d 7b 26 be 67 21 8d 3d 8c 90 98 3d d6 12 08 bd
       -0.16257925 0.068911366 0.07449445 -0.03322109
000010 15 2c 9a bd 1c e4 5f bd ea 6a 7b bd 45 c0 e6 bd
       -0.07527939 -0.0546609 -0.061381258 -0.11267141
000020 43 c8 61 be 7a 43 bd 3d 79 7f ff 3d de 22 36 3c
       -0.2204905 0.09241386 0.12475485 0.011116711
000030 e8 75 93 bd 31 6c 89 bd c9 d2 43 3d 5c fc f8 3d
       -0.07200223 -0.06710089 0.047808442 0.12157509
000040 7a 92 8e bd 17 16 9e bb 45 03 41 bc 3d bd 95 bd
       -0.06961532 -0.0048244107 -0.011780565 -0.07311485

linears.4.weight f4 [20, 20]
000000 ae 23 07 bf ea e4 53 be 54 9e 87 be 07 1f cb 3d
       -0.5278882 -0.20692793 -0.26487982 0.09918027
000010 42 4d cd bc 02 36 da 3e f1 bd f8 bd 54 9b ca 3d
       -0.025061253 0.4261933 -0.121456034 0.09892908
000020 75 1b 97 3e aa 95 b7 be 8c 6f 53 3c 19 ee 7a 3d
       0.29513136 -0.35856372 0.012905013 0.061262224
000030 dc 10 b2 3d e9 55 14 be 4b 36 b3 bd ba e7 76 be
       0.08694622 -0.14485897 -0.0875059 -0.24111834
000040 60 83 a6 bd 42 36 fa 3d b5 74 c4 bd 99 9c 42 3e
       -0.081305265 0.1221738 -0.095925726 0.1900505
000050 2f 2f fb 3d 77 3e 44 3e 86 56 3e be e9 6e 3c be
       0.12264859 0.19164453 -0.18587694 -0.18401684
000060 b2 24 8f 3c 0b cf e1 3e 67 5f 39 be bb e3 e3 bc
       0.017473552 0.44103274 -0.181028 -0.027818551
000070 92 7e 9f be 05 c2 5f bd 05 22 f4 bd 4f 16 2f 3e
       -0.31151253 -0.05462839 -0.11920551 0.17098354
000080 a1 ce a1 3c b1 4e b8 3e 68 b5 a0 bd f9 53 57 be
       0.019751849 0.35997537 -0.078471005 -0.21028127
000090 23 c3 56 3e 90 5d 02 3a 34 c8 16 be 94 3a 13 be
       0.20972876 0.00049730483 -0.14724809 -0.14377815
0000a0 ce 46 5e 3d 8c 87 6b 3d 4b 4c e8 be 3f 65 f2 be
       0.054266743 0.057502314 -0.45370707 -0.4734287
0000b0 6b b0 ac bd 13 12 b6 3e 5a 3d 1c bf ed 48 9b 3e
       -0.084320866 0.35560665 -0.61031115 0.30329075
0000c0 26 85 42 be 53 20 85 be d2 fe d4 3d 1b 61 e3 be
       -0.18996105 -0.26001224 0.104001656 -0.44410023
0000d0 41 b9 f8 bc 16 13 0c be b1 e5 e2 bc d2 d9 38 be
       -0.030361773 -0.13679156 -0.027697416 -0.18051842
0000e0 12 b8 49 bc 3f 4d 9c 3e 32 19 30 3c ef 14 03 3e
       -0.012311952 0.30527684 0.0107481945 0.12800954
0000f0 d7 4b e1 be 68 77 53 3d e6 ff e8 3e 22 ab 80 3d
       -0.44003174 0.051627547 0.45507735 0.06282641
000100 56 f1 8d bd 84 6c 2a 3e dd f1 90 bd cb cd 49 3e
       -0.06930797 0.16642958 -0.07077382 0.1970741
000110 b5 77 7d 3e 15 5a 88 3e d4 5e 79 be 28 d0 d7 3d
       0.24752696 0.26631227 -0.2435258 0.105377495
000120 23 8a bb be 14 16 3f be 59 0c ce 3c e8 e6 af 3e
       -0.36628827 -0.18660766 0.025152372 0.34355855
000130 e7 17 c3 3d 5a 53 48 be ca c1 96 be 20 ac e6 3d
       0.095260434 -0.19563046 -0.29444724 0.11263299
000140 f0 7a a0 3e 50 dd 86 bd 6d 4f c6 3e 58 ae 5f be
       0.31343794 -0.06585181 0.38732472 -0.2184385
000150 d8 73 d3 3d c1 68 04 3c 38 21 64 be 2d 05 97 be
       0.1032483 0.008081616 -0.22278297 -0.29496136
000160 22 99 54 be 1a 40 ba 3d 14 69 83 bd 17 fe 3e 3e
       -0.2076154 0.09094258 -0.064165264 0.18651615
000170 f2 90 81 3e b4 71 47 3d 90 0d 76 bd 57 6e 4d 3e
       0.25305897 0.04869242 -0.060071528 0.20061623
000180 37 08 ac be a9 54 b8 bd cf cc 44 be 96 ee 0e 3d
       -0.33600017 -0.09000523 -0.19218753 0.034895502
000190 67 1b a1 be 5c 0a d6 bd b5 a2 ff bc 76 97 09 be
       -0.3146622 -0.10451195 -0.031205514 -0.13436684
0001a0 86 65 5c 3d c2 cf 83 bd a7 d5 85 3d b0 8c 0e 3e
       0.053807758 -0.06436111 0.065348916 0.13920856
0001b0 7f 0f f6 3e a5 8d 2a 3e 50 4d 08 3e 63 2a 0c be
       0.48058698 0.16655596 0.13310742 -0.13688044
0001c0 89 79 7d be 27 da 03 be 46 d1 ec be b9 bd 8e 3e
       -0.24753393 -0.12876187 -0.46253413 0.27879122
0001d0 73 d9 5a 3e f2 e7 8c 3e 6b 2e 84 3d 15 ee 8c be
       0.21372013 0.2752071 0.06454166 -0.27525392
0001e0 24 42 d7 3e 06 0e 21 be 40 e0 68 be e7 66 de 3e
       0.4204265 -0.15728006 -0.22741795 0.43437883
0001f0 6b 4c da 3d e8 0f 8e bd a3 87 18 3e f1 f4 f0 be
       0.10659107 -0.069366276 0.14895491 -0.47061875
000200 c0 87 6f 3d a9 09 73 be 39 6f 37 be 16 f5 13 be
       0.05847907 -0.23734154 -0.17913522 -0.14448962
000210 9e ed 27 3e bf 61 6c 3e fa 45 ad 3b 0d ef 8e be
       0.16399238 0.23084162 0.005287883 -0.27916756
000220 4f 2d 98 be d7 c1 af 3e 34 6f c4 bc 29 6b 1b 3e
       -0.29722068 0.34327576 -0.023978807 0.15177597
000230 61 2b fd bd 4f c7 9c bd 11 f1 a9 3e 6c b3 af 3d
       -0.123617895 -0.076552026 0.33191732 0.08579144
000240 d3 29 2f bd 26 32 f6 3d a9 2c 5e 3e 96 34 85 3e
       -0.042764496 0.12021284 0.21696724 0.26016682
000250 50 8f 1b 3f b9 74 06 be 01 62 87 bd 86 2a bc be
       0.6076555 -0.13130464 -0.0661049 -0.36751193
000260 80 33 b5 3e 29 e5 35 bd c9 f1 b5 be 16 ab 14 3d
       0.35390854 -0.044407997 -0.3553603 0.036295973
000270 b6 ad 2b 3e cc d7 42 3c 49 a0 3b 3e 96 88 af be
       0.16765484 0.01189227 0.18322863 -0.34283894
000280 44 56 1b be 9e 0f 45 be 6d d0 3f be d5 e5 e6 bd
       -0.15169626 -0.19244239 -0.18731852 -0.11274306
000290 ce 05 80 3b f5 e4 c8 3e df fc 91 3d f3 5c 9c 3e
       0.003906942 0.3923718 0.071283095 0.30539665
0002a0 78 fb 1c bc 79 39 94 be 52 dc 2c 3e f0 00 5e 3d
       -0.009581439 -0.28950098 0.1688092 0.054200113
0002b0 da 51 f9 3c d4 38 25 3e 3d fb 4e be 4a 75 f5 3e
       0.030434538 0.1613496 -0.20213027 0.47941047
0002c0 ef 68 f0 ba 8a cb 7f 3d 45 b7 cf 3e 1e ee f4 3e
       -0.001834182 0.06244997 0.4056951 0.4783792
0002d0 68 d8 e0 3d d7 ce b5 3e 63 b4 95 3e 5c be f3 3c
       0.10978776 0.3550937 0.29239187 0.029753856
0002e0 d9 7c b7 be d6 9f 27 be aa 83 23 be bd e3 1b 3e
       -0.3583744 -0.16369566 -0.15968195 0.15223594
0002f0 d4 a2 a8 bb f7 93 ab be 6a c4 9e 3c 7f e0 04 be
       -0.0051463638 -0.33511326 0.019380767 -0.12976263
000300 b7 44 cc 3d 1f da 73 3c 1f b7 01 bf ba 85 2d bb
       0.09974044 0.014883547 -0.50670046 -0.0026477412
000310 be 1e ba 3d 63 f6 a5 be f1 33 c2 3e df b8 cb be
       0.09087895 -0.3241454 0.37930253 -0.39789483
000320 d1 4b fd bd 85 86 e7 3e c5 05 9c 3e c4 63 3d 3e
       -0.123679765 0.45219818 0.30473152 0.18495089
000330 eb be 66 be a3 28 9f be 92 37 a3 3e 53 1c 54 3e
       -0.22533767 -0.3108569 0.31878334 0.2071393
000340 0e 8a b1 3d a5 10 44 bd da 60 01 3f 87 7d b0 3c
       0.0866891 -0.047867436 0.5053841 0.021544231
000350 7c 02 3f 3e e7 90 53 3e 5e cd 2b bd 18 c1 83 3e
       0.18653291 0.20660745 -0.0419439 0.25733256
000360 22 53 cb bc 38 7b ec 3c 48 80 90 be ea 98 36 be
       -0.024819914 0.028867349 -0.2822287 -0.1783177
000370 ea 4a 4f be 95 64 ed 3d 66 a1 34 3e 0a d0 68 3d
       -0.20243421 0.1159145 0.17639694 0.056839027
000380 04 cc a4 be 03 20 72 be 2a a7 89 bc af 95 4d bf
       -0.32186902 -0.23645024 -0.016803343 -0.80306524
000390 d7 d3 c5 be 75 55 f2 3d bf 4b f5 bc 7d 4c 9a 3d
       -0.38638183 0.11832706 -0.029943345 0.0753412
0003a0 cd 20 32 3c 6a 07 27 be bc 7b cb 3e af 2a 62 3d
       0.010872078 -0.16311422 0.3974284 0.055216487
0003b0 c5 ac 04 bf 2e f2 c9 3d 0b 35 3a be bd 69 e7 be
       -0.51826125 0.09860645 -0.18184297 -0.4519786
0003c0 fb 97 4d 3d 04 c8 f7 bd 1b c1 5d be 8b b3 3c be
       0.050193768 -0.12098697 -0.21655695 -0.18427865
0003d0 55 0b 2d 3e c2 40 0d 3f 02 56 84 bc e3 75 91 3a
       0.16898854 0.5517694 -0.016154293 0.0011097755
0003e0 8c bc f2 3d 9e ca 0f be 8a bd f8 bd 6f 0a 6e 3e
       0.11852369 -0.14042136 -0.12145527 0.23246168
0003f0 70 96 85 bd 9a 24 81 3e fa 56 c6 bc 51 4f 0a 3e
       -0.06522834 0.25223237 -0.024211396 0.1350682

linears.4.bias f4 [20]
000000 f5 ac cf bc 1f c1 9d 3c 06 e4 b4 3c 10 9c 16 bd
       -0.025351027 0.019257126 0.022081386 -0.036769927
000010 7f 18 0b bd ab a4 fc 3b 4a f9 da bd e6 ee 4b bd
       -0.03395891 0.0077100596 -0.10692079 -0.04978838
000020 ce 31 08 bd 5f 9a b1 bc 8b c6 43 bc fc 9a 64 3e
       -0.033250622 -0.021680055 -0.011949192 0.22324747
000030 e2 63 0d 3c c7 a2 45 bc 4c 25 f4 3c e4 a4 58 bd
       0.008629771 -0.012062735 0.02980294 -0.052891627
000040 a0 3b 67 bc c2 26 5a 3c 81 10 51 bd 05 06 60 bd
       -0.014113337 0.013314905 -0.05104113 -0.05469324

linears.5.weight f4 [1, 20]
000000 c2 75 04 3e 82 d4 98 bd 64 2a fe 3d fd c6 00 3f
       0.12935546 -0.07462408 0.12410429 0.5030363
000010 11 8e c0 be 67 13 1b 3f a3 00 13 bf 72 60 0c 3f
       -0.37608388 0.6057648 -0.57422847 0.54834664
000020 fc cd da 3e 80 a3 48 3e 21 d6 96 3e 08 38 61 bf
       0.4273528 0.1959362 0.29460242 -0.8797612
000030 58 a8 05 3d a5 e9 85 be 6a ee 54 3e c2 c7 f0 3e
       0.03263125 -0.2615482 0.20794073 0.47027403
000040 10 05 82 3e 92 b9 b0 bc a2 3c 4b 3e 8b 14 5e 3f
       0.25394487 -0.021572862 0.19847348 0.86750096

H1.weight f4 [20, 2]
000000 a4 f8 02 bd 79 7e 49 bd 74 8a 66 3e a0 a4 89 3e
       -0.031975403 -0.04919288 0.22513753 0.2688341
000010 2e df a7 be 14 36 2d 3f df cc 00 bf 84 53 06 bf
       -0.3278746 0.6766064 -0.5031261 -0.52471185
000020 b3 8a 7a be d8 a2 f9 3d ce 6d dd bc be b9 c2 3d
       -0.24466972 0.12189263 -0.027029898 0.09508084
000030 bd f7 8d 3e 36 d7 b9 bd d3 34 73 be 30 f2 0c 3e
       0.27728072 -0.09074251 -0.2375062 0.13764262
000040 87 33 13 3c 63 3f ad be c2 5b 0f bf 4e e5 e4 3e
       0.008984453 -0.33837423 -0.55999386 0.44706196
000050 5c 9c 04 3f d5 ad af be 7a 56 94 3e d3 1d 95 3e
       0.51801085 -0.3431231 0.28972226 0.29124317
000060 f0 25 3e 3e e2 d1 0f be 1e 5c 1e 3f 6c 40 6b be
       0.1856916 -0.14044908 0.6185931 -0.22973794
000070 91 ef d2 3e 59 b6 9d be 5f 72 f5 3e 20 6f 13 bf
       0.411984 -0.30803183 0.4793882 -0.5759144
000080 70 f1 5d 3e df c5 01 be 3c f8 89 3e cb 0a 25 3f
       0.21674132 -0.12673138 0.269472 0.64469594
000090 a8 6a 8d 3a 16 3e dc bd 8d c0 77 be 2e 2a 3d 3c
       0.0010789232 -0.107540295 -0.24194546 0.011545701

H1.bias f4 [20]
000000 b7 13 07 3e 54 84 61 be b7 f8 81 bd 72 03 c4 3e
       0.13191114 -0.22023135 -0.06346267 0.3828388
000010 3f 24 40 be 06 11 41 3e 2c e5 1d 3e a6 88 99 be
       -0.18763827 0.1885415 0.15419453 -0.29987067
000020 f9 fb 87 3e 36 f0 ad be 1c f6 3b 3f 16 d9 8f be
       0.26559427 -0.3397233 0.7342241 -0.2809531
000030 31 68 63 3e 9f 46 4b 3e 48 d2 f5 3e f1 fc d3 3e
       0.22207715 0.19851159 0.48011994 0.41403916
000040 22 d5 bd 3d 31 37 5f 3e 25 9a 1c be ec a1 fb bd
       0.092691675 0.21798398 -0.15293176 -0.122867435

d f4 [1761]
000000 b7 79 54 b8 b5 34 23 b8 bb b9 91 3a f0 84 01 3a
       -5.0658095e-05 -3.8911316e-05 0.0011117974 0.00049407687
000010 32 44 8b ba cd f8 1b ba a7 8c 27 3a 60 4d 0b b8
       -0.0010625182 -0.0005949855 0.0006391503 -3.3212244e-05
000020 21 97 38 39 09 5f c1 39 a5 1e ce 39 55 73 50 39
       0.00017603907 0.00036882635 0.00039314214 0.0001987939
000030 07 39 fb b9 28 10 9a 38 86 38 77 39 a1 a5 05 3a
       -0.0004791694 7.3463016e-05 0.00023576812 0.0005098228
000040 cf c5 d1 b8 4a 85 39 b9 17 04 43 39 9d da 14 39
       -0.00010002741 -0.00017692629 0.00018598173 0.0001419582
000050 5b 82 68 b9 4b ed 8c 39 f1 88 2a 38 70 5a 7a 39
       -0.00022173805 0.00026879678 4.0658695e-05 0.00023875549
000060 5d d4 9c b9 47 de c2 38 9b 66 03 ba 84 48 50 39
       -0.00029912862 9.292043e-05 -0.0005012543 0.0001986344
000070 b9 a0 0b ba 10 24 53 ba b4 a5 59 39 25 81 bf 38
       -0.0005326379 -0.0008054385 0.00020756462 9.131645e-05
000080 5f fb 90 b9 95 f6 4a b9 5f a3 26 ba 6a 96 21 ba
       -0.00027653106 -0.0001935608 -0.00063567417 -0.0006164076
000090 61 b5 77 ba bf 0d a3 b8 37 31 1a 39 1a db 59 b9
       -0.000944933 -7.775006e-05 0.00014704918 -0.00020776354
0000a0 72 a0 c6 b8 89 8a 5c b9 6f 82 5d 39 72 70 cf b8
       -9.471261e-05 -0.00021032443 0.00021124793 -9.891474e-05
0000b0 3a 0e 6d 38 6b ac f5 b8 58 6d 24 39 83 3a d7 39
       5.6518453e-05 -0.00011714626 0.00015680993 0.0004105159
0000c0 6d d5 ba b5 de a5 99 39 00 35 c4 39 d6 72 60 b9
       -1.3920195e-06 0.00029306015 0.0003742352 -0.00021405084
0000d0 58 f9 48 38 9d 46 88 37 4e f1 57 b9 a7 96 be b9
       4.7915935e-05 1.6245345e-05 -0.00020593891 -0.0003635187
0000e0 93 ec d7 b8 89 9a 49 3a 4a 4e 57 39 c8 32 2c b9
       -0.00010296064 0.0007690569 0.00020533163 -0.00016422116
0000f0 27 97 83 37 0d 35 f0 b8 aa 97 09 b9 4a 1f 56 39
       1.5686803e-05 -0.00011453973 -0.00013121837 0.00020420286
000100 11 0b 4f 38 fe 90 cb b8 8d 13 e9 b6 6b 62 d0 38
       4.9362952e-05 -9.706801e-05 -6.946217e-06 9.936545e-05
000110 a9 9d 3b 39 41 7c 25 b8 94 08 17 b8 e4 01 08 b9
       0.00017892443 -3.9454786e-05 -3.6009194e-05 -0.00012970675
000120 88 0f a0 37 0b 1e c7 38 49 f6 39 b7 ee 57 02 39
       1.9080719e-05 9.4946554e-05 -1.1084202e-05 0.00012430522
000130 1e c4 1e b7 0f 1b aa b9 35 4d 40 38 97 fe 9f b8
       -9.463196e-06 -0.00032445087 4.5848272e-05 -7.629132e-05
000140 ac 6b e0 36 95 b2 fe 37 db 65 cb b8 0f 4e 4e 39
       6.688255e-06 3.0362318e-05 -9.6987664e-05 0.0001967477
000150 b4 40 b8 b8 fd c4 92 b6 94 39 5b 38 63 b7 c6 b8
       -8.7858556e-05 -4.3740715e-06 5.2267293e-05 -9.475534e-05
000160 49 b1 24 b8 46 82 0d b9 ce 21 12 39 2f f1 51 b8
       -3.9265757e-05 -0.00013495338 0.00013936238 -5.0054103e-05
000170 e3 d4 4a 38 e8 f1 3b b7 b0 6a dc 38 fa b2 f1 37
       4.835882e-05 -1.1202392e-05 0.000105102896 2.8812781e-05
000180 ef cc 92 38 87 a0 13 b8 bf 58 21 38 a5 c5 35 38
       6.9999944e-05 -3.5197034e-05 3.8468042e-05 4.3337834e-05
000190 01 78 b5 36 05 f4 da 38 76 f8 b4 b9 09 d1 a2 b9
       5.4081906e-06 0.00010440502 -0.00034517393 -0.0003105479
0001a0 a5 94 d7 b8 29 68 a7 38 c7 4e 92 38 a2 70 8f b8
       -0.00010279686 7.982582e-05 6.976496e-05 -6.839751e-05
0001b0 b2 d2 ce b8 da 32 2a b9 ff a6 6d 39 eb a8 4d 39
       -9.8620905e-05 -0.00016231407 0.00022664292 0.0001961325
0001c0 04 d4 77 37 64 f5 82 39 cf d4 38 39 34 10 ba 39
       1.4771711e-05 0.00024978362 0.00017626885 0.00035488757
0001d0 73 66 b1 38 d7 2e 20 39 34 9c 48 b8 e3 ae ce b8
       8.4591e-05 0.00015276238 -4.782919e-05 -9.855421e-05
0001e0 4a aa 23 38 a2 58 b3 b8 30 df 10 37 20 d9 8f b7
       3.9020822e-05 -8.551894e-05 8.635034e-06 -1.7148035e-05
0001f0 50 7e 26 38 52 8e b3 b8 b7 c8 c2 37 c1 f0 52 38
       3.969512e-05 -8.561894e-05 2.3220067e-05 5.029212e-05
000200 ce 75 fd 38 4d f6 23 b6 a3 a8 ec 36 a7 df 3f b8
       0.00012085923 -2.4432259e-06 7.05298e-06 -4.574624e-05
000210 22 4a 84 36 a2 df 32 b6 85 56 d5 b7 01 1f 3d 38
       3.9425368e-06 -2.6654238e-06 -2.5431867e-05 4.5089986e-05
000220 41 3c 03 b8 31 6c 7b 35 b6 45 da 37 df 9c 1c b8
       -3.128895e-05 9.3662226e-07 2.6020087e-05 -3.7339396e-05
000230 37 ae e1 b6 74 94 81 36 cc ea a5 36 f4 cd b0 b7
       -6.725804e-06 3.861782e-06 4.944717e-06 -2.107674e-05
000240 3e a0 b2 38 46 52 ee 36 fd 01 52 b8 ed 67 f4 38
       8.517549e-05 7.1025306e-06 -5.0069753e-05 0.00011654184
000250 3d ae 7f 37 aa 89 42 39 5e a2 f8 b8 ec a8 a3 37
       1.5239752e-05 0.00018552566 -0.00011855805 1.9509775e-05
000260 00 8d b8 b8 5f 3e ea 37 7e 91 0d b9 a9 71 81 b8
       -8.800067e-05 2.7924018e-05 -0.00013501008 -6.17237e-05
000270 48 5b 73 b8 c4 fb 2d b9 b3 89 8d b7 5f e4 c3 b7
       -5.8020727e-05 -0.00016592356 -1.6872631e-05 -2.3352155e-05
000280 e5 b2 92 b8 e0 13 0f 39 ee a8 ef 38 71 37 f7 b8
       -6.995144e-05 0.00013644947 0.00011427874 -0.000117882046
000290 f3 92 d2 36 19 54 3c b7 e9 02 f4 37 d3 3f 55 b8
       6.275595e-06 -1.1225254e-05 2.9088422e-05 -5.08426e-05
0002a0 8f 2f ce b8 f7 7e b4 b8 74 db 15 b8 c2 54 90 38
       -9.831704e-05 -8.606718e-05 -3.572875e-05 6.8822425e-05
0002b0 e1 83 87 38 28 fd ea b7 ce 49 4a b4 2f ed ad b8
       6.461866e-05 -2.8012859e-05 -1.8839566e-07 -8.293462e-05
0002c0 9a 8f 03 35 de c9 4c 39 1e 43 8a b7 4f 37 00 b8
       4.901027e-07 0.00019530157 -1.6482136e-05 -3.056909e-05
0002d0 e0 09 cb b7 22 34 05 38 89 f6 43 38 14 27 ce 38
       -2.4204084e-05 3.1758223e-05 4.6721227e-05 9.830124e-05
0002e0 16 00 a6 38 af 8a 70 b8 ef 9e 76 b8 f7 09 02 39
       7.915513e-05 -5.7349618e-05 -5.879899e-05 0.00012401478
0002f0 55 b4 59 b7 3c 3f 47 39 4e 2d 4d b9 64 5d 53 b8
       -1.2976195e-05 0.00019001676 -0.00019567201 -5.0393297e-05
000300 d1 6a 31 b9 38 26 00 b9 4c 7a 4a b9 17 da 56 b9
       -0.00016919828 -0.00012221269 -0.0001930978 -0.00020489875
000310 4d 8a bb b8 a6 60 78 b9 38 46 da b6 dc 28 8b 38
       -8.9426154e-05 -0.00023687127 -6.505081e-06 6.635647e-05
000320 c0 8c 59 b7 a9 b6 1d 39 09 79 be b9 f6 cd f6 38
       -1.2966979e-05 0.00015040733 -0.00036329802 0.00011768557
000330 18 ce 98 b9 2a 82 a2 37 ae 8d 3f 39 99 5e 9d b9
       -0.0002914525 1.9372517e-05 0.00018267959 -0.00030015854
000340 ca 57 39 b9 2b 7d d2 b9 5c 6d ac 39 92 9f bf 38
       -0.00017675679 -0.0004014758 0.00032887876 9.137312e-05
000350 89 ca 65 39 05 4b 64 39 c6 ee b9 39 62 06 53 39
       0.00021914592 0.00021771721 0.0003546385 0.00020124906
000360 65 fe a4 39 7a b1 80 38 e8 df 0b 39 6a 3e dc 37
       0.00031470056 6.136573e-05 0.00013339485 2.6255108e-05
000370 57 af 64 b7 96 14 17 37 a4 0d 04 39 53 f1 ca b8
       -1.36306835e-05 9.005094e-06 0.00012593583 -9.677061e-05
000380 80 32 e8 38 39 fe a7 b7 d0 ad df b7 d3 9a 0d 38
       0.000110720284 -2.0026333e-05 -2.666461e-05 3.376121e-05
000390 3f bb 0d b8 19 17 86 38 8b 2d 73 b8 2b 7f 9a 37
       -3.3791406e-05 6.39392e-05 -5.797813e-05 1.8417448e-05
0003a0 7d a9 23 37 89 ac 10 b9 2a a6 7d b8 41 49 75 b8
       9.755019e-06 -0.00013797185 -6.0474653e-05 -5.8480775e-05
0003b0 bc 6d 95 b8 6f 17 9d 38 c3 a4 14 b8 a4 dd e7 b6
       -7.125313e-05 7.490708e-05 -3.5439396e-05 -6.910139e-06
0003c0 17 97 34 37 44 ed 40 38 d9 33 fb 38 8c d9 be b8
       1.0764014e-05 4.5997338e-05 0.0001197827 -9.100427e-05
0003d0 0c 9d 96 b8 f6 31 78 38 41 1c c6 b6 e2 39 96 b8
       -7.1818096e-05 5.9174337e-05 -5.904149e-06 -7.163339e-05
0003e0 60 fa 26 b9 54 7a 06 39 c8 a6 f8 b7 ad 10 ff 37
       -0.00015924266 0.00012824807 -2.9641567e-05 3.0406134e-05
0003f0 94 85 93 b8 a7 0d a4 b8 07 bc 4f b8 b6 d7 46 b9
       -7.034387e-05 -7.822672e-05 -4.952776e-05 -0.0001896311

old_dirs f4 [1761]
000000 4c f7 86 b9 58 6a 31 bb 80 fc ce b8 cc 23 20 bb
       -0.00025742722 -0.0027071442 -9.869877e-05 -0.00244354
000010 38 f0 c3 39 00 24 6b 3a bc dd bb 3a 50 1c 9b ba
       0.00037372275 0.0008969903 0.001433305 -0.0011833999
000020 88 a1 94 ba 94 09 50 bb 40 10 e5 39 64 c8 41 ba
       -0.0011339644 -0.003174399 0.0004369039 -0.0007392226
000030 e0 9f 52 39 4c 5b c5 3a 72 dd 23 bb 40 f9 20 bc
       0.00020086719 0.0015057116 -0.0025003818 -0.009825051
000040 b0 c8 7e 3a 28 8f 21 3b 0c 6a 9c b9 e8 d2 81 b9
       0.0009719236 0.0024651978 -0.0002983365 -0.00024761935
000050 a4 7d 5b bb d8 6c 76 bc 80 76 33 b9 d0 f5 27 ba
       -0.0033491636 -0.015040599 -0.00017114915 -0.00064071734
000060 b8 c0 69 b9 98 6b 01 bb 5c f7 03 3b fc 20 60 3c
       -0.00022292405 -0.0019747969 0.0020136451 0.013679739
000070 30 76 ba b9 2c d6 c4 bb 28 5a ec 39 80 cf 2c b9
       -0.0003556474 -0.0060069766 0.000450806 -0.00016480498
000080 0c 83 b1 39 d0 bb 7a 3a e8 7d ce 3a 00 82 3f 38
       0.00033857708 0.00095647294 0.0015754076 4.565902e-05
000090 34 e9 22 ba 40 10 3c bb 7c 4f 16 bb a4 54 0c bc
       -0.00062145595 -0.002869621 -0.002293556 -0.008565102
0000a0 48 4d e1 b9 e0 f4 98 b8 b8 f8 e1 39 e0 83 d6 b9
       -0.00042972923 -7.293536e-05 0.00043100654 -0.00040915515
0000b0 ee e4 37 ba f0 f1 fe b8 78 81 ea 39 98 43 d5 ba
       -0.0007015009 -0.00012156728 0.0004472842 -0.0016270755
0000c0 e0 85 6f b9 40 93 ae 37 40 b1 32 bb a0 62 fd b8
       -0.00022842688 2.0810985e-05 -0.0027266294 -0.000120823504
0000d0 60 c1 ce b8 92 12 37 3b 3f 07 8f ba 90 a4 a7 b9
       -9.858864e-05 0.0027934653 -0.0010912194 -0.0003197533
0000e0 34 e5 de 38 c0 36 6b ba c0 3b c7 b9 f8 de de ba
       0.00010628477 -0.0008972697 -0.00038000755 -0.0017003706
0000f0 84 e6 4d 39 30 0f 27 ba aa 3a 6f ba e4 1a 25 3a
       0.00019636197 -0.00063728075 -0.0009125868 0.00062982575
000100 bc 49 b4 b9 48 74 f4 b9 90 a4 62 39 ce b5 a4 b9
       -0.00034387212 -0.00046625943 0.00021614344 -0.00031415973
000110 60 49 53 3a 22 4d 88 ba c4 19 3f 3a 04 2c 23 ba
       0.0008059945 -0.0010398964 0.0007289911 -0.00062245154
000120 40 1c eb 39 ce 5f 18 3a 34 08 53 3a 2f 48 8a 3a
       0.0004484374 0.0005812616 0.00080502336 0.0010550077
000130 88 c4 f6 39 23 a4 42 ba 30 58 08 3a 46 4f 95 38
       0.00047067204 -0.0007424971 0.0005201129 7.1196395e-05
000140 c0 d2 d6 b8 0c c6 9f 39 fa 42 02 3a e0 90 81 b9
       -0.000102435704 0.000304744 0.0004969087 -0.00024712738
000150 44 a6 7b 39 d0 a9 73 39 90 34 3b b9 d0 e7 70 39
       0.00023999164 0.00023237546 -0.00017853291 0.0002297454
000160 bc 20 e1 b9 90 a2 28 3a 40 a5 f7 b9 2c 02 9a 39
       -0.00042939733 0.0006432915 -0.00047234632 0.00029374787
000170 7c 2f 96 b9 50 82 df b9 f2 7d 04 ba 8c 4a 25 ba
       -0.00028645608 -0.00042630965 -0.00050541677 -0.0006305359
000180 e0 b0 9a b9 20 76 a6 39 54 24 87 b9 58 1d 9d 37
       -0.0002950495 0.00031749997 -0.00025776273 1.8729523e-05
000190 40 4f 4d 39 90 f7 62 ba 10 ed b6 b9 d8 18 85 3a
       0.00019579846 -0.00086581055 -0.0003489037 0.0010154499
0001a0 72 2c c3 38 1c ea 90 b9 28 4e 66 b9 b0 a4 a8 38
       9.306603e-05 -0.00027640245 -0.00021963625 8.04154e-05
0001b0 90 7a 30 3a a0 91 d2 b8 00 2c 44 b9 e8 24 73 ba
       0.00067321304 -0.00010040705 -0.00018708408 -0.0009275214
0001c0 48 f0 8f 38 a0 0e dc b9 20 3e 06 38 b8 8f 8a 39
       6.863527e-05 -0.00041972566 3.2005948e-05 0.0002642849
0001d0 60 6d 9b 37 60 15 60 ba b0 e9 b6 39 f8 ff b0 39
       1.8528372e-05 -0.0008548107 0.00034887856 0.00033760048
0001e0 1c d1 5b 39 24 33 28 ba 66 ea 0d ba 68 aa 28 3a
       0.00020963367 -0.0006416312 -0.0005413651 0.0006434084
0001f0 fe b3 4c b9 00 2c 9f b9 2e 18 96 38 e2 f8 53 b9
       -0.00019522008 -0.00030359626 7.157061e-05 -0.00020215244
000200 94 01 36 3a 16 3d 2c ba 88 26 f5 39 d8 4a 2a ba
       0.0006942984 -0.0006570382 0.0004675875 -0.0006496138
000210 dc f6 a3 39 f4 4a 74 39 c8 97 0f 3a 1c ec 37 3a
       0.00031273707 0.00023297576 0.0005477634 0.0007016079
000220 20 a8 93 39 22 1a 26 ba b8 ae bd 39 84 d2 0f 39
       0.00028163288 -0.00063362916 0.00036179065 0.00013715966
000230 20 52 8f 39 66 84 69 ba f2 06 86 ba f4 9f 71 3a
       0.00027336273 -0.00089079735 -0.0010225459 0.0009217255
000240 5a 99 99 b9 24 b8 11 ba e0 34 f2 38 5f 5d 88 b9
       -0.0002929669 -0.000555875 0.00011549308 -0.00026009508
000250 0b b7 83 3a d2 fe 8c ba 0d d8 29 3a ac 88 68 ba
       0.0010049058 -0.0010757095 0.00064790325 -0.00088704634
000260 e8 5a ec 39 cc a7 e2 39 2a a5 52 3a db 42 94 3a
       0.00045081158 0.00043231098 0.00080354756 0.0011311428
000270 70 3b f2 39 92 a8 85 ba 44 11 26 3a d0 2f 63 39
       0.0004620212 -0.0010197333 0.000633497 0.00021666219
000280 e4 04 6b b9 52 2a 4f 3a e0 f3 48 3a 00 d8 5f ba
       -0.00022413168 0.00079027296 0.0007665735 -0.00085389614
000290 80 04 2f 39 f4 de 00 3a 20 58 86 b7 58 7b 0a 39
       0.00016690977 0.0004916035 -1.6015081e-05 0.00013206655
0002a0 3e 69 56 ba 38 33 33 3a d6 5a bf b9 05 74 4f 3a
       -0.00081791345 0.00068359403 -0.00036498037 0.00079137116
0002b0 c2 d6 a1 b9 58 dd 3a b9 14 8e 06 ba e4 67 43 ba
       -0.0003086832 -0.00017820799 -0.00051328656 -0.00074541406
0002c0 ca 67 a9 b9 ef 22 7a 3a 46 aa 12 ba 13 4f 81 b9
       -0.0003231152 0.00095419487 -0.0005594831 -0.00024663712
0002d0 6c a1 55 b8 c0 da a8 38 70 61 0f 39 60 96 24 38
       -5.0933493e-05 8.0516096e-05 0.00013673841 3.9240695e-05
0002e0 fe f8 1f 39 c0 6f 3d 38 dc 7f 08 b9 62 66 2f 39
       0.00015256178 4.5165187e-05 -0.00013017602 0.00016727441
0002f0 98 5b 38 b9 90 1d ac 39 14 c7 aa b9 d0 df 90 38
       -0.00017581729 0.00032828422 -0.00032573252 6.9081434e-05
000300 26 2b 30 b9 70 09 87 b9 36 89 9f b9 bc 2f a0 b9
       -0.00016800742 -0.00025756238 -0.00030429073 -0.00030553143
000310 f8 5b 1d b9 c0 56 e6 37 e0 66 64 b8 c1 59 89 38
       -0.00015006948 2.7458533e-05 -5.4455246e-05 6.549387e-05
000320 7e a2 ca b9 f2 95 b0 3a 36 4c a0 3a d8 d2 bc ba
       -0.00038649508 0.0013472422 0.0012229744 -0.0014406098
000330 dc 43 d6 39 aa 77 46 3a 12 18 30 b9 8c 6a c5 39
       0.0004086782 0.0007570932 -0.00016793635 0.00037654152
000340 70 1d c0 ba fe 5b b1 3a 82 56 5b ba 34 23 b1 3a
       -0.001465721 0.0013531444 -0.00083670777 0.001351452
000350 ac 0c 26 ba d0 41 12 ba 96 a4 8b ba 8a bc ba ba
       -0.0006334286 -0.0005579265 -0.0010653909 -0.0014246863
000360 a4 5c 25 ba a0 6e c4 3a 6e 55 64 ba 4c 2a 95 b9
       -0.0006308055 0.0014986582 -0.000871024 -0.00028451008
000370 28 b2 50 38 d8 77 ed b8 00 49 39 b8 40 24 09 38
       4.9756985e-05 -0.00011323363 -4.4175424e-05 3.2697106e-05
000380 c0 7d e7 b6 48 61 13 b8 20 ea ae b7 40 65 36 b7
       -6.8989757e-06 -3.513813e-05 -2.085144e-05 -1.0871619e-05
000390 d8 d0 d8 38 c0 f2 e0 b8 40 30 d4 37 18 0c f4 b8
       0.00010338583 -0.00010726368 2.5294838e-05 -0.00011637079
0003a0 00 e5 0d 38 00 7c b6 b7 f0 f2 88 38 a0 96 e8 38
       3.3830293e-05 -2.1753833e-05 6.530236e-05 0.00011090678
0003b0 c0 96 bb 37 00 29 c2 b7 40 6c 44 38 80 77 5e 38
       2.2362336e-05 -2.3145694e-05 4.6830857e-05 5.3040218e-05
0003c0 ec 34 4d b9 4c d4 1f 3a c2 54 3d 3a f4 bc 14 ba
       -0.00019570038 0.00060970034 0.0007222408 -0.0005673908
0003d0 96 ea 8e 39 64 c4 c0 39 17 7b 1f b9 f2 45 8a 39
       0.0002725913 0.00036767416 -0.00015209276 0.00026373524
0003e0 40 04 3e ba fa bc 62 3a fe ab 1c ba 7c 34 1f 3a
       -0.0007248558 0.00086493755 -0.00059765566 0.00060731894
0003f0 30 bb c6 b9 29 f6 d6 b9 88 7d 31 ba 74 b8 6a ba
       -0.00037904968 -0.00041000664 -0.000677072 -0.0008953877
