Closed-form-Derivative/Closed_form_derivative/helm_forward_best.pt (torch, 117807 bytes, 35 tensors)

linears.0.weight f4 [20, 2]
000000 a6 88 6f 3c d0 96 2f bc 7c 94 f3 3d 92 b1 bd 3d
       0.014619982 -0.010717109 0.118935555 0.092623845
000010 dc 0c 69 be 94 2c 1b 3f 94 a4 62 bf a6 67 5e bf
       -0.22758812 0.60614896 -0.88532376 -0.86876905
000020 fb 73 1c be 89 2a c0 bc 63 9d b7 3e f1 b0 ee bb
       -0.15278618 -0.023457782 0.35862264 -0.0072842767
000030 5a 3b cf bd 93 08 4f be aa e8 55 be 70 cd 8f 3e
       -0.10118742 -0.20218115 -0.20889536 0.28086424
000040 12 b3 9b be 94 18 09 be 91 02 12 bd 4b 1e 07 3f
       -0.30410057 -0.13388282 -0.03564698 0.527806
000050 d1 7b e9 3e 51 07 7c bd b2 f7 d7 3e bd fd f1 3e
       0.45602277 -0.061530415 0.42181164 0.472639
000060 28 e6 23 3e 78 9b 15 bf 23 67 a5 3e 1c 6f bf bd
       0.16005766 -0.5844035 0.3230525 -0.09347364
000070 0b bf e4 3e 36 a2 88 bd 32 54 19 3f 1c 4a 80 be
       0.44677004 -0.06671564 0.59894097 -0.2505654
000080 04 4d 84 3e 3d a2 fc bc 9c e0 fc 3c 64 71 bc 3e
       0.25840008 -0.03083908 0.03086882 0.3680526
000090 96 2a 76 be c4 fc cf bd 3c ad 27 be 64 f1 11 3f
       -0.24039683 -0.10155633 -0.16374677 0.5700896

linears.0.bias f4 [20]
000000 f2 b3 e5 3c fe 51 c3 bd bd d5 f2 bd 9d 89 59 bd
       0.028039906 -0.09537123 -0.118571736 -0.053109754
000010 65 9d 30 3c 24 47 8c 3d f6 bd 35 bd e7 d7 2d be
       0.010779713 0.068495065 -0.044370614 -0.16976891
000020 dd 24 62 3e 57 1e d8 bd 82 1c 50 be 01 c1 9e 3d
       0.22084375 -0.10552662 -0.20323375 0.07751656
000030 9a f9 3f 3d 12 2a 90 3d 5b 5a 60 3e 48 7a 10 be
       0.046868898 0.07039274 0.21909468 -0.14109147
000040 9e ba c1 3d 30 19 50 3e 41 87 0a bd 39 0b 96 3d
       0.094594225 0.20322108 -0.033820394 0.07326359

linears.1.weight f4 [20, 20]
000000 1c 1d 30 be 6f cf e6 3d f9 e8 03 3f 14 2b 4e 3e
       -0.17198604 0.112700336 0.51527363 0.2013362
000010 f0 ac 93 3e 68 ba 38 be 00 e1 ad be 0d 08 80 be
       0.28842878 -0.18039858 -0.33960724 -0.25006142
000020 8d 48 ac 3d b7 14 9c bd 83 0d 87 3e 3b b0 83 3d
       0.084122755 -0.076211385 0.26377496 0.06430098
000030 dd c9 bb be 19 f3 8a be da 3d 52 3d fc 46 26 3e
       -0.36677447 -0.27138594 0.051328517 0.16238016
000040 3a 68 73 bc 58 99 37 3e 0c 5c b4 ba a0 1f c0 3e
       -0.0148563925 0.1792959 -0.0013760342 0.37524128
000050 18 87 c1 be d6 9e 6f 3e 09 08 a9 3d 29 5a ee 3d
       -0.3779838 0.23400435 0.08253486 0.116382904
000060 b2 3c 73 be 24 43 9d be a2 f8 a0 3d c1 3f 50 3e
       -0.23753622 -0.30715287 0.07859923 0.2033682
000070 af fa 7d be cb ae 8f be ff b1 d3 3b 36 fe 41 be
       -0.2480266 -0.28063044 0.006460428 -0.1894463
000080 de 10 af bd 70 cc ed 3e 3d 9d ba 3d d2 10 31 bd
       -0.08548139 0.46445036 0.09112022 -0.04322893
000090 4d 54 c2 3e d8 66 71 3d 6b 50 a1 3e 39 aa 8b 3e
       0.3795494 0.05893597 0.31506667 0.27278307
0000a0 ab 9f cf 3c 08 a0 98 3e 84 73 47 be a5 65 f6 be
       0.02534469 0.29809594 -0.1947766 -0.48124424
0000b0 54 cc 02 3d 8a be c3 bd fe cf a6 be c1 99 04 3c
       0.031933144 -0.09557827 -0.3258056 0.008093298
0000c0 30 72 69 bf 2e da a9 3e e6 00 2c 3e 3e a8 08 3f
       -0.9118986 0.3317427 0.16797218 0.5338172
0000d0 9c ee 99 be 01 2c 81 bd 52 22 ad be cd 6c 07 3f
       -0.30064857 -0.06307221 -0.33815247 0.5290039
0000e0 6e ec 13 3c 46 ff 2e 3e 5f 60 d3 be d5 cf b4 3e
       0.009028537 0.17089567 -0.41284463 0.35314813
0000f0 57 09 ce be 1e 2c 2b be 86 5e 85 bc f3 dd 00 3f
       -0.402415 -0.16716048 -0.016280424 0.5033867
000100 b0 b4 12 3e 51 e8 fc bc 28 31 8c 3e be 78 ee 3e
       0.1432674 -0.030872496 0.27381253 0.46576494
000110 e8 c8 30 be c8 9c 5e be 88 2e ba bd e6 e6 9f be
       -0.1726414 -0.21739495 -0.090909064 -0.3123085
000120 de 89 1a 3e 33 bc 12 bf 70 e3 29 bf 1f 25 95 bd
       0.15091655 -0.5731842 -0.6636267 -0.07282471
000130 ea 86 66 be 63 86 55 be 3e 10 bd 3e ba 49 de be
       -0.22512403 -0.20852046 0.36926454 -0.43415624
000140 c7 8d 86 3c 83 fa e3 3e b9 c1 1d be b0 38 7a 3c
       0.016425027 0.44527063 -0.1540593 0.015272304
000150 02 6c 86 be 94 c7 b4 3e 53 4e b0 be 42 fb 0f 3e
       -0.26254278 0.35308516 -0.34434757 0.14060691
000160 ff 92 91 be d6 65 87 3e 26 2c f0 bc ed 30 1b 3f
       -0.28432462 0.26444882 -0.029317927 0.6062153
000170 f8 c4 24 bb 2a 47 4f 3e 41 0e 2d 3f c0 81 e2 be
       -0.0025141817 0.2024199 0.67599875 -0.44239616
000180 6c d3 a7 3e 0e 31 05 3f d3 13 dd be 27 50 55 3e
       0.3277849 0.52027977 -0.43179187 0.20831357
000190 5e 3b 89 bd 4a b1 11 be 57 1e 98 be 05 3e 9b 3e
       -0.067007765 -0.14227787 -0.29710647 0.30320755
0001a0 04 67 d8 bc 00 5a 17 3e ed 4a 44 3e 43 91 ff be
       -0.02641631 0.14780426 0.19169207 -0.49915513
0001b0 6a 52 60 bd b4 0b fb be b8 7a a3 3e b7 77 cf bd
       -0.054766096 -0.49032366 0.31929564 -0.10130256
0001c0 a5 48 24 3f fd 61 6d 3e 42 ee 6a 3d 93 81 a2 3e
       0.64173347 0.23181911 0.057356127 0.31739482
0001d0 1a 86 41 3e c3 ac 14 bd 79 2a 8d be 0d 56 82 bf
       0.18898812 -0.03629757 -0.27571467 -1.0182511
0001e0 22 b5 97 bd d7 4e 03 bc b7 f7 87 bd 56 56 37 be
       -0.07407595 -0.008014402 -0.06639045 -0.17904028
0001f0 6c 92 34 3e 53 fb a1 3d a1 08 70 be 4d cd 53 be
       0.1763398 0.079092644 -0.23440792 -0.20683785
000200 c0 3f 03 bf 53 f9 b5 3d e2 85 2f 3d 57 00 50 3f
       -0.5126915 0.088854454 0.04285229 0.8125052
000210 e4 fd 17 be 49 5d 0a 3e 21 cd c0 bd 9f ea 03 be
       -0.14842945 0.13512148 -0.09414125 -0.1288247
000220 b2 d2 8f 3e 54 e2 87 3e 21 51 85 be 76 c5 87 3e
       0.28090435 0.26539862 -0.2603846 0.26517838
000230 3a 1f ed bd 42 32 68 3d 56 d6 3d bd c7 2a d9 3e
       -0.115782216 0.056688555 -0.046346985 0.4241545
000240 ed 62 0b be c3 12 52 3e 78 7b b0 be 6e 47 9b 3d
       -0.13611956 0.2051497 -0.344692 0.075819835
000250 ea 90 af bd df dd 6c bb b0 32 40 be b5 69 be 3d
       -0.08572562 -0.0036142988 -0.18769336 0.09297506
000260 8b 9b ae be 6c 0b cb bd e7 50 02 3e 5c 64 81 3e
       -0.34103045 -0.09914288 0.12726174 0.2527188
000270 21 f8 16 3e 47 32 41 3e d5 c2 4a bf c9 f0 3d 3e
       0.14743091 0.18866836 -0.7920354 0.18548883
000280 3a 1e a4 bd 9d 09 0f 3e fe 36 ab be 03 30 c7 be
       -0.08013578 0.13968511 -0.33440393 -0.38903818
000290 6b d3 0f be 2a 48 27 bf 0b fe ac bd 21 f8 b5 3e
       -0.14045493 -0.6534449 -0.08446892 0.3554087
0002a0 da 56 a2 3e 32 1c a5 3d 00 bc 2e 3d c9 74 cb 3d
       0.31706887 0.080620185 0.04265976 0.099343844
0002b0 7c 7d db 39 f4 3b 0d be 83 d9 40 bf 3c ac 1f bf
       0.00041864428 -0.13792402 -0.75331897 -0.62372184
0002c0 1a 50 1f be 7d 63 32 be 70 92 10 3e b5 76 41 be
       -0.155579 -0.17420764 0.14118361 -0.1889294
0002d0 1e 4d 66 bc 41 10 90 be ce 84 eb be e9 16 32 bf
       -0.014056472 -0.281374 -0.4599976 -0.6956621
0002e0 82 fa 38 3e f5 a6 01 be 98 b3 bb 3e 11 b7 f6 bd
       0.18064311 -0.12661345 0.36660457 -0.12046636
0002f0 03 21 ea 3e 8b bd f4 bd 72 2b 3f be f1 3c 1b 3e
       0.4572831 -0.11950215 -0.18668917 0.15159966
000300 dc ca 5f 3e 67 f3 22 be 48 a1 41 be f1 69 a6 bd
       0.21854728 -0.15913163 -0.1890918 -0.081256755
000310 68 4b 29 be c9 3b e7 bd d2 5b 07 3e e2 fb fb be
       -0.16532671 -0.112907 0.1321862 -0.4921561
000320 be 36 c0 bd c1 e0 50 3e 81 6b 6a be eb 00 a8 be
       -0.09385441 0.20398237 -0.22892572 -0.328132
000330 51 b3 3a 3c e9 8a 88 be 2b 6f 4e 3e f8 9f 09 bf
       0.011395291 -0.2666848 0.20159595 -0.5375972
000340 5d 3c 89 3d 25 41 4b be 6f 8c 77 3d 2d 5d 5f be
       0.067009665 -0.1984907 0.060436662 -0.21812887
000350 d8 0a cd 3e 3b 05 51 be 29 02 8e 3e 38 ac 28 be
       0.40047336 -0.20412152 0.27736023 -0.16471946
000360 49 e9 66 3e 83 8e a9 bd 0a cd 63 3e b1 d9 6a 3d
       0.22549929 -0.08279135 0.22246185 0.057336513
000370 30 02 c4 3e 57 d9 15 bf e7 24 1d bf 74 af cd 3d
       0.3828292 -0.5853476 -0.61384434 0.10043231
000380 e5 f4 ca 3d 88 1c 91 be b8 76 72 3e 9e 94 d3 be
       0.09909991 -0.2834208 0.236781 -0.41324323
000390 5a 44 86 3f 68 5c 6e be 4e 42 89 bf 8b 8d c4 be
       1.0489609 -0.23277438 -1.072336 -0.3838924
0003a0 4a 79 45 3e 42 67 9a bd 0e 4e 38 be 8f ba 02 bf
       0.1928455 -0.07539226 -0.17998526 -0.51065916
0003b0 df 38 4a bd 92 36 aa 3d da 3d 40 3e 40 84 ee be
       -0.049370643 0.0831119 0.18773594 -0.46585274
0003c0 68 ea 89 3b c6 26 58 3e 32 bf 3e bd 49 1a 29 3c
       0.0042088516 0.21108541 -0.046569057 0.010321208
0003d0 67 3a b0 be 05 dd 76 3e 22 a5 9f bd 41 4e 61 3e
       -0.34419557 0.2410775 -0.077951685 0.22002508
0003e0 8a 74 c0 be d6 be d6 bc 6a 0a e9 3e 4f b8 4d be
       -0.37588912 -0.026214045 0.45515758 -0.2008984
0003f0 14 29 ca bd 27 41 1a 3f 50 26 1e 3d 23 67 b1 3e
       -0.09871116 0.60255665 0.038610756 0.34649

linears.1.bias f4 [20]
000000 b5 d9 10 3e ac 13 1f 3d 15 86 c0 be ef ab 6f be
       0.14145549 0.03883712 -0.37602296 -0.23405431
000010 3f d2 b8 3e 0d 0f 9c bc ff e2 ed 3d bb 8f c3 3c
       0.36097905 -0.019050146 0.11615562 0.023872247
000020 09 17 7b be 92 bf 7d 3c 0f d4 69 3d 96 1d c7 3e
       -0.24520506 0.015487568 0.057087 0.3888976
000030 33 74 37 be d9 0c 16 be d7 9e d3 bd 19 8b 04 3e
       -0.1791542 -0.14653338 -0.10333031 0.12943687
000040 79 ab 0c 3d 79 c2 fd bd df ef 86 3e db 66 ab 3e
       0.034343217 -0.12390608 0.26354882 0.3347691

linears.2.weight f4 [20, 20]
000000 a3 c8 63 3e 1d 66 46 be b7 ac df 3e 1d 82 7c be
       0.22244506 -0.1937489 0.43686458 -0.2465901
000010 64 1f ba 3e 60 97 a9 bd 3e 93 87 3e 01 2e 7d bc
       0.36352074 -0.082808256 0.26479524 -0.015452863
000020 9b b0 ae bd ff e5 b7 3c 6d e2 b8 bd e8 a7 0b bf
       -0.085297786 0.022448538 -0.09027562 -0.5455308
000030 21 87 a7 3e c6 5c 1d 3e 54 1f 4b 3c d9 ab c5 3e
       0.32720283 0.15367422 0.012397606 0.38607672
000040 bd 83 f9 bd 6d 3f c4 be 18 a6 72 3e 5c f2 5e 3d
       -0.1218333 -0.3832964 0.23696172 0.05443035
000050 73 ca af 3e d2 d9 6e 3d cd c5 5b 3e 3a ed 17 3d
       0.34334144 0.0583132 0.21462174 0.03709147
000060 10 7b 7b bd 64 e5 d5 be 25 55 3c 3e 7c a3 44 bf
       -0.06139666 -0.41776574 0.18391855 -0.7681196
000070 8c f3 f4 3e 6f 2c 3e 3f 75 33 b6 ba 87 8c bd be
       0.47842062 0.7428655 -0.0013900833 -0.37021276
000080 8e b1 43 be 79 a2 19 be 80 0c a9 3e 62 58 27 3a
       -0.191107 -0.15003385 0.3301735 0.00063837145
000090 3c 9c e8 bd 01 d5 b4 3e 50 05 83 be 1c 4b e8 3d
       -0.11357924 0.3531876 -0.2558999 0.11342451
0000a0 9e 8d af 3e 5b 93 9b 3d 88 7e 1c be b6 00 e0 3e
       0.34287733 0.07596465 -0.15282643 0.43750542
0000b0 93 5c b1 be 8a fc c4 be 80 fa c6 bd 65 63 f9 bc
       -0.3464094 -0.38473922 -0.09715748 -0.030442903
0000c0 f0 96 15 be e1 ac 22 bf 08 da 02 be 10 25 2a 3f
       -0.1460836 -0.6354504 -0.12778485 0.664628
0000d0 58 90 34 3f 7d eb 81 3d 74 98 8b 3e 53 e4 e0 3e
       0.7053275 0.06343744 0.2726475 0.43924198
0000e0 10 ec d3 3c e7 d3 69 be fa ef 84 3e bb 17 42 3d
       0.0258694 -0.2283474 0.25964338 0.047385912
0000f0 29 44 19 3f 76 c5 10 be 42 57 3b 3d 6d 12 cf 3e
       0.5986963 -0.14137825 0.045737512 0.40443745
000100 b1 ed 5f 3e 4d 06 8f 3e da c3 23 be b9 9b 8b 3e
       0.21868016 0.27934495 -0.1599268 0.27267244
000110 fd 04 83 3e 8f de 50 bf 8f cc 16 be c2 98 d1 3d
       0.25589743 -0.815896 -0.1472647 0.10234214
000120 04 96 b0 be 86 04 a7 be 6d 97 98 3e 93 3d 88 3d
       -0.34489453 -0.3262064 0.2980303 0.06652369
000130 de fd 5d 3e 63 07 86 be 0e 51 fa be 51 11 96 bc
       0.21678874 -0.2617751 -0.48889965 -0.018318804
000140 4a 5d 5d 3e 8f 87 ca bb 85 25 18 3c e8 3a 9a be
       0.21617618 -0.0061807106 0.009286289 -0.30123067
000150 c1 e3 d9 3e 7e 71 33 be 25 85 0a 3d 6c f6 92 be
       0.42556575 -0.17523763 0.033818383 -0.2870363
000160 b0 77 b7 3e 20 a5 73 bd 52 35 ba bc 2d 79 57 3e
       0.35833502 -0.059483647 -0.022730503 0.21042319
000170 5a dc 6a be 19 36 86 be 88 62 34 3e ee 04 c5 bd
       -0.2293562 -0.26213148 0.17615712 -0.09620081
000180 84 f5 fd bd 30 bd 7e 3e e5 c0 87 3b 10 38 37 3d
       -0.12400344 0.24876857 0.004142868 0.0447312
000190 8a 05 91 be 42 dc 4c be 37 ba c8 3d db 57 15 bd
       -0.28324538 -0.20005897 0.09801143 -0.03646074
0001a0 62 95 e8 3e 29 85 21 bc 61 43 d9 3d 74 20 76 be
       0.4542647 -0.009858408 0.10608555 -0.24035817
0001b0 0b c4 77 3e a1 e3 41 3f 3f bf a5 3b 38 83 b1 3d
       0.24195878 0.7573796 0.0050581987 0.08667606
0001c0 c9 6e 54 be a2 60 db be 24 3d 1a bc 54 e5 9d 3d
       -0.20745386 -0.42847162 -0.009413991 0.077097565
0001d0 ae a4 f1 be a4 f1 3c 3e 07 4f 12 be 26 85 15 3d
       -0.47195953 0.18451554 -0.14287959 0.036503933
0001e0 df 2d b3 3d dc 16 c1 bd 5f 8d c5 bc 6d f3 68 bd
       0.087489836 -0.09428188 -0.024115263 -0.056872774
0001f0 f4 7f e4 bd 9f c0 06 3f 4f d4 a6 3d 6e 58 c9 bd
       -0.111572176 0.52637666 0.081459634 -0.0983132
000200 71 73 6f 3d c5 27 52 bf c0 9a 2f be fa f9 43 be
       0.058459703 -0.82091933 -0.17148876 -0.19138327
000210 95 64 c2 3e 78 83 cd 3e 93 b8 e9 be d8 4c 35 be
       0.37967363 0.40139365 -0.4564863 -0.17705095
000220 6c 89 d4 be 36 98 12 bd d2 2b c5 3c 47 4b ba be
       -0.41511095 -0.03578969 0.024068747 -0.36385557
000230 86 d4 b5 3d 72 9b a5 bd b9 6d b3 be 63 b4 c2 bc
       0.08878426 -0.080862895 -0.3504465 -0.023767656
000240 80 bd 2c 3e 3b 68 ab 3e f2 38 40 be 59 74 0a 3f
       0.16869164 0.3347796 -0.18771723 0.5408378
000250 99 aa eb be 07 de 57 bf c5 2f 25 bf 88 44 63 3e
       -0.46028593 -0.8432316 -0.64526016 0.22194111
000260 5b 58 c8 3d 49 e2 9b 3d 9e 33 ef bd e3 2c b5 3e
       0.097824775 0.0761152 -0.11679767 0.35385808
000270 ad 03 09 3f 77 c5 0f 3e 74 d0 7e 3d 81 09 f8 3d
       0.53521234 0.1404017 0.062210515 0.12111188
000280 51 4f 13 3e 9f b1 03 3e b4 69 2a bb db ca 00 be
       0.14385726 0.12860726 -0.0026002945 -0.12577383
000290 90 cc 36 3d 18 a3 e0 be 91 49 3d be c5 53 ad bc
       0.04462868 -0.4387443 -0.18485095 -0.021158108
0002a0 1a d8 09 bf c4 c8 29 bd aa ac fe 3e 26 ef f7 bd
       -0.5384537 -0.04145123 0.49741107 -0.12106161
0002b0 31 50 b4 3e ec de b3 3e 1b ac 96 be f2 2d a0 3e
       0.3521743 0.35131013 -0.2942818 0.31285053
0002c0 a5 24 80 bd bb a3 b9 3d 7d d7 0b 3e eb 76 b8 be
       -0.062569894 0.09064432 0.13656421 -0.36028227
0002d0 63 76 1c 3e bb 7f 74 3d 79 24 f8 3d f8 6f 1f 3e
       0.15279536 0.059692126 0.121163316 0.15570056
0002e0 44 b8 a5 3d 36 a1 aa 3e 8d 99 18 be c9 b0 07 be
       0.080917865 0.3332612 -0.14902325 -0.13251032
0002f0 33 39 bc 3e 27 76 87 bf 74 f6 9d be d6 8c 69 bd
       0.3676239 -1.0582932 -0.3085209 -0.057019077
000300 61 0d b8 3e 09 29 ff 3d 8e 42 1c bd 20 15 0f 3f
       0.35947707 0.12458999 -0.03814941 0.5589161
000310 f6 c1 55 3e 71 a2 99 be e0 8a fb bd 3d c3 3b 3e
       0.20874771 -0.30006745 -0.12282348 0.18336196
000320 5b b5 eb 3b 16 d7 09 3e 0a b7 a0 be 64 95 84 3e
       0.00719325 0.13460955 -0.31389648 0.25895226
000330 92 ec 61 3e 13 89 c2 be 10 8b a4 be 79 3e 3a bd
       0.220629 -0.37995204 -0.32137346 -0.045469735
000340 89 e5 e5 3b 8f 9c fa bd b0 4c fb 3d 00 e8 94 be
       0.007015888 -0.122368924 0.12270486 -0.29083252
000350 5c 9a 0b be ef 80 ae 3e 3c bc 5c be fd 45 9f bd
       -0.13633102 0.34082744 -0.2155618 -0.07777021
000360 a8 7d f2 be 67 9c 44 3e e2 4a 8f be 93 58 ad bc
       -0.47361493 0.19200288 -0.2798682 -0.0211604
000370 4e bd c3 bd 75 a7 a2 be 6c ec 84 3e d2 f9 a7 bc
       -0.095575914 -0.31768385 0.25961626 -0.020504866
000380 6e 03 fb bd d8 0f ac be 59 68 8f 3e b6 0a a4 3e
       -0.122565135 -0.33605838 0.28009298 0.32039422
000390 b1 10 bc 3d 93 1a 72 3e 9d 8c 09 be 29 dd ba 3d
       0.09182871 0.2364295 -0.13432546 0.09124214
0003a0 7d ff 46 bd ec ff 5a be f7 2d 34 3e 6d ce a2 bd
       -0.048583496 -0.21386689 0.17595659 -0.07949529
0003b0 bc ef 85 3b ba 3d 55 3c 1a 45 66 3e db 54 ef 3d
       0.0040874165 0.013015205 0.22487298 0.11686107
0003c0 91 85 5c bd 30 55 42 3e 5d 7d a0 3e 89 96 7b 3e
       -0.053838316 0.18977809 0.31345645 0.24569143
0003d0 2c 90 a5 3e a6 31 66 be 4f 17 11 3f a3 f6 1d 3e
       0.32336557 -0.22479877 0.5667619 0.15426116
0003e0 bc 58 f1 3e 32 34 68 be 0d 8b 96 be 1b a2 31 bf
       0.4713801 -0.22676161 -0.29402962 -0.6938798
0003f0 15 cb a3 3e 43 57 12 3f f6 8d 52 3e 4c c0 a9 3e
       0.31990877 0.571644 0.20561966 0.33154523

linears.2.bias f4 [20]
000000 ba e1 be 3d 58 b5 03 be 2e 51 ce 3d 88 dc 65 bc
       0.09320398 -0.12862146 0.100740775 -0.0140296295
000010 ac 06 e0 3d 1d d3 9d 3d a3 61 66 be 08 73 a4 bb
       0.109387726 0.07706282 -0.22498183 -0.0050185956
000020 07 99 3a 3d 37 08 9d bd a4 e2 ca 3d 16 f0 42 3d
       0.045556094 -0.076675825 0.099065095 0.047592245
000030 3b dd d8 be 74 2a 88 3e 6f f4 8d be 77 d6 0a 3d
       -0.42356285 0.2659489 -0.2772555 0.033895936
000040 a7 bc 09 be d1 83 b0 be 91 3b 2c 3e 89 b5 90 be
       -0.13450871 -0.34475568 0.16819598 -0.282635

linears.3.weight f4 [20, 20]
000000 50 6c c3 3e 63 cb 48 3e 5e d3 aa 3c a3 c9 a6 bb
       0.38168573 0.19608836 0.02085274 -0.005089955
000010 5d 22 0e 3e 2a b6 79 be c9 72 be be 70 d8 61 3e
       0.13880296 -0.24385896 -0.3719695 0.2205522
000020 0c 9b 4d be 86 36 7e 3f 22 dd 88 be 77 a8 6e be
       -0.20078677 0.99301946 -0.2673121 -0.23306452
000030 05 2e 7c 3e 02 70 0c bc f4 31 63 3d 3b 98 7c 3c
       0.2462693 -0.008571627 0.05546756 0.015417154
000040 28 1c 36 bf 04 b9 95 3d bc 74 9a 3d 42 f2 2e 3e
       -0.71136713 0.073106796 0.075417966 0.17084602
000050 b6 aa c5 bc 2e 27 d7 3e 8e 34 8e bd 84 ea 9c 3e
       -0.024129253 0.4202208 -0.06943618 0.3064767
000060 9d 71 57 3e 15 2e 98 3d a7 bf 2b be e3 bc 0a 3f
       0.21039434 0.074306644 -0.16772328 0.5419447
000070 e5 cc fd be 7b 78 77 3e 27 ad f3 3e 66 15 38 be
       -0.49570385 0.24167053 0.47593042 -0.17976913
000080 53 69 44 be 09 6d 15 be 89 cb b1 be ef 8b 4a 3e
       -0.19180803 -0.14592375 -0.34725598 0.19779943
000090 07 c5 ed bd 58 42 a4 bd c8 53 01 bb b1 66 a2 be
       -0.116098456 -0.080204666 -0.0019733775 -0.31718972
0000a0 6b 6e ac bd bd 4f d7 3e 94 1b 11 3f fb 20 ec 3c
       -0.08419498 0.42053023 0.56682706 0.02882432
0000b0 d6 5c 08 3e 9e d2 72 be 26 08 63 bc ac ae e7 bd
       0.13316664 -0.23713157 -0.013856923 -0.11312613
0000c0 8b 7e e7 3c 50 0d 06 3f a3 e2 09 be e7 c8 68 bc
       0.028258583 0.52364063 -0.13465361 -0.014208055
0000d0 8d 57 15 3f 7e 88 85 3c 90 7b a7 3e 55 30 1d 3f
       0.58336717 0.016300436 0.32711458 0.61401874
0000e0 58 ed 82 3e 55 30 2f 3e 21 63 18 3f b2 46 02 3e
       0.25571704 0.17108281 0.5952626 0.1272228
0000f0 b9 bd 08 3e 30 ea a6 be 95 9f 1a 3d 69 6f 3e 3d
       0.13353623 -0.32600546 0.037749846 0.046492968
000100 57 59 0d be 5e a9 e1 3e 76 b5 e1 3e a4 96 74 be
       -0.13803612 0.4407453 0.44083756 -0.2388559
000110 33 4a 19 bd 73 92 31 be e4 b4 bb be 16 3e 4b be
       -0.037424278 -0.17341022 -0.36661446 -0.19847903
000120 4e b6 62 be 84 c0 3d bd 6a c8 02 be ee ce 5f be
       -0.22139856 -0.046326175 -0.12771764 -0.21856281
000130 17 43 e2 3e c0 f9 da b9 d1 84 9e be 88 c9 29 be
       0.4419181 -0.00041766278 -0.30960706 -0.16580784
000140 1f e4 f9 bd e5 01 67 be f8 14 55 3e 8e 34 09 bf
       -0.12201714 -0.22559316 0.2080878 -0.5359582
000150 64 f1 7e bc 57 b2 69 be dd 73 37 3c b2 cf 2e bf
       -0.015560482 -0.22821938 0.011197058 -0.6828567
000160 5c be 2c 3e 92 12 a6 be 9f e0 41 3e 1f 02 ad be
       0.16869491 -0.32436043 0.18933342 -0.3379068
000170 6b e1 a6 3e a0 25 40 bd d1 27 4b bc 10 d0 bd bd
       0.32593855 -0.046910882 -0.01239963 -0.092682004
000180 38 31 21 3f 24 2f 29 3f cb 4f f2 3e 18 ce ee be
       0.62965727 0.66087556 0.47326502 -0.46641612
000190 89 06 89 3d d3 f4 23 3c f4 70 09 3f 09 ea 17 bf
       0.066906996 0.010007101 0.5368798 -0.59341484
0001a0 fa 9e 61 be 26 87 4d bd 64 df 1b 3e d1 fc fd be
       -0.22033301 -0.050177716 0.15221936 -0.49606946
0001b0 51 2d 2a 3f aa ae 5b bf 71 ec 2c 3e 62 b1 d7 3b
       0.664754 -0.8581339 0.1688707 0.006582425
0001c0 1a 89 d0 bb d6 d6 a2 3e 39 b8 94 be b8 83 2f be
       -0.006364 0.31804532 -0.290468 -0.1714009
0001d0 6b 67 1f bd 60 03 4d bd 36 6a a3 3e b7 67 df be
       -0.038916986 -0.050052047 0.3191697 -0.43633816
0001e0 d3 ed 96 be 18 5f 2e be f6 7e fb 3d e2 1b 2b be
       -0.2947832 -0.17028463 0.12280075 -0.16709855
0001f0 97 95 b1 3e a4 e4 c4 3e 66 a1 ee be 46 88 f6 be
       0.3468444 0.3845569 -0.46607512 -0.48150843
000200 1f 31 16 bb e6 fd ba 3e f4 d5 7d be 99 be 27 3e
       -0.0022917462 0.36521834 -0.24788648 0.16381301
000210 67 d8 b3 be 55 b6 97 3e c2 45 89 be c4 2a 32 3f
       -0.3512604 0.29631296 -0.26811033 0.69596505
000220 5b 39 93 be ce a2 ae be e6 13 26 3f 4b ed 36 be
       -0.28754696 -0.34108585 0.6487411 -0.17863958
000230 b2 ba b5 be 8a f4 3a bf 29 89 b0 3e 0d b9 39 bf
       -0.35494 -0.73029387 0.34479645 -0.7254799
000240 12 e7 ee be 3f b0 90 3d c3 4a 2f 3d d1 e8 cf bd
       -0.46660668 0.07064866 0.042795908 -0.10151828
000250 70 3d 2b 3e 51 83 d9 be 75 07 7d be 0b 5b bf 3b
       0.16722655 -0.42483 -0.24709876 0.0058397106
000260 c5 ee 1d 3e c0 5e 25 3e be d7 b3 be a8 57 c5 be
       0.15423115 0.16149426 -0.35125536 -0.3854344
000270 82 25 6c 3d 78 9d 22 3e e1 fb a6 3e c0 62 6e 3d
       0.057652958 0.15880382 0.32614043 0.058199644
000280 9f 44 ad be 4e c1 1c 3e 10 60 a6 3e a4 cd 84 be
       -0.33841416 0.15308115 0.32495165 -0.2593814
000290 d5 55 12 be e0 7c 93 3e bc 3a a0 bd 0d 15 17 be
       -0.14290555 0.2880621 -0.07823703 -0.14754124
0002a0 c0 af 1a bf 93 70 3a 3e c6 60 ec 3d c7 8e b6 3e
       -0.60424423 0.18207006 0.115418956 0.35655805
0002b0 c0 2a 26 3e d8 06 86 3e cc 18 34 3a fb 64 db 3e
       0.16227245 0.26177096 0.000687015 0.4285048
0002c0 b8 eb 8f 3e e3 e6 92 3e 41 da 7d 3d 74 80 be be
       0.28109527 0.28691778 0.06197572 -0.37207377
0002d0 83 88 1a 3f cd ae 0f bf 57 e7 09 3c fa c6 03 3f
       0.6036455 -0.561261 0.008416972 0.5147549
0002e0 b2 0c 80 bd 66 c2 15 bf 2a d3 bb 3e e8 fa 4c 3f
       -0.062524214 -0.58499753 0.36684543 0.8007035
0002f0 d5 52 6c 3e 4e e1 f0 3d 96 f0 1a 3e ff 38 df bd
       0.23078473 0.117617235 0.15130839 -0.10899543
000300 7a 30 0a be 0a 36 c0 bd fe 50 ee 3d c0 ac b1 be
       -0.13495055 -0.09385307 0.11636542 -0.3470211
000310 af 5f 4f bd 64 ab 0e bb 82 43 09 3f 10 20 d5 3e
       -0.05062836 -0.0021769637 0.53618634 0.41626024
000320 e1 37 ac 3e 91 68 c1 3e 4d 5c 1c be 58 ea a5 be
       0.33636382 0.3777509 -0.15269585 -0.32405353
000330 b0 07 33 3e 91 98 e5 bd 6d f0 36 be a0 eb 35 bc
       0.17483401 -0.1121074 -0.17865153 -0.011103541
000340 7c 0f 0b 3e d8 42 76 3d 47 67 81 be a3 52 9f 3e
       0.13580126 0.06012234 -0.25274107 0.31117734
000350 18 70 0c 3e bc 31 d7 3e 33 9c 9a bc 42 04 40 3e
       0.13714635 0.42030132 -0.01887331 0.18751624
000360 e7 e3 e1 be 12 09 91 3e b2 00 84 be ca a8 2a bf
       -0.44119188 0.28327233 -0.2578178 -0.666638
000370 40 40 e7 3b b4 00 a2 3e af e5 45 be e0 94 12 bf
       0.0070572197 0.3164116 -0.19325899 -0.57258415
000380 c7 93 0c 3e cd 23 39 3f a5 79 e4 be 82 b2 02 bf
       0.13728248 0.7232025 -0.44624057 -0.5105363
000390 c4 e9 77 bd 38 41 3a bf a5 33 09 3d 1a eb 07 be
       -0.06052567 -0.72755766 0.033496518 -0.13273278
0003a0 41 04 b0 be 2a 41 8c 3e 13 6d 4c be 2c f5 e0 3e
       -0.34378245 0.27393466 -0.19963484 0.4393705
0003b0 41 16 69 bc b4 90 fe be dc cc 0c bf 86 d2 b2 be
       -0.014226497 -0.49719775 -0.5500009 -0.34926242
0003c0 e3 9b c8 be df 54 3b be e7 8a 5b 3c 24 9c 13 be
       -0.39181432 -0.18294095 0.013399816 -0.14415032
0003d0 3f 44 0f be a0 52 65 be 9f 72 07 3f ab 4f fb 3e
       -0.13990878 -0.223948 0.5290927 0.4908422
0003e0 d3 ee c3 bd 08 5a b7 be 6f 45 cf 3e da ac 17 3e
       -0.095670365 -0.35810876 0.4048266 0.14812031
0003f0 60 fe d4 bd 49 16 3c bf a6 f1 c0 be 64 ef 40 be
       -0.10400081 -0.73471504 -0.37684363 -0.1884132

linears.3.bias f4 [20]
000000 79 80 17 bb b9 e6 9a 3e a4 ec 21 be b3 02 87 3d
       -0.0023117347 0.30254152 -0.15812927 0.06592312
000010 86 47 29 bd 0b 5a 7c 3e f0 16 66 3e d3 e0 65 bd
       -0.041327976 0.24643724 0.22469687 -0.056122612
000020 8f a3 bc 3d fa f8 9d bc a1 ee df 3c 2f af 0a 3e
       0.09210884 -0.01928376 0.027335467 0.1354339
000030 e1 f3 62 be 95 73 3d 3e 39 9b a2 bd 94 53 e0 3d
       -0.22163345 0.18501122 -0.079397626 0.10953441
000040 0f fe 1d 3e bb b9 09 3e 6b f5 ec bd 40 27 2d bd
       0.15428947 0.13449757 -0.11570247 -0.04227376

linears.4.weight f4 [20, 20]
000000 25 e3 b2 be fa 19 0b bf 77 6b 44 3e 69 e3 d5 be
       -0.34938923 -0.5433651 0.1918162 -0.41775063
000010 b5 a1 92 3e 2e e1 ca 3e 31 de 37 3e 71 17 04 bf
       0.28638998 0.39624923 0.17955853 -0.5159827
000020 c3 5a b9 3e 14 fa d8 be 8d 9b 8a 3d 5b a9 d7 3d
       0.36202058 -0.42378294 0.0676795 0.10530349
000030 68 39 9c 3d 74 3a 5b be 93 97 7b be 33 52 33 3e
       0.07628137 -0.21409017 -0.2456954 0.17511825
000040 ab 6d 00 bf d7 6e 4e be 6b 7c 26 be 31 03 2c 3f
       -0.5016734 -0.2015947 -0.16258399 0.6719237
000050 6a cc 2d 3e 96 c5 1f 3e 5e 20 d2 be 0c 3a 94 3d
       0.16972509 0.15602717 -0.4104032 0.07237634
000060 16 98 b7 bd 09 50 02 3f 10 91 54 bf cc 1c 09 be
       -0.08964555 0.50903374 -0.8303385 -0.13389891
000070 90 07 4e bf 9c d2 ae 3e 73 cf 32 3e 38 43 aa 3d
       -0.8048029 0.34145057 0.17461948 0.08313602
000080 5d c5 84 be 2c 35 55 3e b2 80 2d 3e 60 be a2 be
       -0.25931826 0.20821065 0.16943625 -0.3178587
000090 1c 05 b9 3e 9b be 4a 3e 1a 10 3b be 22 3a 26 be
       0.3613671 0.19799273 -0.18267861 -0.16233113
0000a0 b6 bb 38 be af 9a 03 bd de 87 98 bf 31 25 d5 be
       -0.18040356 -0.03212994 -1.1916463 -0.41629937
0000b0 af 93 2f 3e 96 03 81 3d cf a0 40 bf 68 a1 f0 3e
       0.1714618 0.06299512 -0.75245374 0.46998143
0000c0 a8 60 5d 3d 73 04 71 be 83 21 09 be 5c 2a 62 be
       0.054047257 -0.23536853 -0.1339169 -0.22086471
0000d0 f3 48 79 3c 0a 2f 78 be 54 3b ab 3d bf a6 08 bf
       0.015215146 -0.24236694 0.08360925 -0.53379434
0000e0 9c 76 1d be ef a2 9d 3e 7a f2 97 3e 09 e1 b3 3e
       -0.15377277 0.3078837 0.29677182 0.35132626
0000f0 05 57 24 bf c7 ca d9 bc 63 05 7f 3e cb 8e 47 3d
       -0.6419528 -0.02658595 0.24904399 0.048720162
000100 45 8e 7b 3d 02 4b a3 3d 65 f5 16 3e 22 5b 9c be
       0.061414976 0.07973291 0.14742048 -0.3053828
000110 f0 7e 81 3e 0b d2 1a be 48 e6 c6 be 65 12 c2 3e
       0.25292158 -0.15119188 -0.38847566 0.3790466
000120 e2 75 bc bd 21 53 8f be 5c bd 42 3e f4 28 fc 3d
       -0.09202172 -0.2799311 0.19017547 0.12312499
000130 0a 5e ec be ce b6 66 be 5d 04 c2 be 12 26 b1 3e
       -0.46165496 -0.22530672 -0.37893954 0.34599358
000140 2a 96 76 3e d5 69 97 be 12 64 3f 3f 47 29 df be
       0.2408072 -0.2957293 0.7476207 -0.4358618
000150 d7 3f ca 3e 2a f5 52 be 59 a6 99 be 00 8a 49 bc
       0.3950183 -0.20601335 -0.30009726 -0.012300968
000160 cc c3 91 bd 41 f1 ad be e5 82 db bd c4 98 d2 3e
       -0.071174234 -0.33973125 -0.107183255 0.41132176
000170 6d a7 de 3e cb 9b 7f bc f0 af 44 bd ac 0c 67 3e
       0.4348711 -0.015601109 -0.04801935 0.22563428
000180 12 56 33 bf c1 c5 36 bf a1 8f 7c be 78 bc 57 be
       -0.7005321 -0.713955 -0.24664165 -0.21067989
000190 da 6f de be 0e 8c d4 be 23 fe cd bd 70 ee 7e be
       -0.4344471 -0.41513103 -0.10058238 -0.24895644
0001a0 57 cb 6e 3e 89 df 3c 3e f0 16 90 3e a6 2b 1b 3f
       0.23319755 0.18444647 0.281425 0.6061348
0001b0 48 e8 90 3e 35 bf 58 be 58 fe ad 3d c4 49 c0 3e
       0.28302217 -0.2116669 0.08495778 0.3755628
0001c0 e5 d3 a6 be c6 6f b2 3c 84 a8 25 bf 27 25 19 3f
       -0.32583538 0.021781813 -0.6471026 0.59822315
0001d0 e6 07 05 bd 45 cf 20 3e 92 8c 26 be 3e f6 b8 be
       -0.032478236 0.15704067 -0.16264561 -0.36125368
0001e0 56 02 48 3d d8 f9 c9 3d aa 08 6a 3e 1d b0 ad 3e
       0.048830353 0.09862107 0.22854868 0.33923426
0001f0 b7 7e 09 be 6f 77 be be d7 96 1a 3e 38 12 ed be
       -0.13427244 -0.37200496 0.15096603 -0.46302962
000200 57 ca eb 3e e8 67 65 be e5 a7 c1 3d c9 9e c4 be
       0.4605281 -0.22402918 0.094558515 -0.38402393
000210 19 1b ee 3d e7 51 d0 3d 7a fc 7f be 98 1b 21 be
       0.11626262 0.10171872 -0.24998656 -0.15733182
000220 c7 ca 96 bc d0 8a 02 3f 64 c1 5c 3d 64 5b e3 bd
       -0.018407239 0.5099306 0.05389537 -0.11101416
000230 9f f8 a0 3c b1 9b 9e be e9 c2 76 3f 56 26 01 be
       0.019649802 -0.30978158 0.9639116 -0.1261228
000240 34 7c c5 3e 62 1b 95 3d ef c5 69 3d 52 d1 3b 3e
       0.38571322 0.072806135 0.05707353 0.18341568
000250 ae 8d 2a 3f 68 3a dd be d6 9f 4f 3e 28 d9 3b be
       0.66622436 -0.43208623 0.20275816 -0.18344557
000260 81 21 08 3e a9 9f fd 3c a3 5a 06 bf 4a 81 12 be
       0.1329403 0.030959921 -0.5248205 -0.14307132
000270 ac bf cd be 41 2c fe be 55 dd 67 3d ad cf 49 bf
       -0.40185297 -0.49643138 0.056607563 -0.78832513
000280 4c 26 f5 be fc 58 81 be 4d a5 19 bf 0c 57 a9 be
       -0.4788078 -0.25263202 -0.60017854 -0.33074224
000290 0f 56 83 3d bd ee 48 3e 29 d3 39 3f f0 2a 66 3e
       0.06412899 0.19622321 0.7258783 0.22477317
0002a0 f0 8c b2 3e 0d ca 20 bf 7d 37 09 3d a9 62 67 3e
       0.34873152 -0.62808305 0.033500183 0.2259623
0002b0 0a c2 93 3e 2c cd 91 3c 9d 4d 1a be c5 37 17 3f
       0.28858978 0.017798029 -0.1506867 0.5906947
0002c0 97 df 81 be 40 53 63 be b9 18 8c 3e 76 fc 54 3f
       -0.25365898 -0.22199726 0.27362612 0.83197725
0002d0 39 60 24 3f 29 68 97 be cb be 30 3f 6a 28 19 bf
       0.64209324 -0.29571655 0.69041127 -0.5982729
0002e0 6b 99 a4 be ed 5e 88 3e e6 8d 49 3e 03 c5 4c 3d
       -0.321483 0.26634923 0.19683036 0.049992573
0002f0 a8 9f 41 3e fd 68 1f bf 9d 54 5b bd e4 87 81 3e
       0.1890856 -0.62269574 -0.05354749 0.2529899
000300 71 24 e5 be ab 68 9a 3e 3b ef cd be 78 e8 2e 3f
       -0.44754365 0.3015798 -0.4022158 0.6832347
000310 39 35 0a be 58 e5 83 bf ed f8 be bd 1f dc 9b bd
       -0.13496865 -1.0304365 -0.093248226 -0.07610344
000320 86 26 79 be d0 bf 0e 3f 1d 0a 05 3f 6b 23 9e 3e
       -0.24331102 0.5576143 0.51968557 0.30886397
000330 e7 26 93 3c 00 4c 14 3e c1 a8 12 3f b4 11 b1 3f
       0.017962886 0.14482117 0.5728875 1.3833528
000340 cc f9 af be 40 42 23 3d a5 09 a2 3e 3b 17 f9 3e
       -0.34370267 0.039858103 0.31647983 0.48650536
000350 d7 4e 6c 3e 77 f6 3b 3f ba 65 56 bf a1 2a 41 3f
       0.2307695 0.7342295 -0.8374897 0.7545567
000360 23 9f 18 3e 8a 55 29 3e bc 8c 87 be b2 a5 96 bf
       0.14904456 0.16536537 -0.2647456 -1.1769316
000370 89 d9 c5 be ec 13 5c 3d dc 61 83 3e c2 5e a3 3e
       -0.3864253 0.053729936 0.25660598 0.31908232
000380 e4 b1 bc be c9 e3 5b be 82 4f dc 3e 49 d6 49 bf
       -0.3685447 -0.21473612 0.4302941 -0.788426
000390 38 fd 7f bd 88 03 90 3e 6a 96 20 3d f7 ba 1b 3d
       -0.062497348 0.28127694 0.039205946 0.0380201
0003a0 56 96 91 be 98 83 e7 bb 46 23 9f 3d 03 88 1e 3e
       -0.2843501 -0.0070652477 0.077704 0.15481572
0003b0 c7 ae 43 bd 69 1f 66 3e 3a 44 16 be e3 85 0f bf
       -0.047774103 0.2247292 -0.14674464 -0.5606367
0003c0 36 e3 7d 3e f0 7f 1c be 0e 39 f2 3e cc c1 dc be
       0.24793705 -0.1528318 0.47309154 -0.43116605
0003d0 9f 05 14 3e 8c a4 19 3f 58 38 56 3e 63 67 73 3e
       0.1445527 0.60016704 0.20919931 0.23769908
0003e0 7c 40 f3 3e 14 fd 43 bf e4 bc e2 3d 6e d2 a2 3e
       0.47510135 -0.7655804 0.11071184 0.3180117
0003f0 f5 9e 52 be 6b 8f b5 3e 7d be 9f be 65 6d 1d 3e
       -0.2056845 0.35460982 -0.3120002 0.15373762

linears.4.bias f4 [20]
000000 01 c8 48 be 0c 21 99 3d 25 52 15 be 63 e5 ee 3c
       -0.19607545 0.07477006 -0.14582117 0.029162114
000010 fe ff 88 be 99 30 cd 3e 06 c7 b0 bd 3b 38 40 be
       -0.26757807 0.4007614 -0.08631711 -0.1877145
000020 b9 34 86 3e 3a 60 71 3e b6 94 ba 3e 58 6f ab 3e
       0.262121 0.23571864 0.36441582 0.33483386
000030 da da 2a bd de e4 0b be d7 1e 62 bc 6c e7 08 be
       -0.04171262 -0.13661525 -0.013801298 -0.1336953
000040 0d 0f 49 be 6d d6 02 bf cd 4b 8e bd 41 65 8e 3e
       -0.19634648 -0.5110844 -0.069480516 0.27811626

linears.5.weight f4 [1, 20]
000000 05 09 e3 3e d8 90 88 be b0 30 e1 be 3e 88 07 3f
       0.4434282 -0.26673007 -0.43982458 0.52942264
000010 36 e1 fd 3e bd fb 97 3e 1e 8c 98 be c5 5b 20 3f
       0.49585885 0.2968425 -0.297944 0.6264003
000020 b3 a8 e9 3e 8d 45 02 3e 8b f4 71 3e 93 d4 e8 be
       0.4563652 0.12721844 0.23628442 -0.4547468
000030 10 69 94 3e 3a a6 43 be e1 56 c9 bd 23 05 e0 3e
       0.28986406 -0.19106379 -0.09831024 0.4375392
000040 c8 f1 94 be a5 34 84 be 2b c2 f0 3e 33 5a e2 3e
       -0.29090714 -0.25821415 0.47023138 0.44209442

H1.weight f4 [20, 2]
000000 a6 88 6f 3c d0 96 2f bc 7c 94 f3 3d 92 b1 bd 3d
       0.014619982 -0.010717109 0.118935555 0.092623845
000010 dc 0c 69 be 94 2c 1b 3f 94 a4 62 bf a6 67 5e bf
       -0.22758812 0.60614896 -0.88532376 -0.86876905
000020 fb 73 1c be 89 2a c0 bc 63 9d b7 3e f1 b0 ee bb
       -0.15278618 -0.023457782 0.35862264 -0.0072842767
000030 5a 3b cf bd 93 08 4f be aa e8 55 be 70 cd 8f 3e
       -0.10118742 -0.20218115 -0.20889536 0.28086424
000040 12 b3 9b be 94 18 09 be 91 02 12 bd 4b 1e 07 3f
       -0.30410057 -0.13388282 -0.03564698 0.527806
000050 d1 7b e9 3e 51 07 7c bd b2 f7 d7 3e bd fd f1 3e
       0.45602277 -0.061530415 0.42181164 0.472639
000060 28 e6 23 3e 78 9b 15 bf 23 67 a5 3e 1c 6f bf bd
       0.16005766 -0.5844035 0.3230525 -0.09347364
000070 0b bf e4 3e 36 a2 88 bd 32 54 19 3f 1c 4a 80 be
       0.44677004 -0.06671564 0.59894097 -0.2505654
000080 04 4d 84 3e 3d a2 fc bc 9c e0 fc 3c 64 71 bc 3e
       0.25840008 -0.03083908 0.03086882 0.3680526
000090 96 2a 76 be c4 fc cf bd 3c ad 27 be 64 f1 11 3f
       -0.24039683 -0.10155633 -0.16374677 0.5700896

H1.bias f4 [20]
000000 f2 b3 e5 3c fe 51 c3 bd bd d5 f2 bd 9d 89 59 bd
       0.028039906 -0.09537123 -0.118571736 -0.053109754
000010 65 9d 30 3c 24 47 8c 3d f6 bd 35 bd e7 d7 2d be
       0.010779713 0.068495065 -0.044370614 -0.16976891
000020 dd 24 62 3e 57 1e d8 bd 82 1c 50 be 01 c1 9e 3d
       0.22084375 -0.10552662 -0.20323375 0.07751656
000030 9a f9 3f 3d 12 2a 90 3d 5b 5a 60 3e 48 7a 10 be
       0.046868898 0.07039274 0.21909468 -0.14109147
000040 9e ba c1 3d 30 19 50 3e 41 87 0a bd 39 0b 96 3d
       0.094594225 0.20322108 -0.033820394 0.07326359

exp_avg f4 [20, 2]
000000 99 cf b6 39 0c 86 01 39 27 41 77 3a c8 8e f0 3a
       0.00034868417 0.00012352335 0.00094320107 0.0018353099
000010 f2 1d a1 38 94 12 0a 3a 94 4f 49 39 bd a9 22 b9
       7.682656e-05 0.00052670506 0.00019198499 -0.00015512756
000020 1a 72 fa b9 3f a9 02 bb 58 b3 9f ba 9e 4e 4f 3b
       -0.00047768728 -0.0019937304 -0.0012184186 0.0031632553
000030 d8 ec b7 3a fc 3f d9 37 d9 3c a7 3a d1 a0 a7 ba
       0.0014032377 2.589821e-05 0.0012759223 -0.0012789016
000040 23 4a 9d ba 03 2e 8a bb 61 21 c3 3a 6e 51 f0 3a
       -0.0012000244 -0.004216911 0.0014887267 0.0018334815
000050 40 22 f8 3a f3 21 b9 3b 70 25 e1 37 3b df b5 3a
       0.0018931106 0.005649799 2.6839523e-05 0.0013875732
000060 f3 f7 6f ba b5 43 ae ba 1b 8c 83 39 b8 24 45 3b
       -0.0009154074 -0.0013295325 0.00025090654 0.00300817
000070 6a 53 d6 ba b4 a3 43 3b 5f 48 10 3a ee 55 66 3b
       -0.0016351764 0.0029852213 0.0005503948 0.0035146433
000080 cd a6 d1 b9 e6 30 2b 3b 1b 24 1c bb e4 a5 91 ba
       -0.00039987863 0.0026121675 -0.0023825231 -0.0011112061
000090 3c a7 f9 3a 29 26 93 37 6c 8a 35 ba 83 a1 02 bb
       0.0019047032 1.7541535e-05 -0.00069252285 -0.0019932694

exp_avg_sq f4 [20, 2]
000000 3d a5 96 3c 0d 1b 10 3c a3 19 34 3f e5 a5 4b 3f
       0.018389339 0.008795512 0.7035162 0.7955001
000010 66 f6 23 40 d3 93 e2 3f 53 da ce 3e 89 89 b9 3e
       2.561914 1.7701362 0.40400943 0.36237743
000020 9a 55 48 3f 5b 66 92 3f 9b d1 f0 3f 43 0c 39 40
       0.7825562 1.1437486 1.8813967 2.8913734
000030 8a fe 43 40 93 f2 1c 40 f1 f9 a1 3e dd 03 5e 3e
       3.0624108 2.4523056 0.31636003 0.21681161
000040 2d 4a 4b 40 21 6b 6b 40 00 6b 12 3f cb ca f9 3e
       3.1764023 3.6784136 0.5719452 0.4878753
000050 41 7d fe 3f ec e2 38 40 cb 7d 3e 3f 89 21 4e 3f
       1.9881974 2.8888502 0.74410695 0.8051992
000060 5e 22 28 40 1a 1a e0 3f 25 ac ca 3e d4 c1 53 3f
       2.6270976 1.7507966 0.3958446 0.82717633
000070 67 8d 08 40 03 f4 4d 40 bc 7c 0a 40 33 db 55 40
       2.1336305 3.2180183 2.1638632 3.3415039
000080 9f 5a 29 3f 83 34 9a 3f ad 49 16 40 43 01 c1 3f
       0.661539 1.2047275 2.3482468 1.507851
000090 34 38 3a 40 86 b3 4b 40 a6 2e 49 40 23 c5 b9 3f
       2.9096804 3.1828322 3.1434722 1.4513286

exp_avg f4 [20]
000000 39 34 e7 b7 c2 bb 23 3b 1b 3a 90 3b 09 2d 27 3b
       -2.7561664e-05 0.0024983739 0.004401458 0.002550902
000010 5c 72 54 bb 44 fe af 3b 82 84 48 bb 90 5c 52 3a
       -0.0032416796 0.005370887 -0.003059656 0.0008024657
000020 39 ba f5 bb 8b 26 ec 3a 73 cd ec 3b 8f 8d b9 ba
       -0.007499006 0.0018016858 0.00722664 -0.0014156568
000030 74 0c 70 bb 63 26 fd 3a a7 d0 78 3b 6d 11 d8 3b
       -0.0036628516 0.0019313808 0.0037966163 0.006593874
000040 c8 3e 07 3b 7f f9 62 3a 60 1b 92 bb 67 ba ec 3a
       0.0020636786 0.00086583936 -0.0044588298 0.0018060923

exp_avg_sq f4 [20]
000000 82 af e0 3d 7f 7b 8f 3f 2a 67 41 3f a8 66 2a 3f
       0.109709755 1.1209563 0.7554804 0.6656289
000010 97 3a c6 3e de 77 9b 3f a2 1f 9b 3f 0b 1e 6b 3f
       0.38716576 1.2145956 1.2119029 0.91842717
000020 c8 3e 8f 40 f6 c4 6a 3f 6b f5 4d 40 3f 3e 1d 40
       4.4764137 0.9170679 3.2181041 2.4569242
000030 26 31 0f 3f ef c0 88 3e 37 03 36 40 05 34 81 3f
       0.5593437 0.26709697 2.8439462 1.0094
000040 cc 4e 13 3f 5d 26 08 40 a7 c8 9c 3f bf c4 66 3f
       0.5754211 2.1273415 1.2248734 0.9014396

exp_avg f4 [20, 20]
000000 f1 4a 9e 37 53 7b 19 b9 92 32 0e ba ea dc 8f 39
       1.8869965e-05 -0.00014637159 -0.00054244057 0.0002743968
000010 28 c7 5e 36 5e bf b2 37 72 20 0b 39 63 3f b3 b9
       3.3196502e-06 2.1308366e-05 0.0001326816 -0.00034188767
000020 e7 51 8b 39 d1 6f 02 ba e0 6c b6 b8 6b 3c bd b9
       0.00026573168 -0.00049757684 -8.698716e-05 -0.00036093904
000030 00 44 02 3a 25 0b 15 39 2e 8b 0a 39 e7 5a 3b 39
       0.0004969239 0.00014213899 0.00013212554 0.00017867573
000040 ec e5 de 38 df 36 4d b9 f9 5f a4 38 fe ff e5 b9
       0.00010628611 -0.00019570765 7.838006e-05 -0.00043869013
000050 6b ea 20 b6 22 33 d8 38 bb 75 45 39 6c 9d fd b9
       -2.3978307e-06 0.00010309207 0.00018831242 -0.0004837321
000060 89 53 9d b8 32 8b 08 39 af 74 1e b9 c7 73 8b 38
       -7.501903e-05 0.00013021825 -0.00015111522 6.649602e-05
000070 e8 19 4d b9 c3 57 86 39 14 08 15 39 c1 a6 db 39
       -0.00019559974 0.0002562386 0.00014212757 0.00041895176
000080 7e 3c 6a b9 a1 17 96 38 e2 d9 fe 38 24 20 bf 38
       -0.00022338514 7.1569586e-05 0.00012152248 9.1135764e-05
000090 17 af a4 38 73 5f 56 39 58 e7 1b b9 eb 8f 6e 39
       7.8527424e-05 0.00020444188 -0.00014868134 0.00022751062
0000a0 29 82 5c 37 eb b8 c3 b8 a1 e9 2a 39 be d5 bc b9
       1.3143327e-05 -9.332768e-05 0.00016299497 -0.00036017405
0000b0 2e b8 24 38 ff 2d 0e b8 1c cb 24 b8 c2 9e 8b b7
       3.9272178e-05 -3.3898275e-05 -3.9289807e-05 -1.6644019e-05
0000c0 af e6 7c 39 d0 ff 47 38 f1 74 9c b9 fc 18 d3 38
       0.00024118529 4.768354e-05 -0.00029841767 0.00010065918
0000d0 3d 68 3c b9 37 b3 42 b8 9b 92 85 38 f1 1d b7 b9
       -0.00017967909 -4.642011e-05 6.3692416e-05 -0.00034926788
0000e0 47 6a b3 36 67 fb 6f 39 6c 16 7c 37 83 46 8f 39
       5.346988e-06 0.00022886471 1.5025591e-05 0.0002732762
0000f0 aa f4 4c 37 61 8b 94 b8 81 ec de b9 69 53 a8 38
       1.2216313e-05 -7.083151e-05 -0.0004251935 8.0264006e-05
000100 be 1e 11 b6 43 de c1 38 63 b8 dd 38 05 96 80 b9
       -2.1624578e-06 9.2443566e-05 0.00010572446 -0.00024525836
000110 ec d6 af 38 cb c8 ad b9 2c de d6 38 70 cb 7c b8
       8.3846826e-05 -0.00033146734 0.00010245698 -6.0270948e-05
000120 9b 53 d1 39 cf ed 01 39 a1 98 49 39 dd 62 a9 39
       0.00039925877 0.0001239099 0.00019225712 0.0003230785
000130 8a 6b 9b 38 97 91 06 b9 bd de 9d 37 f3 8a be b9
       7.411007e-05 -0.00012833472 1.8819579e-05 -0.0003634315
000140 ed 8e b1 b7 53 83 1c 39 c5 4c 90 39 c0 6b 31 ba
       -2.11666e-05 0.00014926241 0.00027523018 -0.000676807
000150 be a0 8b b8 e8 5c b8 37 d7 e3 c2 b8 a1 4d 3d 39
       -6.657977e-05 2.1977772e-05 -9.293079e-05 0.00018053364
000160 fe b6 92 b9 e8 5e 97 39 e8 af 2b 39 87 b4 25 39
       -0.0002798363 0.00028871675 0.00016373361 0.00015802878
000170 5a 60 88 b9 26 b6 f6 36 b3 d6 c1 b8 8d e4 4b 38
       -0.0002601173 7.352576e-06 -9.242948e-05 4.8611826e-05
000180 2b 64 6e 35 ba b6 f9 b7 34 bb a6 b8 6b b8 2a 39
       8.880767e-07 -2.9768202e-05 -7.950366e-05 0.00016281164
000190 c6 db ab 35 4c 39 6f b9 07 f9 31 3a 4c ab 89 39
       1.2804455e-06 -0.00022814161 0.0006789122 0.00026258302
0001a0 c6 e2 7a 39 17 ad 07 ba 5c 9b 9c 37 bb fe a9 39
       0.00023926338 -0.00051756337 1.8668994e-05 0.0003242398
0001b0 b9 12 17 3a 6b db 91 39 63 ca 61 ba dd 68 bc b9
       0.0005762983 0.00027820034 -0.0008613227 -0.00035936284
0001c0 56 94 1e ba f7 26 03 ba 35 6a 0c ba ad 7a 8b ba
       -0.00060493255 -0.00050030596 -0.0005356402 -0.0010641419
0001d0 cd 0e b6 b9 08 32 a6 39 ac b7 a4 39 a3 b1 36 3a
       -0.00034724773 0.00031699263 0.00031417364 0.0006969219
0001e0 ff d1 fb b7 bd 2c 66 39 4c db 0f 3a 2e 3e 41 ba
       -3.0019319e-05 0.00021951176 0.0005487695 -0.0007371631
0001f0 76 21 bb b8 f4 55 1c 38 77 64 32 b9 2b 35 a9 39
       -8.9230874e-05 3.727335e-05 -0.00017012829 0.00032273805
000200 9e c4 d7 b9 d4 13 08 3a 98 8c 62 39 b9 71 b3 39
       -0.00041154487 0.0005190943 0.00021605415 0.0003422627
000210 ef 76 05 ba 4f 74 1b b8 2e d0 08 b9 06 94 63 b8
       -0.000509127 -3.70632e-05 -0.00013047524 -5.4258875e-05
000220 78 ee a4 b7 d1 84 cd 38 3e ee 13 b9 91 90 d1 39
       -1.966137e-05 9.799901e-05 -0.00014107765 0.00039971297
000230 72 af 8f 38 42 2e 11 ba 8f 82 2d ba 5d 72 ea 39
       6.8514506e-05 -0.0005538204 -0.0006618881 0.00044717165
000240 82 de 66 39 fd 03 ad b9 ee e4 84 39 e4 78 12 ba
       0.000220174 -0.00033000103 0.00025347568 -0.0005587472
000250 34 51 97 3a ef 85 64 ba 11 d3 8c ba d3 d4 6e ba
       0.0011544586 -0.00087174674 -0.0010744055 -0.0009110693
000260 ae 28 18 3a 4a 9c be b8 e2 ae 96 b6 cf 4b 52 ba
       0.00058044016 -9.089017e-05 -4.4907074e-06 -0.00080221606
000270 17 2f 34 b7 c0 4d 27 b6 7a d1 ca 39 52 1b 98 b9
       -1.07398e-05 -2.4930196e-06 0.00038684515 -0.00029012054
000280 3c 9c fe b7 04 72 6c 39 e6 51 fd b9 b3 ac 01 3a
       -3.0351912e-05 0.00022549188 -0.0004831694 0.00049466937
000290 29 f4 0c b9 d1 71 9f 39 44 17 08 39 b1 dc f4 b8
       -0.00013442397 0.00030411643 0.00012978638 -0.00011675934
0002a0 71 c5 12 ba e2 c3 65 b9 48 f3 61 3a e0 5f 3f b8
       -0.0005598879 -0.00021912114 0.00086193206 -4.562724e-05
0002b0 4b fa 01 3a 53 31 94 39 71 b6 7b 39 28 85 8e 3a
       0.0004958256 0.0002826551 0.0002400519 0.0010873424
0002c0 35 ce e7 38 3b a2 fc b9 88 b2 06 b9 4a 0e 28 ba
       0.000110533474 -0.00048186057 -0.00012845744 -0.00064108206
0002d0 8f be ed b8 9e 9a 52 3a 9f 35 33 3a a7 50 cc 39
       -0.00011336535 0.0008033904 0.0006836298 0.00038970003
0002e0 8f d6 32 b9 03 5f 49 39 45 6b fe b8 4d 63 7d 3a
       -0.00017055332 0.00019204248 -0.00012131644 0.0009665981
0002f0 be 49 eb ba 07 12 8f 3a 1d 65 d8 3a a4 08 2a 3a
       -0.0017951054 0.0010915407 0.0016509626 0.0006486273
000300 2b 37 04 ba 5c fd f7 b8 ff d8 01 ba 2f 88 93 3a
       -0.0005043621 -0.0001182507 -0.00049532944 0.0011255796
000310 b7 0f 8e b9 8f 4f 17 ba ba d8 aa b9 47 89 ab b8
       -0.0002709606 -0.0005772048 -0.000325864 -8.179485e-05
000320 14 d1 2f b8 d6 1f 47 39 ad ff c7 39 fa dc 61 39
       -4.191797e-05 0.00018989979 0.0003814673 0.00021539992
000330 76 c1 e2 37 14 e1 07 b9 a0 39 16 36 ef e1 e4 39
       2.7031387e-05 -0.00012958451 2.2385284e-06 0.00043655882
000340 43 a5 ca b9 b1 09 c9 39 f4 f8 83 39 71 f6 ff 36
       -0.00038651572 0.00038344928 0.00025171752 7.6282818e-06
000350 85 82 8c b9 5a fa 5f b9 55 9f c1 b9 5a 4d b0 37
       -0.00026800125 -0.000213602 -0.0003693054 2.1016855e-05
000360 a8 88 67 b9 80 c3 45 b9 53 f9 bd 37 e5 f4 87 38
       -0.00022080785 -0.00018860213 2.2646656e-05 6.482917e-05
000370 b0 df 47 b8 fa 7f ae 38 69 a6 f3 b9 30 33 b7 3a
       -4.7653622e-05 8.320804e-05 -0.00046472557 0.0013977047
000380 1e c0 69 38 5f 3c 83 b9 a0 14 c3 39 e4 04 e5 38
       5.5730452e-05 -0.00025031247 0.00037208665 0.00010920482
000390 0e bf a3 b9 6a fa d2 b9 cd 81 ec 39 c6 18 60 ba
       -0.0003123213 -0.00040240894 0.00045110137 -0.00085486134
0003a0 a1 bc 20 3a b7 f0 15 b9 40 2f 19 ba de 19 e8 39
       0.00061316235 -0.0001429942 -0.00058435276 0.0004426976
0003b0 40 12 85 b9 f0 8a 75 ba 25 47 86 39 b3 92 66 ba
       -0.00025381334 -0.00093667116 0.00025611478 -0.00087956636
0003c0 61 05 53 38 4a f4 30 39 bd 79 69 3a 1e c6 25 bb
       5.031133e-05 0.00016875673 0.0008906385 -0.002529509
0003d0 a2 5b 8a b9 7a 5e 1a 3a 3e 22 30 ba 5f d1 43 b7
       -0.00026389683 0.0005888712 -0.00067189697 -1.1671654e-05
0003e0 33 9a 58 b9 a1 d5 6f 3a 16 a2 02 38 1b 70 d7 3a
       -0.00020656809 0.00091489597 3.114537e-05 0.0016436608
0003f0 0b 0a 8a ba 84 f4 c6 39 e4 51 5e 3a b9 be 4d b8
       -0.0010531557 0.0003794768 0.00084808306 -4.9053433e-05
