Closed-form-Derivative/Closed_form_derivative/kg_forward_last.pt (torch, 783993 bytes, 115 tensors)

linears.0.weight f4 [20, 2]
000000 e4 65 b4 3c 03 df 53 be a1 ee 19 3e 68 87 87 3e
       0.022021241 -0.20690541 0.15032436 0.26470494
000010 5d 52 95 be ed 7a 20 3f af e2 e2 be a1 8f 0a bf
       -0.291644 0.6268757 -0.4431357 -0.5412541
000020 50 8f 96 be e4 ab 89 3d b8 c4 4d 3c 7a ec 3e 3d
       -0.29406214 0.06722239 0.012559108 0.04661224
000030 da 2c 77 3e c8 30 da bd 26 72 57 be 83 78 ba 3d
       0.24138203 -0.106538355 -0.21039638 0.09105017
000040 fa 98 52 bd 8f 54 95 be 91 fd 05 bf 40 31 ea 3e
       -0.05141542 -0.29166076 -0.52340037 0.457407
000050 e4 0b c3 3e cd bb 9d be 2a d2 9e 3e 0c cd 8d 3e
       0.3809501 -0.30807343 0.31019717 0.276955
000060 25 de 08 3e c5 80 03 be b7 bd 07 3f ac 48 4c be
       0.13365991 -0.1284209 0.53023857 -0.19949597
000070 25 ad cf 3e 0d b5 ac be 8f cb ed 3e db e6 1f bf
       0.40561786 -0.3373188 0.46444365 -0.6246163
000080 e8 7c 47 3e d6 00 7c be a3 b4 86 3e e2 39 17 3f
       0.19481242 -0.24609694 0.2630969 0.590727
000090 50 b4 33 bd 0d b7 be bd 41 43 14 be 7d b3 04 3d
       -0.04387313 -0.09312258 -0.1447878 0.032397736

linears.0.bias f4 [20]
000000 31 bb a0 3d 8e 98 45 be ed 83 38 3c 33 45 c5 3e
       0.07848204 -0.19296476 0.011261922 0.38529357
000010 a4 67 63 be 69 96 20 3e f4 b5 37 3e 07 d3 95 be
       -0.22207505 0.15682377 0.17940503 -0.29262564
000020 da e0 91 3e 66 cb 8c be 7c 55 49 3f eb 17 a8 be
       0.2849186 -0.2749893 0.78646064 -0.32830748
000030 a5 b5 80 3e 37 4a 64 3e 21 23 eb 3e 81 b6 d2 3e
       0.25138584 0.22293936 0.4592524 0.41154864
000040 b5 85 6c 3d 53 b6 3e 3e 7b c8 cd bd f1 e2 e5 bd
       0.0577447 0.18624239 -0.10048004 -0.11224926

linears.1.weight f4 [20, 20]
000000 d3 c1 d9 bd 2a 09 99 3d 7f fa d4 3e 48 ee 23 3d
       -0.10632672 0.07472451 0.41597363 0.040022165
000010 ce 61 93 3e 93 b8 19 be 41 d0 a4 be e5 3e 78 be
       0.28785557 -0.15011816 -0.32190135 -0.24242742
000020 83 e8 6d 3d 70 43 38 be ce 43 b8 3e 67 ad d3 3d
       0.05808307 -0.17994475 0.3598923 0.10335808
000030 97 c5 8b be 6d 47 b5 be e3 07 3d 3e 5e 5b 71 3e
       -0.27299187 -0.35406056 0.1846004 0.2357001
000040 4d 7f 90 3d 1e d7 7b 3d c6 1a 44 bd 25 35 8b 3e
       0.07055531 0.06148445 -0.047877096 0.27188984
000050 12 be a5 be 71 4d d9 3d 23 ba 28 be af c8 d4 bd
       -0.32371575 0.10610474 -0.16477256 -0.1038984
000060 fb 48 d1 bd 77 d9 bb be a6 90 61 3e 87 39 65 3c
       -0.10218998 -0.3668935 0.22027835 0.013990766
000070 a5 05 76 be e3 71 d3 be 52 56 11 be 98 a6 d0 bc
       -0.2402559 -0.41297826 -0.14193085 -0.025470063
000080 7c 35 0d 3d 1c d9 d1 3e 9f c5 bf 3c 57 f3 1a bd
       0.034474835 0.40985954 0.023409663 -0.037829723
000090 37 70 7c 3e 05 bd 51 3d aa 0e e8 3e 8b 1d 5e 3e
       0.24652182 0.051205654 0.45323688 0.21690957
0000a0 7c 78 59 3c c9 d7 b3 bb ec 17 10 be 1c 91 d7 bd
       0.013273355 -0.00548837 -0.14071625 -0.10525724
0000b0 60 d8 d3 3e fc 27 cd be d0 0f 0c be d2 3c b2 3d
       0.4137602 -0.40069568 -0.13677907 0.08703007
0000c0 f5 5f a2 be ef 9f 8a 3e 22 79 d5 be 3a 6e 28 3e
       -0.31713834 0.27075145 -0.4169398 0.16448298
0000d0 2c 5e 9d be f3 2b c3 be 38 44 15 bf 33 4c a5 3d
       -0.3073591 -0.38119468 -0.5830722 0.080711745
0000e0 24 a4 92 be 12 44 bf bd bb 12 0d be 5e 3b cd 3e
       -0.28640854 -0.09339155 -0.13776676 0.40084356
0000f0 77 f0 e2 be a4 e2 37 be f8 19 9d bd a3 52 dd 3e
       -0.44324085 -0.1795755 -0.07670969 0.4322711
000100 26 06 23 bd be 09 82 3e fa 87 3e 3e 57 24 bd 3e
       -0.039800785 0.25398058 0.18606558 0.36941788
000110 e9 e4 89 be fc 8c 73 be 1a 90 fd 3d c1 56 04 be
       -0.26932457 -0.2378425 0.12381001 -0.12923719
000120 5f 4c 54 3e d5 db d7 be a5 ae 4f be e0 53 b3 3d
       0.20732258 -0.42159906 -0.20281465 0.08756232
000130 14 57 0b 3d e6 e5 dc 3d e8 19 1b 3e 6d 47 e6 be
       0.03401859 0.10786037 0.15146601 -0.4497637
000140 0d 5c 88 3d d8 66 c4 3e e8 7e 9f be cc f8 c2 3e
       0.06658182 0.38359714 -0.3115151 0.38080442
000150 0b 1f 46 bd ad 4a d8 3d 85 16 18 be e9 79 99 3e
       -0.04836945 0.10561118 -0.1485234 0.29975823
000160 a1 ae 5e be 1d 61 93 3d 9c 55 3c 3d 5e 22 55 3e
       -0.21746303 0.07196257 0.04598008 0.20813891
000170 76 30 fa 3d 1f 22 2d bc b5 bb b7 3e 10 96 88 be
       0.122162744 -0.010567217 0.35885397 -0.2667699
000180 2c f7 c0 3d 0f d5 82 be 63 c9 2e be 3b 3f 71 3d
       0.09422144 -0.25553176 -0.1706901 0.058898192
000190 1c ea 73 be 37 13 80 be a6 b6 e6 3b 6f a5 0b be
       -0.23819774 -0.2501466 0.0070408164 -0.13637327
0001a0 bb 40 62 bb ce 37 b4 3d 48 8f 56 3e 39 c6 98 be
       -0.0034523446 0.087997064 0.20953095 -0.29838732
0001b0 e1 22 34 bc 5c 2f a4 be 85 45 37 3e 56 f8 86 3d
       -0.010994644 -0.32067382 0.17897613 0.06590335
0001c0 82 f1 ca 3e 56 c9 03 3e cc f8 70 be 06 1d 9f 3d
       0.3963738 0.12869772 -0.23532408 0.07769208
0001d0 95 9b 9d ba bc cf 6a 3e d6 99 3d be f4 bb 48 bf
       -0.0012024516 0.22930807 -0.18515715 -0.78411794
0001e0 19 8a b1 3d 1e 70 e4 bc 93 0f 80 be 9c 22 0c be
       0.08668918 -0.027885493 -0.25011882 -0.13685077
0001f0 6b 6f ab 3e 87 71 1a bd 7f fd eb bd 99 f7 35 be
       0.33483443 -0.037705924 -0.1152296 -0.17770232
000200 b6 30 ca be 5e 28 93 bd 9e 68 d5 bd f5 90 1b 3f
       -0.39490288 -0.07185434 -0.10420345 0.6076806
000210 60 31 f7 bd fa be 13 3c db cd 39 be a3 0e 51 3d
       -0.120699644 0.0090177 -0.18144934 0.05103935
000220 ad 6b 20 3e 4b 30 09 3c 54 95 0e be 13 76 88 3e
       0.15666075 0.00837333 -0.13924152 0.26652583
000230 33 6f d9 bd d0 ee 2a be 44 b5 95 be b7 d5 6e be
       -0.10616913 -0.16692662 -0.29239857 -0.23323713
000240 64 31 03 bd 37 5a 8c 3d 4c 89 80 be 91 2c aa 3c
       -0.032029524 0.068531446 -0.2510475 0.020773204
000250 99 ce 23 3e d9 65 2c be db bf b1 be 01 6c 5f 3e
       0.1599678 -0.16835727 -0.34716687 0.21818544
000260 07 35 aa be 0b 22 1d be 1f e7 98 3c 98 6e 0e 3f
       -0.33243582 -0.15345018 0.018664895 0.556375
000270 98 d1 44 bc d5 95 9a 3d eb de 1c bf 41 08 42 3e
       -0.012012862 0.075481094 -0.61277646 0.18948461
000280 54 3e b3 bd d6 58 87 3e 9f 22 de be 91 3d 24 be
       -0.087521225 0.26434964 -0.4338579 -0.1603911
000290 6c 22 97 be 08 26 c5 be 5d a9 04 be 4e 35 60 3e
       -0.2951845 -0.38505578 -0.12955232 0.21895334
0002a0 d8 6a 24 3e 62 48 15 3e b4 7d d2 3e 79 64 33 3e
       0.16056383 0.14578393 0.4111153 0.17518796
0002b0 a2 2c 22 bd d5 51 dc 3d 6b 70 77 be ad da 8d be
       -0.039593346 0.10757796 -0.24163978 -0.277059
0002c0 1e f7 c8 3d c1 a1 81 bd 53 32 89 bd 4c 9e 20 be
       0.09812759 -0.0632968 -0.06699052 -0.15685385
0002d0 f8 77 29 3e 8e dc 09 be be f0 71 be 2d 22 b4 be
       0.1654967 -0.13463041 -0.23626992 -0.35182324
0002e0 28 6a 07 3e 04 22 2c bd 15 6d 49 3e 07 85 92 bd
       0.13224089 -0.042024627 0.19670518 -0.07154279
0002f0 52 c4 a0 3e 2f 67 8a 3d 21 14 76 be 5e bb 4f bc
       0.3139978 0.06757962 -0.24031116 -0.012678949
000300 0f 5b fc bc de f1 fa 3c c6 90 9f be 31 0d c9 3a
       -0.030805139 0.03063291 -0.3116514 0.0015339014
000310 66 44 24 be b8 bb 0a 3e 7d 8d 79 3d 7a 93 64 be
       -0.16041717 0.13548172 0.06092595 -0.22321883
000320 9b 38 81 3e 83 07 a2 3e a5 ef c1 bc 42 23 19 be
       0.252385 0.31646356 -0.023673842 -0.14954856
000330 77 1d 06 3d fc 9d 4c be 70 a7 36 3d 94 b4 bc be
       0.032742944 -0.19982141 0.044593275 -0.3685652
000340 79 a1 76 bd 40 ab 89 bd 3f d4 33 3e ba 10 06 be
       -0.060212586 -0.067221165 0.17561434 -0.13092318
000350 44 b9 8e 3e 7c 17 5c be 54 5c 9c 3e 67 a5 63 be
       0.2787572 -0.21493334 0.3053919 -0.22231065
000360 4a a0 8a 3e 0f fe e5 3d bc 86 df 3d 04 3c 4e 3e
       0.27075416 0.112300985 0.109143704 0.20140082
000370 4d af 0d 3e cf b7 0e bf ae 59 51 be 66 6e e8 bd
       0.13836403 -0.5574922 -0.20444366 -0.11349182
000380 51 16 97 be e0 f9 1b bd 2b f3 a9 3d c7 c2 d4 be
       -0.29509214 -0.038080096 0.08298334 -0.41554853
000390 5e 94 c7 3e 21 41 ac 3e 9c ef 5d bf 9e a7 01 bf
       0.38980383 0.3364344 -0.8669374 -0.5064639
0003a0 bb 87 31 be 22 81 fe 3e 23 a1 ef be da d3 a2 be
       -0.17336933 0.49707896 -0.46802625 -0.31802255
0003b0 df 1d 69 3d 8e 85 89 3e d5 de 34 3d f9 fe b2 be
       0.056913253 0.26859707 0.04415782 -0.34960154
0003c0 5d 7a ba be 6d ab a6 3d ab 62 5c 3d ff d0 d9 3d
       -0.3642148 0.081381656 0.053805035 0.10635566
0003d0 cb 74 30 be 09 0c b5 bd c3 86 ec 3c b5 66 e8 3e
       -0.17232053 -0.08840186 0.028872853 0.4539086
0003e0 56 9f 56 bb 41 30 27 be 73 0b 5b bc 5c 31 b6 be
       -0.003274878 -0.16327001 -0.013369429 -0.35584533
0003f0 d0 3f 43 bd 12 84 90 3e 4d 8a 7d be 5d b7 68 bd
       -0.04766828 0.28225762 -0.24759789 -0.056815494

linears.1.bias f4 [20]
000000 c4 c2 d2 3c 7b 0e 6c bd 0e ca ab be d9 61 ac bd
       0.025727637 -0.057630997 -0.33552593 -0.084171005
000010 e9 d4 09 be 7b 19 2b 3e 48 cc 5d be 08 28 6a 3e
       -0.13460125 0.16708939 -0.21659958 0.22866833
000020 73 78 06 be da 5e e7 bd c8 2d b7 3c 97 07 5b bd
       -0.13131885 -0.112973884 0.022360697 -0.053474035
000030 89 87 08 be 22 7f bb 3c e0 38 25 be ac aa 22 3e
       -0.13332953 0.02288777 -0.16134977 0.15885419
000040 d1 d2 57 3e 4c 42 6b bd d0 12 56 bd ea 81 9d 3d
       0.21076514 -0.057436273 -0.052264035 0.07690795

linears.2.weight f4 [20, 20]
000000 27 fe 67 3c 15 d6 f4 bd ed 9b a1 3e ed 63 aa 3e
       0.014159716 -0.119548954 0.31564274 0.33279362
000010 e0 ae ba 3e 29 a0 94 be 18 44 7c 3d 74 c8 a5 be
       0.36461544 -0.29028443 0.061588377 -0.32379496
000020 9e ae a2 bd 06 33 43 bd a2 20 35 be 98 e4 4e bf
       -0.07943462 -0.04765608 -0.1768823 -0.80817556
000030 9b c5 0d 3e b6 e4 88 bd 45 6d 81 3e 71 11 0f be
       0.13844912 -0.06684248 0.2527868 -0.13971497
000040 24 f8 2d be da 2e 5a bd 30 01 c7 bc 25 bb c6 be
       -0.1698919 -0.053267337 -0.024292558 -0.38814655
000050 6c d0 e9 3e 0b 16 ac bc f1 0d 1a 3d e1 97 b0 3c
       0.45666826 -0.021006605 0.03761095 0.021556797
000060 08 3e 3a 3e 90 5b 80 be ae dc 3e 3e c5 9e 30 bf
       0.18187726 -0.25069857 0.1863887 -0.68992263
000070 39 4f 11 3e 27 6a 5a 3d e9 93 86 3d b2 5b 0a bf
       0.14190377 0.05332389 0.065711804 -0.54046166
000080 1d e0 10 be 10 13 bd bb d9 c4 f6 3d 33 dd 37 3d
       -0.14147992 -0.0057700947 0.120492645 0.044888686
000090 6d 0d 47 be 63 69 87 3e fd b3 2c be 4c c0 2c bd
       -0.19438715 0.2644759 -0.16865535 -0.042175576
0000a0 d8 8b 59 3e 82 d3 99 3d b0 3e 44 3d 71 44 46 3e
       0.21244752 0.07511045 0.047911346 0.19362046
0000b0 0d d1 8d bc 66 9d ae bd ef e2 6c 3e 5c b5 93 be
       -0.017311597 -0.08526115 0.23133443 -0.28849304
0000c0 75 d8 c4 3b 7d fa 43 3c 31 b5 94 3d fa c6 0d 3f
       0.006007249 0.0119615765 0.07261122 0.5538174
0000d0 0b f8 08 3f bc 72 00 be 0b 57 b1 3e 62 d7 86 3e
       0.53503484 -0.12543768 0.3463672 0.263362
0000e0 86 e6 db bd df b9 52 be 20 4d 1d 3d 50 1b 4d 3d
       -0.10737328 -0.20578717 0.03840363 0.050074875
0000f0 96 53 eb 3e 71 2c 7c be 8a 94 e4 3d 09 73 cf 3e
       0.45962209 -0.24626328 0.11161144 0.40517452
000100 3f df 57 3e 77 c1 57 3d be 42 ae be b5 ff 02 3e
       0.21081255 0.052674737 -0.34035295 0.12792857
000110 5d 93 14 be 4a 13 0b bf 6f e1 ff 3d 7a a1 a3 be
       -0.1450934 -0.5432631 0.1249417 -0.31959134
000120 60 c9 1e be da ae 09 3e d4 b2 c4 bc 03 7e aa 3d
       -0.15506506 0.13445607 -0.024011053 0.08324816
000130 31 a4 0d 3e 07 ca 58 be 9f e5 d9 bd 04 a6 a2 be
       0.13832165 -0.21170817 -0.106395 -0.31767285
000140 03 b2 3f 3e 9a be 60 3d 04 0a 07 3e 09 12 cc bd
       0.1872025 0.05486927 0.13187414 -0.099643774
000150 58 7f 93 3e e5 88 2d be cc ce e8 bd ef 9d 88 be
       0.28808093 -0.16946752 -0.113675684 -0.26682994
000160 7a fd be 3d d0 c3 13 3d 3f 5e 23 3d d1 3e f3 3d
       0.093256906 0.036075413 0.039884802 0.11877216
000170 d5 18 09 be fe b8 4e be 60 b1 d5 3d ce 13 88 be
       -0.13388379 -0.20187756 0.10434222 -0.2657761
000180 63 1a f6 bd cb 97 8c 3e ab 9b c2 bc b0 83 8a 3c
       -0.120167516 0.2745956 -0.023755869 0.016908497
000190 94 5d fd bd fd 63 fd bd 74 fa c0 bd b4 d7 0b 3e
       -0.12371364 -0.12372587 -0.0942277 0.13656503
0001a0 27 78 ba 3e 0b cf 6f bc f2 a0 85 bd 88 a5 1d be
       0.36419794 -0.014636765 -0.065248385 -0.15395176
0001b0 49 07 33 bd 02 ce 32 3e b4 34 db bc f0 fd c3 3d
       -0.04370812 0.17461398 -0.02675853 0.09569919
0001c0 90 68 34 be 74 fd 25 be 96 56 8d be ed f3 91 bb
       -0.17618012 -0.16209966 -0.27605122 -0.004454127
0001d0 53 5e 9f be dc ef 1d 3e 0a 95 02 bc 08 a7 24 bd
       -0.3112665 0.1542353 -0.007970104 -0.040198356
0001e0 de af 86 3d 66 89 30 3d b8 91 d8 bb e4 da a6 bc
       0.06576513 0.043099783 -0.006609168 -0.020368047
0001f0 14 14 d8 bd e6 20 ba 3e 3c 17 18 3e af 84 a7 be
       -0.105507046 0.36353225 0.14852613 -0.32718417
000200 ce 70 88 3e ce 47 3b be eb 17 7d be 1b 5a d8 3d
       0.26648563 -0.1828911 -0.24716155 0.10564061
000210 a8 94 b7 bc fb 82 19 be a5 61 2f be 8a 0e b8 be
       -0.022409752 -0.14991371 -0.17127092 -0.35948592
000220 26 81 5e be a5 b5 18 3e 83 a1 72 bd b6 f9 39 be
       -0.21728954 0.14913042 -0.05923606 -0.18161663
000230 64 8d 66 be ec 70 25 bc 85 df 7f be fd 0f 8d bd
       -0.22514874 -0.010097723 -0.2498761 -0.06887815
000240 33 0b aa 3c 31 0a 81 3e ab e4 70 be 2a 95 dd 3e
       0.020757293 0.25203088 -0.2352473 0.43277866
000250 4b ae 88 be 27 64 4f be 71 8e 02 bf 3e 7a 8d 3e
       -0.26695475 -0.20253049 -0.509986 0.27632326
000260 60 46 44 3c 3d 4e b6 bd 65 51 ad 3b da 12 9c 3e
       0.011979669 -0.089016415 0.005289244 0.30483133
000270 62 f9 07 3f 60 1e 64 3e 19 fd af 3c dd ef 39 3d
       0.531149 0.22277212 0.021482991 0.045394767
000280 ab 02 0d 3e 0e 93 20 3e e6 ed 55 3e 40 08 0e bd
       0.13770549 0.15681097 0.20891532 -0.034675837
000290 7c 1f 28 3c 81 9b c6 3b c6 b9 25 be 37 88 93 3d
       0.010261413 0.006061018 -0.16184148 0.07203715
0002a0 07 cb 80 be 1f 54 cd 3a 7d ba d0 3d a4 2a 4d bd
       -0.25154898 0.0015665329 0.1019182 -0.050089493
0002b0 58 b8 6e 3e 43 5f dc bc 3d a6 cc 3d d9 e9 9f 3e
       0.23312509 -0.026900893 0.09992645 0.312331
0002c0 ca ac 86 3c 4b f1 d5 3c 1f a5 25 bd 20 17 65 be
       0.016439814 0.026116034 -0.040440675 -0.22372103
0002d0 26 75 10 be 5d b3 e9 3d 7b c8 71 3d b6 d2 ff 3d
       -0.14107189 0.11411164 0.059029084 0.12491362
0002e0 d1 ab e5 3d 52 df fd 3c 1d 72 2d be 9d 86 f2 be
       0.11214412 0.030990276 -0.16938062 -0.47368327
0002f0 22 92 9d 3e e3 38 69 be aa 77 21 3e 3b fc df bc
       0.30775553 -0.22775607 0.15768304 -0.027341953
000300 b3 c6 84 3e 9e 0f 11 3d 09 2d b0 bc 72 c7 96 3e
       0.25932845 0.035415284 -0.02150585 0.2944904
000310 8f 75 de 3d b0 3d f6 bd 9f 1d 26 be e1 1e 06 bc
       0.10862266 -0.12023485 -0.16222237 -0.008186073
000320 4e 13 38 bc f3 9a a2 3d 61 59 21 be 7f 1b 97 3e
       -0.011235071 0.079397105 -0.15756752 0.29513165
000330 e3 45 9c 3e b5 fc 86 be 98 c8 6f be 71 73 d2 ba
       0.3052207 -0.26364675 -0.23416364 -0.0016056133
000340 09 0f 8a 3e 9f 63 3a 3d 51 5b 0e 3e 0a 62 f9 be
       0.26964596 0.045505162 0.13902022 -0.4870761
000350 dd 56 63 be 7f d4 5f 3e 86 c0 cb 3d 13 e8 ba bd
       -0.22201104 0.21858405 0.0994883 -0.09126296
000360 22 c7 0f bf d0 40 54 3e 33 d9 81 be 4e 76 9a bd
       -0.5616323 0.20727849 -0.25361022 -0.07542096
000370 3b 6f 28 be 94 7a f9 bd 73 03 bb 3d 52 ca 2f 3d
       -0.16448681 -0.12181583 0.09131517 0.042917557
000380 d1 7b 96 be 74 22 af be ae d4 07 3d ce b1 a1 3d
       -0.2939134 -0.34205973 0.03316181 0.07895242
000390 aa d2 16 be 7c ab 81 3d c7 af b7 3c 8c d7 61 3e
       -0.147288 0.06331536 0.022422684 0.22054881
0003a0 8b 05 ba 3c 2a 66 90 3d d4 ff f0 3c 01 0a a9 be
       0.022707721 0.07050736 0.029418863 -0.33015445
0003b0 26 93 c6 bd b0 8b 97 3e e3 98 bf 3e 4a 87 15 be
       -0.09696035 0.2959876 0.3742133 -0.1460239
0003c0 93 89 09 be a0 56 ef 3e a4 c1 db bd 4e d0 71 3e
       -0.13431387 0.46745777 -0.107302934 0.23614618
0003d0 a7 ab 69 3e 46 07 3a be 41 fc e5 3e 52 90 96 bd
       0.22819386 -0.18166837 0.44919017 -0.07351746
0003e0 6f de e8 3e a1 e1 99 bc 07 d8 01 3e 46 87 c7 be
       0.45482203 -0.018784346 0.12680064 -0.38970393
0003f0 2b 63 b8 3d af a1 c3 3e d0 96 e2 3d 1b ec 8c 3e
       0.0900329 0.38209292 0.110639215 0.27523884

linears.2.bias f4 [20]
000000 c9 ca 78 be f5 2d 39 39 fe f0 fe bd 3e 97 03 3e
       -0.24296106 0.00017660095 -0.12448309 0.12850663
000010 92 50 94 bc e6 d8 42 bd 5d af 03 be 03 41 48 3e
       -0.018104825 -0.04757013 -0.12859865 0.1955605
000020 2c 71 58 3d 26 ea 9f 3b 6a 48 f1 3c 46 57 39 3c
       0.052842304 0.0048802076 0.029453475 0.0113123115
000030 ce 92 8f bd 3b 6c 1e 3e 9b 6f 8f 3d d1 ab 24 3d
       -0.07010423 0.15470974 0.07003709 0.04020292
000040 75 7d 19 bc 5b 7c 4e bd 36 b6 86 bd 43 3a 57 bd
       -0.00936829 -0.050411563 -0.06577723 -0.052545797

linears.3.weight f4 [20, 20]
000000 7a ca e9 3e 97 95 66 3e f9 f9 a2 bd b9 3c fd 3d
       0.4566229 0.22518001 -0.07957835 0.123650976
000010 a3 db 35 3e 25 ce 42 3c 28 e6 2f be 80 79 f6 bd
       0.17759566 0.011889969 -0.17177641 -0.12034893
000020 be f0 97 bd 4c fc 7f 3e 88 b4 34 3e 79 29 55 be
       -0.07418965 0.24998587 0.17646992 -0.20816602
000030 ed ac 46 3e 91 bf 94 be 71 26 fc 3d d9 01 a7 bb
       0.19401903 -0.29052404 0.123120196 -0.005096656
000040 ae ca 11 bf 13 6e 42 3d be 23 8c be f4 1b a6 3e
       -0.5694989 0.047468256 -0.2737102 0.32443202
000050 4e 29 23 be 69 26 2d 3e 5d 58 bf 3c d5 eb b6 3d
       -0.15933725 0.16909184 0.023357565 0.089317
000060 63 0f 9e 3d 0a af 4a be 9d de 3f be 3a 4a c8 3e
       0.077177785 -0.19793335 -0.18737264 0.3911913
000070 37 d5 3b be cf a6 1f 3e 4e 6e f3 3e d1 26 11 be
       -0.18343054 0.15590976 0.47545093 -0.14174964
000080 27 83 d4 3d b3 d0 39 be 6e 1c 14 be 2c 34 2d 3e
       0.10376578 -0.18146019 -0.1446397 0.16914433
000090 27 ad 01 be 36 04 dd 3d ed ce ae bc 6d 98 a1 be
       -0.12663709 0.10791819 -0.021338904 -0.31561604
0000a0 14 49 1c 3e b1 71 fb bd 6f 5d 3a 3e a2 46 8d 3e
       0.15262252 -0.12277544 0.18199705 0.2759295
0000b0 63 51 87 3d 6b 3e 91 3d 73 3d cb bc 34 ec d4 3d
       0.0660732 0.070919834 -0.024809575 0.10396615
0000c0 15 f4 5d 3c 79 ef 4b 3d 23 e3 02 bf 60 ed b1 be
       0.013546963 0.049788926 -0.51127833 -0.34751415
0000d0 a7 66 00 3e a5 db 8b 3e 83 d3 c9 3e ae 94 1d 3d
       0.12539159 0.27316013 0.39419183 0.03847187
0000e0 5e 1c 30 3d 12 c3 4c 3d da a4 42 3e d4 e0 5b bd
       0.042995803 0.04999072 0.19008198 -0.05368121
0000f0 ec 35 63 3e 45 3c ec bd c8 f5 8d 3e d6 a1 e0 3c
       0.22188538 -0.11534933 0.2772658 0.02742092
000100 c3 33 01 bd a9 62 3b 3e fa b3 a1 3e 92 09 90 be
       -0.031543504 0.18299355 0.31582624 -0.28132302
000110 39 9f 80 3b 32 33 95 3d d9 31 1a be 9c 5a f8 3d
       0.003925231 0.07285155 -0.15058078 0.12126657
000120 42 28 fa bc 4a 1b 91 be df 25 30 bd c6 13 7a 3d
       -0.030536775 -0.28341132 -0.043004867 0.061054014
000130 cc 6d 0d 3f a2 b1 a2 3c eb 52 32 be 7b a7 f1 bc
       0.5524566 0.019860093 -0.17414443 -0.029498806
000140 68 f8 43 be 68 dc aa bd a8 9c 43 3c 99 b1 02 bf
       -0.19137728 -0.083428204 0.011939205 -0.5105224
000150 b9 4e 03 3e da b7 b4 bd 63 dc 96 3e 35 13 2c be
       0.12822999 -0.088241294 0.29465017 -0.16804202
000160 e8 b9 35 bd 6b 8d 11 be 61 8b 9d 3d 35 34 90 be
       -0.044366747 -0.14214103 0.076926 -0.2816483
000170 1b a9 87 3e 81 37 a0 bd 99 cb 06 bc f5 a4 b9 bd
       0.26496205 -0.078230865 -0.008227252 -0.09064666
000180 9f cc 3c 3f 43 8e 00 3f aa 7d 63 bc ab 2a dc be
       0.73749727 0.50217074 -0.013884941 -0.43001303
000190 fe b8 af bd 00 57 52 be 95 13 cc 3e 77 b7 40 be
       -0.08580206 -0.20541 0.3985869 -0.18819986
0001a0 53 d7 8d be 1d ac 50 be 33 d8 aa 3e 38 f1 09 3e
       -0.27703342 -0.20378156 0.33368072 0.13470924
0001b0 d0 bd 1f 3f 81 48 7b be a2 cf 7d bd 8d d5 81 be
       0.62399006 -0.24539377 -0.061965592 -0.2535824
0001c0 cd cc f3 3d e2 6f 32 3e e1 df d0 be ed ee 21 be
       0.11904297 0.17425492 -0.40795806 -0.15813799
0001d0 b0 d9 c6 3d 32 ed 1d be ce 2d 00 3e 44 7c 0e be
       0.09709489 -0.15422514 0.12517473 -0.13914591
0001e0 76 55 ee bd ba ad a0 be e9 4f a6 3d df 36 23 be
       -0.11637394 -0.31382543 0.081207104 -0.159389
0001f0 d9 99 c4 3e 08 79 9c 3e 76 52 71 bd c5 16 4d bf
       0.38398626 0.3056109 -0.05891653 -0.8011287
000200 c5 f5 aa 3d 88 44 b8 3b 41 3d 5e be 85 b9 4c 3e
       0.08347658 0.005623404 -0.21703054 0.19992645
000210 48 63 bd be f9 73 b1 3d 9d 5d 8b be b4 b0 05 3f
       -0.36989808 0.08664698 -0.2721986 0.5222275
000220 b6 13 a5 be ee 27 59 bd 5c 48 d4 3e e6 1b ef b9
       -0.322416 -0.053016596 0.41461456 -0.00045606418
000230 37 09 1e bf a0 88 2a bf 8e d5 60 3e 4d f6 4c bf
       -0.6173281 -0.66614723 0.21956465 -0.80063325
000240 54 d9 83 be 18 bf a8 bc 6c c5 6d be 40 4a 59 3e
       -0.25751746 -0.020598933 -0.23219842 0.2121973
000250 5a 9f 5e bd 5c b0 4e 3d 1b 09 ee be 82 e4 3b 3d
       -0.05435119 0.05046116 -0.46491322 0.04587222
000260 2e 0c a7 3e 96 8e 14 3e 24 5a e4 be d6 03 19 be
       0.3262648 0.14507517 -0.44600022 -0.1494287
000270 ba 58 1c 3e b1 c1 33 bd 48 c5 d2 3d 49 20 3a 3e
       0.15268221 -0.04388589 0.10291535 0.18176378
000280 d9 d8 7e be e8 2e a3 bd 15 90 65 3c 39 bd 23 be
       -0.24887408 -0.07967931 0.014011403 -0.15990151
000290 02 1c 52 be 35 bd d0 3d 31 a0 1e bd 4a 8d 4a 3d
       -0.20518497 0.101923384 -0.03872699 0.04945115
0002a0 0d bc 93 be 73 a1 a6 3d 4d 92 e5 bd 9f e9 81 3e
       -0.2885441 0.08136263 -0.11209545 0.2537355
0002b0 7e ef 2a 3d 25 53 ce 3e d2 6a 33 3e 4b 15 a7 3d
       0.041732304 0.4029781 0.17521217 0.08158358
0002c0 02 8c 31 3d 01 4c 8c 3e f8 a3 cf 3e 3b 39 f6 be
       0.043346412 0.27401736 0.40554786 -0.48090538
0002d0 a5 bb e2 3e 06 68 06 bf 3e 82 07 be 69 93 b5 3e
       0.44283786 -0.5250248 -0.13233277 0.35464028
0002e0 a3 ce b9 bc 63 e7 36 be 92 fb 24 3e 47 b9 e0 3e
       -0.02268154 -0.17861705 0.16111591 0.43891355
0002f0 87 ad 5a 3d 48 e6 73 bd 76 04 90 3e 4c 82 1e be
       0.053388145 -0.059545785 0.28128403 -0.15479392
000300 15 42 82 3c d8 d6 04 bd 98 b6 c0 3d db d9 3b bd
       0.015900651 -0.032431453 0.09409827 -0.04586206
000310 16 80 36 3d 45 00 a2 bd 66 e7 81 3c 70 5b c8 3e
       0.044555746 -0.07910208 0.01585741 0.3913226
000320 ef 1b 86 3e 6d fb a7 3e e4 90 9a bd fc 87 a1 bd
       0.26193187 0.3280901 -0.07547167 -0.07887265
000330 98 20 a5 3e 2e a6 09 be 71 83 ed bd b7 b5 1f 3e
       0.3225143 -0.13442299 -0.11597336 0.15596662
000340 0b e2 21 3e d5 ef 82 bc 3b e4 5e be 55 e6 d5 3d
       0.15808885 -0.015983501 -0.2176675 0.10444323
000350 b2 5d 80 3d db e4 3d 3e 25 4a 50 be 94 4c 07 3e
       0.06267871 0.18544333 -0.20340784 0.13212806
000360 92 2e 34 be 30 f4 96 3e a0 28 db bd 43 58 02 bf
       -0.1759589 0.29483175 -0.10701108 -0.50915927
000370 27 84 36 3d bf 29 ee 3d 6c 5d 41 be ef 01 38 bd
       0.044559624 0.11629056 -0.18883294 -0.04492372
000380 1c 00 d5 3d 59 ce c0 3e 38 b2 8a be e2 52 29 bb
       0.104004115 0.3765743 -0.27089095 -0.0025836756
000390 a1 37 db bd 59 1d 9d be 88 2b 73 bd 22 5d 72 be
       -0.1070397 -0.30686453 -0.059367687 -0.2366834
0003a0 f1 e2 50 be 2b f6 7a 3e d3 d9 17 be 89 dc 8d 3e
       -0.20399071 0.24507968 -0.14829187 0.27707317
0003b0 ec b1 80 3c 9c d3 0a bf 05 56 a9 be 1b 1c 61 be
       0.01570984 -0.5422914 -0.3307344 -0.21983378
0003c0 ca ac a0 3c df 85 2f 3c 92 71 cd bc 80 45 ba 3b
       0.019613642 0.01071307 -0.025078569 0.0056845546
0003d0 4b c0 42 3d 97 4b a6 be ad 61 93 3e 36 04 0b 3b
       0.047546666 -0.32479545 0.28785458 0.0021212227
0003e0 ac dd d9 bd 05 40 13 be e9 3b 97 3e 11 07 74 be
       -0.10637984 -0.1437989 0.29537895 -0.2383082
0003f0 74 ea 0f 3e f7 7e 18 bf 20 36 11 bb 7a 93 aa bd
       0.1405428 -0.5956873 -0.0022157505 -0.0832891

linears.3.bias f4 [20]
000000 d4 d5 34 be 4b 49 a1 3d 99 6b b8 3d 24 86 32 bd
       -0.17659694 0.07875308 0.090048976 -0.043584958
000010 ad d5 8e bd d3 e1 5e bd d7 a0 80 bd a5 0d 11 be
       -0.06974349 -0.05441458 -0.06280678 -0.14165361
000020 8b 0d 43 be 28 37 ca 3d 77 56 e2 3d 1e 6c c1 3c
       -0.19048135 0.098738015 0.11051648 0.023611125
000030 50 18 b0 bd b5 cb ab bd b7 05 11 3d ee e3 00 3e
       -0.08598387 -0.083884634 0.03540584 0.12586948
000040 9d 33 93 bd 84 20 e0 bc 53 5c 3b bc 7c 9a 85 bd
       -0.07187579 -0.027359255 -0.011435586 -0.06523606

linears.4.weight f4 [20, 20]
000000 e0 9c 08 bf ab a1 53 be 00 37 89 be bb 14 cb 3d
       -0.5336437 -0.2066714 -0.26799774 0.099160634
000010 77 db e7 bc bf 91 d8 3e 5b 0c ee bd e3 08 c6 3d
       -0.028302891 0.42298695 -0.1162345 0.09669664
000020 b6 df 94 3e 3c c9 b7 be 05 b5 2e 3b 2d f2 7f 3d
       0.29076928 -0.35895717 0.002665819 0.062486816
000030 af e6 b9 3d b6 c7 18 be ab cd b3 bd 5e fd 75 be
       0.090772025 -0.14919934 -0.087794624 -0.24022433
000040 0d b2 b5 bd fe 45 f7 3d 98 e1 be bd 9c b8 40 3e
       -0.08871851 0.12073897 -0.09320372 0.18820423
000050 da 26 00 3e ee 81 41 3e ea c5 3f be 7e de 3a be
       0.1251482 0.1889722 -0.18727842 -0.18248937
000060 ed eb 9c 3c 3b ae e2 3e b0 c0 3a be 48 1f d5 bc
       0.019155467 0.44273552 -0.18237567 -0.026015893
000070 57 06 9f be 52 1a 5c bd 58 eb ef bd 35 8e 2b 3e
       -0.31059524 -0.05373604 -0.1171481 0.16753466
000080 dc 9e a1 3c e0 88 b8 3e 75 f8 a0 bd 98 dd 56 be
       0.01972907 0.36041927 -0.078598894 -0.20982969
000090 ac 4b 5c 3e d9 59 9c 3a a5 16 17 be 3c 68 12 be
       0.21513242 0.0011928632 -0.14754732 -0.14297575
0000a0 3a 02 6c 3d 5f 4e 65 3d 41 b0 e8 be fa 1a f1 be
       0.05761931 0.055982944 -0.4544697 -0.47090894
0000b0 45 d8 b7 bd 1a dc b2 3e 69 3b 1a bf 2f 66 97 3e
       -0.08976797 0.3493355 -0.602469 0.29570147
0000c0 26 d5 44 be 65 ee 85 be 8f 73 ce 3d 39 28 e2 be
       -0.19221935 -0.26158443 0.10080635 -0.44171312
0000d0 ec 9f fa bc 0b 7c 0b be df 88 d7 bc 43 3f 3e be
       -0.030593835 -0.13621537 -0.026310382 -0.1857882
0000e0 c0 4c bb bc 04 d8 9c 3e 84 41 39 3c 0a 23 02 3e
       -0.022863746 0.30633557 0.011307124 0.12708679
0000f0 5b ad e7 be 4b 71 59 3d fe ff e6 3e 51 f1 6a 3d
       -0.45249447 0.05308656 0.45117182 0.057359044
000100 19 00 b8 bd ce 8d 1c 3e 90 9f 5f bd c9 23 44 3e
       -0.089843936 0.15288469 -0.05459553 0.19154276
000110 e8 4b 71 3e 67 50 8b 3e 8e 1f 89 be 41 34 d3 3d
       0.23564112 0.2720978 -0.26781887 0.10312701
000120 3f 3b b7 be 6c 3b 46 be 53 7b b1 3c 29 d3 b6 3e
       -0.3578739 -0.19358605 0.02166525 0.35707977
000130 50 bb 92 3d d5 86 47 be f2 da 93 be 0a bb be 3d
       0.07164633 -0.19485028 -0.2887798 0.093130186
000140 f3 27 9d 3e a0 19 82 bd d0 24 c2 3e 29 1b 5f be
       0.3069454 -0.06352544 0.3791871 -0.21787705
000150 39 38 d5 3d 5b 16 23 3c c9 c7 6e be 0b ba 98 be
       0.10411114 0.00995406 -0.233184 -0.2982944
000160 cc 7a 67 be 40 61 c6 3d e2 75 a5 bd 29 7e 3f 3e
       -0.22605437 0.09686518 -0.08079125 0.1870047
000170 2f 54 87 3e 0c 59 2e 3d 80 73 54 bd ac 5a 45 3e
       0.26431414 0.04256539 -0.051867962 0.1927287
000180 46 cb aa be e2 65 be bd c0 35 44 be b9 36 0b 3d
       -0.3335821 -0.09296776 -0.19161129 0.033987734
000190 f6 19 a1 be af fa d5 bd ad 05 b1 bc 1f 23 1b be
       -0.3146512 -0.10448205 -0.021609152 -0.15150116
0001a0 3a f4 0b 3d 47 08 96 bd 92 fc 84 3d 28 48 08 3e
       0.03416846 -0.073257975 0.064934865 0.13308775
0001b0 5e cb f9 3e 21 88 35 3e f2 b4 01 3e 87 66 05 be
       0.4878797 0.1772771 0.12666681 -0.13027392
0001c0 4a 80 84 be 66 6d 0c be 3b 48 f0 be 73 4b 97 3e
       -0.25879127 -0.13713607 -0.46930107 0.2954975
0001d0 04 13 4b 3e 73 66 8d 3e 4f ba 8e 3d f5 a3 8f be
       0.19831473 0.27617225 0.06969129 -0.28054777
0001e0 1a a0 dc 3e 77 ec 2b be 65 f4 71 be e4 e7 db 3e
       0.43090898 -0.16789423 -0.23628385 0.42950356
0001f0 78 61 04 3e 69 1d 47 bd 37 ab 03 3e d3 12 ea be
       0.12927806 -0.048612032 0.12858282 -0.45717487
000200 21 44 64 3d 88 9d 66 be ee 7f 2c be e8 4f 2e be
       0.055729035 -0.22521031 -0.16845676 -0.1702267
000210 c9 9e 31 3e 45 f4 6c 3e ab 9d 06 3b 0d 99 89 be
       0.17345728 0.23140056 0.0020540755 -0.2687458
000220 72 12 84 be c8 23 af 3e 1c 2e ec bc a4 ba 2b 3e
       -0.25795323 0.34206986 -0.02883058 0.16770416
000230 87 08 f8 bd 1c d7 9a bd 36 fc ab 3e 5a 3f a3 3d
       -0.121110015 -0.0756056 0.3359086 0.07971068
000240 8b 64 4f bd ed c1 e3 3d 12 0d 5e 3e d2 e5 82 3e
       -0.050632995 0.11120973 0.21684673 0.25565964
000250 37 b2 1c 3f c0 73 04 be 66 5d 95 bd 96 95 b8 be
       0.61209434 -0.1293478 -0.07293205 -0.36051625
000260 80 86 b2 3e cb 7f 43 bd c9 ea b4 be 55 3c 0f 3d
       0.3486824 -0.047729295 -0.35335377 0.034969646
000270 80 c4 1d 3e 25 07 2f 3c 88 ab 3e 3e c6 a1 ae be
       0.1540699 0.010682856 0.18620121 -0.34107798
000280 14 a4 19 be cd 14 43 be b8 44 3b be ca 26 f2 bd
       -0.15003997 -0.19050904 -0.18287933 -0.11823805
000290 08 df 1d bb 22 a0 c5 3e da 21 a2 3d 35 00 98 3e
       -0.0024089236 0.38598734 0.07916613 0.29687658
0002a0 0c c5 94 bb 95 3e 95 be b5 6e 2c 3e 3b d0 6f 3d
       -0.0045400914 -0.2914931 0.16839106 0.058548193
0002b0 c6 d9 da 3c 66 0b 28 3e c9 d8 52 be 22 aa f6 3e
       0.02671517 0.16410598 -0.2059051 0.48176676
0002c0 4f e2 8a bc 20 bd 80 3d f7 6f cf 3e 87 85 f6 3e
       -0.016953615 0.06286073 0.4051511 0.48148748
0002d0 df 68 d9 3d bb ce b5 3e 26 09 95 3e 98 75 d3 3c
       0.10615706 0.35509285 0.29108542 0.025812909
0002e0 31 ea b9 be 33 00 2b be 60 e0 1f be fa 1b 1b 3e
       -0.36311486 -0.16699295 -0.15612936 0.15147391
0002f0 23 d1 db bb c2 b4 aa be 70 68 56 3c 3a 01 05 be
       -0.0067082806 -0.33341032 0.013086423 -0.12988749
000300 87 c2 ce 3d 21 9e 2d 3c 92 2a 02 bf 5f 47 82 3b
       0.10095697 0.010596783 -0.5084621 0.0039757933
000310 88 0f ae 3d ff 29 a6 be 72 76 c3 3e b4 7f cd be
       0.08499056 -0.32453915 0.38176304 -0.40136492
000320 0c 33 fe bd 83 87 e6 3e f0 ed 99 3e 28 74 3b 3e
       -0.1241208 0.45025262 0.30064344 0.18306029
000330 c7 6b 6d be 87 f0 a1 be 5f fe a7 3e b4 d7 51 3e
       -0.23185645 -0.3162882 0.32811257 0.2049244
000340 38 51 ae 3d 84 26 3b bd ed 50 00 3f d9 42 84 3c
       0.08511585 -0.04569103 0.5012348 0.016145157
000350 a2 2c 40 3e 3f 8e 4f 3e c2 ae 31 bd 02 fd 88 3e
       0.18767026 0.20269106 -0.043379553 0.2675553
000360 37 ce fc bc cb 1e ff 3c 2a ea 8f be b3 b7 3b be
       -0.03086005 0.031142613 -0.2810834 -0.18331794
000370 99 7f 44 be 58 1d e0 3d a3 18 2b 3e e1 29 89 3d
       -0.191893 0.10943097 0.16708617 0.06697441
000380 e1 1d 96 be 7f cb 6b be 49 9a 35 bd 67 74 4b bf
       -0.2931967 -0.23026846 -0.04433659 -0.7947449
000390 1a c4 c4 be 4b af f6 3d 33 6a ba bc 0d 35 6e 3d
       -0.38430864 0.12045153 -0.022755718 0.058156062
0003a0 92 3b a6 3c 64 1a 23 be 83 26 d0 3e 6f c6 26 3d
       0.020292077 -0.15928036 0.40654382 0.040716585
0003b0 0f de f9 be 0d d3 c0 3d d9 68 41 be aa 15 e1 be
       -0.4880223 0.09415255 -0.18887652 -0.4396184
0003c0 68 a4 57 3d a8 9b f7 bd ae 10 5b be 76 cb 3c be
       0.052647024 -0.12090236 -0.21393082 -0.18436989
0003d0 fe b9 2e 3e c2 65 0d 3f c7 b5 82 bc b4 71 ae 3a
       0.17063138 0.55233395 -0.015955819 0.0013309033
0003e0 22 ea fa 3d 02 a7 11 be 00 ee ec bd 8c e1 6e 3e
       0.122516885 -0.14223865 -0.115688324 0.23328227
0003f0 db 71 8b bd 17 8b 82 3e 85 fb d0 bc b7 c2 09 3e
       -0.068088256 0.25496742 -0.025510559 0.13453184

linears.4.bias f4 [20]
000000 0c 4c b2 bc 73 98 3f 3c da 2b 8f 3c 0f ba fb bb
       -0.021764778 0.011694062 0.017476965 -0.007682092
000010 b8 07 0e bd ff a3 ad 3c 2e 29 0a be 4a 94 47 bd
       -0.03467533 0.021196363 -0.13492271 -0.048725404
000020 a6 1b ca bc ed 48 66 bc c7 b2 10 bc 1b 38 45 3e
       -0.024671387 -0.014055473 -0.008831686 0.19259684
000030 56 bc 06 3c e3 89 8f bc ba fd 0c 3d 67 49 47 bd
       0.008223614 -0.017521804 0.03442166 -0.048653986
000040 61 a1 93 bb 42 99 32 3c 79 d0 31 bd fa ee a3 bd
       -0.004505322 0.010900797 -0.043411706 -0.080045655

linears.5.weight f4 [1, 20]
000000 b4 e6 0f 3e 49 02 da bd 0d a4 9b 3d f2 01 0e 3f
       0.1405285 -0.10644967 0.075996496 0.5547172
000010 1d df b1 be 64 86 1f 3f 76 0a 18 bf 8f cf 0a 3f
       -0.34740534 0.6231444 -0.5939096 0.5422296
000020 04 40 da 3e 84 16 63 3e 27 86 97 3e 0b f7 52 bf
       0.42626965 0.22176558 0.29594538 -0.8240821
000030 48 64 d0 3c 67 fd 81 be bc cc 6f 3e a1 fe f5 3e
       0.025438443 -0.25388643 0.23417944 0.4804583
000040 42 5f 5b 3e b6 bf 3f bd 57 60 5d 3e ff b5 57 3f
       0.21423057 -0.04681369 0.21618782 0.8426208

H1.weight f4 [20, 2]
000000 e4 65 b4 3c 03 df 53 be a1 ee 19 3e 68 87 87 3e
       0.022021241 -0.20690541 0.15032436 0.26470494
000010 5d 52 95 be ed 7a 20 3f af e2 e2 be a1 8f 0a bf
       -0.291644 0.6268757 -0.4431357 -0.5412541
000020 50 8f 96 be e4 ab 89 3d b8 c4 4d 3c 7a ec 3e 3d
       -0.29406214 0.06722239 0.012559108 0.04661224
000030 da 2c 77 3e c8 30 da bd 26 72 57 be 83 78 ba 3d
       0.24138203 -0.106538355 -0.21039638 0.09105017
000040 fa 98 52 bd 8f 54 95 be 91 fd 05 bf 40 31 ea 3e
       -0.05141542 -0.29166076 -0.52340037 0.457407
000050 e4 0b c3 3e cd bb 9d be 2a d2 9e 3e 0c cd 8d 3e
       0.3809501 -0.30807343 0.31019717 0.276955
000060 25 de 08 3e c5 80 03 be b7 bd 07 3f ac 48 4c be
       0.13365991 -0.1284209 0.53023857 -0.19949597
000070 25 ad cf 3e 0d b5 ac be 8f cb ed 3e db e6 1f bf
       0.40561786 -0.3373188 0.46444365 -0.6246163
000080 e8 7c 47 3e d6 00 7c be a3 b4 86 3e e2 39 17 3f
       0.19481242 -0.24609694 0.2630969 0.590727
000090 50 b4 33 bd 0d b7 be bd 41 43 14 be 7d b3 04 3d
       -0.04387313 -0.09312258 -0.1447878 0.032397736

H1.bias f4 [20]
000000 31 bb a0 3d 8e 98 45 be ed 83 38 3c 33 45 c5 3e
       0.07848204 -0.19296476 0.011261922 0.38529357
000010 a4 67 63 be 69 96 20 3e f4 b5 37 3e 07 d3 95 be
       -0.22207505 0.15682377 0.17940503 -0.29262564
000020 da e0 91 3e 66 cb 8c be 7c 55 49 3f eb 17 a8 be
       0.2849186 -0.2749893 0.78646064 -0.32830748
000030 a5 b5 80 3e 37 4a 64 3e 21 23 eb 3e 81 b6 d2 3e
       0.25138584 0.22293936 0.4592524 0.41154864
000040 b5 85 6c 3d 53 b6 3e 3e 7b c8 cd bd f1 e2 e5 bd
       0.0577447 0.18624239 -0.10048004 -0.11224926

d f4 [1761]
000000 c5 bf f4 39 52 80 e1 ba af ad 2e bb c8 ec 23 39
       0.00046682186 -0.001720438 -0.0026653816 0.00015633099
000010 f5 a5 3b bb f5 2a ac bb 82 61 e8 3b b3 e6 fa 3a
       -0.0028632854 -0.0052541443 0.007091702 0.001914224
000020 d4 1b 02 39 d8 29 2d ba c9 da 0b bb e1 f8 6f 39
       0.00012408133 -0.00066056615 -0.0021340123 0.00022885531
000030 29 d0 32 3b 7c 72 54 3b 62 31 28 bb c1 8f 16 ba
       0.0027284718 0.003241687 -0.00256642 -0.0005743467
000040 1e 91 6c 3a 70 8b ef 3a ac 14 08 bb f9 1b 33 3a
       0.00090243097 0.0018275809 -0.0020764275 0.00068324764
000050 c1 27 31 3a 3f 6d 3f bb 5e 8d 20 ba 5b f7 43 3a
       0.0006757938 -0.0029209403 -0.0006124581 0.00074755185
000060 63 fc b4 38 8f 40 b7 3b 94 d0 bd b9 ea e4 ad bb
       8.6300795e-05 0.005592413 -0.00036204292 -0.0053068297
000070 f7 b1 3d ba 69 37 70 ba fd 42 44 bb de f1 9d bb
       -0.00072362967 -0.000916353 -0.0029947155 -0.0048200926
000080 40 94 68 3a 97 d8 76 3a 25 85 04 bb e3 f2 fa 39
       0.00088721886 0.00094164297 -0.0020220962 0.0004786468
000090 dc 0d 47 3b 19 95 d1 3a ae 31 b6 ba 02 ed 96 38
       0.003037325 0.0015989869 -0.0013900304 7.1967035e-05
0000a0 79 49 99 39 c2 20 83 ba ab 4d 2c ba 34 ec e2 3b
       0.00029237175 -0.001000427 -0.0006572853 0.0069251303
0000b0 ed be 03 bb ef a6 96 3a e6 4a dc 3a 2f c7 ea ba
       -0.0020102814 0.0011493842 0.001680699 -0.0017912145
0000c0 ef 67 56 3b 70 13 11 bb c8 38 80 3b 56 fb 2b bb
       0.0032715758 -0.002213683 0.003913019 -0.0026242337
0000d0 6b 14 36 3b 89 d1 f9 3a d7 67 78 3b 58 29 fa 3a
       0.0027783166 0.0019059639 0.003790369 0.0019085808
0000e0 f4 7f f2 3a 08 12 31 3b 2c 7f a2 3a 7d 83 a3 ba
       0.0018501268 0.0027018804 0.0012397519 -0.00124751
0000f0 d3 eb fc 39 ff a9 4d ba b6 60 25 ba 8b 80 de 3a
       0.00048240888 -0.0007845461 -0.00063086615 0.0016975565
000100 23 04 07 b9 8f e9 cc b8 a7 71 ec 38 27 c8 99 38
       -0.00012876144 -9.770982e-05 0.00011274526 7.33289e-05
000110 6a 3a c6 39 0d 5f b9 b8 87 b9 31 3a 6f 8a 51 ba
       0.00037809025 -8.839192e-05 0.000677966 -0.00079933455
000120 dd bc 76 39 90 9a 92 b9 c9 fb e2 39 1b 44 f3 b8
       0.00023530745 -0.00027962448 0.00043293674 -0.000115998286
000130 9b 79 9b 39 ea 1b 98 ba e6 85 90 39 cb e7 0a b7
       0.00029654507 -0.0011604999 0.00027565582 -8.2794095e-06
000140 ca 27 0f ba 87 c8 97 3a cc f4 02 3a 88 3d 56 bb
       -0.0005460946 0.0011580148 0.0004995584 -0.0032690484
000150 51 da 70 38 79 5f 5f 39 f8 ad 58 b9 78 55 3b 37
       5.7423782e-05 0.00021302504 -0.00020664174 1.1165968e-05
000160 02 62 83 ba 49 10 94 39 26 17 7e b9 65 69 db 3a
       -0.0010023715 0.00028240893 -0.00024231951 0.0016739784
000170 1d 65 96 b9 a3 33 ae 39 1d d9 4b b9 1d a6 99 39
       -0.00028685565 0.0003322634 -0.0001944047 0.00029306198
000180 aa 1e dd b9 ea d1 ab 3a 54 a0 97 b9 f9 21 5f 39
       -0.0004217525 0.0013108824 -0.00028920418 0.00021279593
000190 f5 a2 56 b7 d6 c8 8f b9 09 a3 89 ba 66 1f 34 3b
       -1.2793335e-05 -0.0002742472 -0.0010500859 0.0027484535
0001a0 0c 0a 86 3a 06 c6 20 ba 20 e6 fd b9 a7 9d 7b 3a
       0.0010226383 -0.00061330234 -0.00048427377 0.0009598382
0001b0 58 36 f3 39 a8 f2 6d 37 43 b8 1c bb 88 ac 4e ba
       0.0004638906 1.4182799e-05 -0.002391354 -0.00078839855
0001c0 a6 f2 cd b9 b2 af 8b ba d4 bc 9e ba 98 3e 1d ba
       -0.00039281434 -0.001065722 -0.0012110719 -0.0005998402
0001d0 65 6b e4 b8 13 7f 3a bb 72 02 ea 39 c4 52 83 39
       -0.00010891891 -0.002845709 0.0004463378 0.00025047932
0001e0 f3 f6 b1 39 d8 0f d8 b9 ba e9 6a ba 1a 6d 9a 3a
       0.00033944062 -0.00041210535 -0.00089612196 0.0011781782
0001f0 1f a3 ca b9 b3 10 9b 39 b6 2c 24 39 fd 21 a1 b9
       -0.00038649977 0.00029576346 0.00015656915 -0.00030733636
000200 a7 85 da 36 0a 5a a8 b9 10 bb 45 3a 6d 8c 64 ba
       6.5124655e-06 -0.0003211054 0.0007542828 -0.0008718435
000210 6d 4d 33 3a 28 ab 5b 39 4a f4 3e 3a 46 5f 13 39
       0.00068398454 0.00020949228 0.0007284327 0.00014054505
000220 08 5e b5 39 40 0f 2d ba 65 9a e1 37 d4 03 77 b9
       0.0003459307 -0.00066016987 2.6893986e-05 -0.00023557182
000230 44 61 be 39 5b 33 0a ba 6f 59 8d ba a1 c4 90 3a
       0.00036312093 -0.0005271935 -0.00107841 0.0011044928
000240 9c 7f 7a b9 79 5b c5 b9 88 29 e6 39 f0 4c 80 b8
       -0.00023889396 -0.0003764292 0.00043899962 -6.117846e-05
000250 e2 23 7f 39 1a 6d 94 ba 38 0d 24 3a 42 ae 49 ba
       0.00024332062 -0.0011324019 0.0006258073 -0.0007693508
000260 37 9f 6e 3a 08 98 b3 b8 e7 15 5c 3a 52 f3 34 3a
       0.00091027044 -8.563703e-05 0.00083955977 0.00069027126
000270 d6 dd 91 39 8d 08 c6 ba 04 2a dd 39 27 5f b8 b9
       0.00027821836 -0.001510875 0.0004218371 -0.0003516611
000280 e1 83 24 38 74 ab 5d b8 2b ba 76 39 86 0e 55 ba
       3.922347e-05 -5.2850184e-05 0.00023529741 -0.00081274693
000290 ad 6c 0d b8 38 08 11 39 4f 22 6b b9 1e 01 7a 38
       -3.3718232e-05 0.0001383134 -0.00022424127 5.9605685e-05
0002a0 f9 8b 25 b9 30 cf 44 3a 52 e5 20 38 ac 2c 03 3a
       -0.0001578777 0.000750768 3.8360544e-05 0.000500391
0002b0 62 a1 1b ba 8c 7a 8e 38 54 70 95 b9 04 7f b1 38
       -0.00059368287 6.793914e-05 -0.00028503186 8.463676e-05
0002c0 2d 00 f9 b8 19 7d 7e 3a 5b a2 64 b6 57 c6 c7 39
       -0.00011873278 0.0009707972 -3.406915e-06 0.00038104012
0002d0 14 01 bc 38 cc 59 35 3a a1 b1 bb b9 12 f9 00 bb
       8.9647394e-05 0.0006917983 -0.00035799763 -0.0019679707
0002e0 cd 96 3b ba 7e 8c e9 39 63 d0 96 39 08 a4 f1 b9
       -0.0007155955 0.00044545898 0.0002876549 -0.00046089315
0002f0 65 52 89 b9 48 52 cf ba bd 25 68 3a c7 bc 91 3a
       -0.00026192065 -0.0015817368 0.0008855721 0.0011118882
000300 20 12 2f 3a 49 ab 84 3a a1 14 b2 3a f1 a0 05 3b
       0.0006678421 0.0010121848 0.001358647 0.0020390118
000310 34 d9 bf 39 b1 f2 a8 3a 3e 14 e1 b9 58 87 a5 b9
       0.00036592188 0.001288971 -0.00042930426 -0.0003157209
000320 1b a7 f9 b8 c0 9e 13 ba f1 ba 5d 39 8d ea cb 39
       -0.00011904371 -0.00056312606 0.00021145843 0.0003889393
000330 d6 8b cd 3a 7f e2 66 ba 6f e9 56 ba 90 cb 38 3a
       0.0015681933 -0.0008807554 -0.00081982365 0.0007049376
000340 94 f0 24 3a ba e5 93 38 eb c9 ca ba 7a c0 c9 b9
       0.00062919524 7.052296e-05 -0.0015471553 -0.00038481114
000350 e8 c4 3e ba 26 5d a2 ba d6 66 86 ba 65 b7 bd 3a
       -0.0007277266 -0.001238738 -0.0010254036 0.0014474211
000360 72 48 4b ba 4b 33 fa b9 b8 48 c2 39 c7 73 b1 39
       -0.00077546306 -0.00047721932 0.00037056743 0.00033846332
000370 ad 19 0d 3a 0f 5f b2 b9 0e 93 2f ba e4 e7 1d 3a
       0.0005382549 -0.0003402163 -0.0006697633 0.0006023629
000380 2c 47 08 ba 78 91 ff b7 83 25 a8 39 7e dc 8c b9
       -0.0005198594 -3.0466108e-05 0.00032071405 -0.0002686716
000390 aa 9a 11 b8 5a f5 1d ba cc e1 81 3a 26 78 00 ba
       -3.4714736e-05 -0.0006025635 0.0009909212 -0.0004900716
0003a0 f7 10 1f 3a 29 17 6c 39 5e 3e 76 3a da e4 98 39
       0.00060678966 0.00022515342 0.00093934487 0.00029162207
0003b0 72 99 d3 39 aa de f7 b9 d9 8d 9b 39 b9 c4 db b8
       0.00040359382 -0.0004727741 0.0002966959 -0.00010479376
0003c0 74 ce 02 ba db f1 1b 3a b3 b9 da 39 a0 7e ec ba
       -0.00049898704 0.000594882 0.00041718557 -0.0018043108
0003d0 dc cd 16 b9 98 0c 4b 39 44 6e 11 39 2a 00 9e b9
       -0.00014381803 0.0001936428 0.00013869355 -0.0003013623
0003e0 1d 28 82 b9 ff 03 17 ba aa 8e 2b b9 c1 54 23 3a
       -0.0002482542 -0.00057607883 -0.00016360977 0.0006230586
0003f0 30 82 6d b7 09 f6 6f 3a 35 a0 87 38 38 0f 8c 3a
       -1.4156612e-05 0.00091537886 6.4671425e-05 0.0010685688

old_dirs f4 [1761]
000000 c6 c9 71 39 b6 f2 a8 3a 96 72 e6 ba f6 a7 18 bc
       0.00023058717 0.0012889716 -0.0017581757 -0.009317389
000010 40 01 3e b9 30 5f 47 ba 36 8e 93 ba f0 79 b6 3a
       -0.00018120278 -0.00076054316 -0.0011257592 0.0013921838
000020 4b 8f 04 bb 2c 6a 37 bc 40 11 5c 37 38 02 9b 39
       -0.002022701 -0.011194747 1.3117038e-05 0.00029565557
000030 ec 3d 8f 39 00 5a c8 3a 06 90 3e bb 21 69 99 bc
       0.0002732122 0.0015285611 -0.0029077544 -0.018726887
000040 da 88 5f 3a 30 c3 b4 3b 56 3c 09 3a 64 0a 77 3a
       0.00085271674 0.005516432 0.0005235126 0.00094238506
000050 0c fa ef bb 19 8e 11 bd 86 d7 85 ba b1 c0 9a bb
       -0.007323509 -0.035535906 -0.0010211326 -0.0047226776
000060 1e d9 09 bb 84 83 23 bc 4e 02 ba 3b a4 05 b1 3c
       -0.0021033953 -0.009980086 0.0056765443 0.021609135
000070 d8 a9 5d bb 82 c8 3e bc 2c a4 d5 39 7c 62 c1 3a
       -0.0033823159 -0.0116444845 0.00040748843 0.0014754082
000080 80 87 a0 b8 dc ae fc b9 b2 b7 8d ba 80 39 bf b8
       -7.6546334e-05 -0.00048195466 -0.0010812192 -9.1183e-05
000090 52 07 bf ba bb ab 11 bc d8 5f d2 ba 2e ec 0f bc
       -0.0014574325 -0.008891041 -0.0016050292 -0.008784337
0000a0 88 19 7e 39 0e 85 60 bb fe f0 05 ba 20 f2 f7 b8
       0.00024232839 -0.0034258994 -0.0005109458 -0.00011822977
0000b0 8b 5b 2d bb c4 08 51 39 c0 97 30 38 80 c6 95 bb
       -0.002645227 0.00019935059 4.2102998e-05 -0.004570782
0000c0 da e9 15 3b 86 c7 82 39 02 ca 01 bc 96 1a b4 ba
       0.0022874982 0.0002494419 -0.007921698 -0.0013740833
0000d0 03 df 3c bb f3 12 a2 3b eb a8 42 bb 2e 94 72 3a
       -0.0028819449 0.0049461066 -0.0029702734 0.0009253648
0000e0 87 7f 86 b9 70 6d 92 3a 9e bb 2c bb 1e d1 00 bb
       -0.00025653487 0.0011171531 -0.0026356946 -0.0019655894
0000f0 0a de 71 3a cf e8 9e ba 67 a6 ba ba 58 af c0 3a
       0.0009226507 -0.0012123826 -0.0014240266 0.0014700694
000100 6f 3c b1 39 e1 3e 27 ba 00 b3 fa 35 bc db 2e 39
       0.00033805097 -0.0006379914 1.8678547e-06 0.0001667579
000110 2f 9f 9b 3a 87 e0 8a ba 30 3d 52 39 67 71 9a ba
       0.0011873002 -0.0010595479 0.00020049955 -0.0011783064
000120 ac 10 c1 39 fc 23 8c b8 0e 0e 3f 3a 56 4e 9d 3a
       0.0003682425 -6.682423e-05 0.0007288166 0.0012001495
000130 80 bc 82 3a 98 b9 c3 ba a4 43 52 3a d0 ea 8a b7
       0.000997439 -0.0014932631 0.00080209435 -1.6560225e-05
000140 38 93 ea b9 76 a0 18 3a 8a 8c 41 3a 18 85 37 ba
       -0.00044741645 0.00058222504 0.00073833077 -0.00070007285
000150 54 5b 4b b9 fa b6 ab 39 c0 ec aa 37 b0 02 e2 b8
       -0.00019393611 0.0003275199 2.0375825e-05 -0.0001077702
000160 46 f2 13 ba 68 6b 0b 3a 50 30 08 b8 56 86 10 3a
       -0.00056437065 0.0005318434 -3.246992e-05 0.00055131817
000170 9c 49 28 b9 e8 54 6c 38 f6 de ab b9 fa 02 21 ba
       -0.0001604915 5.634586e-05 -0.0003278178 -0.0006142106
000180 5c c5 ff b9 0c 0c 45 3a b5 77 d3 b9 00 f8 1e b5
       -0.00048784434 0.0007516749 -0.00040334245 -5.9220474e-07
000190 f6 98 93 39 50 13 5e b9 f8 7e e7 b9 80 70 c3 37
       0.0002815199 -0.00021178764 -0.00044154353 2.3298198e-05
0001a0 a0 40 6e b8 ae 62 36 b9 e0 52 0e 39 70 44 97 b8
       -5.680381e-05 -0.00017393634 0.00013573049 -7.2129886e-05
0001b0 e7 75 82 39 4c cc e9 b9 e0 31 aa 39 58 a2 43 b9
       0.00024883376 -0.00044593436 0.00032462087 -0.00018657127
0001c0 20 51 60 39 40 15 66 39 18 2d e2 39 bc 34 d5 39
       0.00021392526 0.00021942426 0.00043139677 0.00040665816
0001d0 38 3f c7 39 c8 82 50 b9 4e dd 66 39 e8 69 b1 b8
       0.0003800334 -0.00019885146 0.00022016952 -8.459744e-05
0001e0 10 44 85 3a f0 97 a4 ba ee 25 d6 ba aa 41 bb 3a
       0.0010167379 -0.0012557488 -0.0016338208 0.0014286537
0001f0 14 82 92 39 3c ea 3b ba 30 fb 9e 38 80 c5 15 39
       0.00027944206 -0.00071683875 7.5808144e-05 0.00014283322
000200 3a 9a a4 3a bb 3b a7 ba 28 9e 99 39 be aa 9a ba
       0.001255817 -0.001275889 0.0002930027 -0.0011800153
000210 0c dc e2 39 90 78 c7 38 aa 6c 6d 3a 94 be b9 3a
       0.00043270027 9.511516e-05 0.0009057025 0.0014171177
000220 31 db 98 3a 2c 56 ce ba 26 11 68 3a 10 8d 85 b8
       0.0011662004 -0.0015742234 0.0008852653 -6.368209e-05
000230 7e 66 97 3a ae 22 bc ba 22 88 e9 ba de 49 d8 3a
       0.0011550931 -0.0014353597 -0.001781706 0.0016501506
000240 33 2e b4 39 8c 64 53 ba 00 89 8e 38 02 46 36 39
       0.00034366696 -0.0008063994 6.796606e-05 0.00017382953
000250 3c 3b bc 3a 18 0a bb ba f8 2e b2 39 8e d2 b0 ba
       0.0014360915 -0.0014269976 0.000339858 -0.0013490485
000260 58 3a 00 3a b8 26 88 38 64 b2 86 3a f4 36 cd 3a
       0.00048915064 6.492197e-05 0.0010276553 0.0015656636
000270 72 80 ab 3a b6 87 ed ba 07 8b 83 3a 50 68 61 b8
       0.0013084544 -0.001812211 0.001003594 -5.374133e-05
000280 6b 22 19 ba f4 c4 34 3a ca 9c 6e 3a a5 de 48 ba
       -0.00058416155 0.00068958034 0.0009102343 -0.0007662571
000290 80 f3 88 b7 b8 4b b8 39 0c e4 1d b9 c0 db 2b 38
       -1.6325852e-05 0.0003515163 -0.00015057641 4.0974235e-05
0002a0 00 ba 41 ba f0 24 5d 3a 9c 93 cf b9 28 33 28 3a
       -0.0007390082 0.0008435985 -0.00039592094 0.0006416314
0002b0 0e 56 ae b9 00 06 7c b9 e0 25 34 ba 58 ae 68 ba
       -0.00033251982 -0.00024034828 -0.0006872099 -0.0008876077
0002c0 e2 96 38 ba e8 82 54 3a 5c 84 ee b9 f0 6f d1 38
       -0.0007041526 0.0008106665 -0.00045493513 9.9867466e-05
0002d0 6d 97 c6 b9 02 9e 06 3a 3d 14 1a 3a 30 33 19 ba
       -0.00037878324 0.00051352393 0.00058776495 -0.00058441143
0002e0 18 a5 45 b9 72 65 90 39 b0 d0 10 38 b8 f4 c9 b8
       -0.00018848886 0.00027541403 3.452663e-05 -9.630009e-05
0002f0 b1 10 f9 b9 d4 86 c3 39 80 6c c9 b7 0a 24 0b 3a
       -0.00047505417 0.00037293753 -2.4011591e-05 0.00053077994
000300 ef 5b 0c b9 88 c9 d8 38 d8 1a 72 b9 76 50 ea b9
       -0.00013385688 0.00010337221 -0.00023088919 -0.00044691906
000310 b0 e3 c8 b9 36 be 17 3a 54 f2 b3 b9 e0 95 29 b7
       -0.00038316613 0.00057885365 -0.0003432209 -1.01080805e-05
000320 2d ad 0a bb 65 9d 2f 3b e6 21 64 3b 5c ae 52 bb
       -0.002116035 0.0026796695 0.0034810244 -0.0032147383
000330 80 bd 31 ba 72 f4 c4 3a 98 3f a6 b8 56 bd b8 b9
       -0.0006780252 0.0015026464 -7.927342e-05 -0.0003523628
000340 be 74 2d bb 34 34 25 3b 10 5c f5 b9 b3 ac 26 3b
       -0.002646729 0.0025208117 -0.00046798633 0.0025432527
000350 84 9f 60 ba 00 1c bf b7 0c 80 e3 ba 7a 16 3b bb
       -0.00085686916 -2.2782013e-05 -0.0017356887 -0.0028547333
000360 a5 8a 1b bb 24 37 64 3b ac c9 f3 ba b4 6b c5 38
       -0.0023733762 0.0034822905 -0.0018599532 9.413753e-05
000370 fa 2d c5 39 22 b0 f4 b9 cd b3 2d ba cc 7f 17 3a
       0.00037609023 -0.00046670536 -0.00066262187 0.0005779236
000380 68 c2 02 39 00 94 90 b9 e0 2f 4e 37 b2 f7 9d 38
       0.00012470188 -0.0002757609 1.2289704e-05 7.53248e-05
000390 8a 93 f0 39 50 27 ea b9 a8 d3 80 38 2d cf e4 b9
       0.00045886292 -0.00044661248 6.14294e-05 -0.00043641907
0003a0 60 b8 16 39 d0 3e 5e 37 40 70 9d 39 b4 29 07 3a
       0.000143738 1.3246856e-05 0.00030029006 0.00051560556
0003b0 28 8a e1 39 9c 8e 2a ba 40 7e b0 39 00 e5 52 b7
       0.0004301828 -0.0006506236 0.000336634 -1.2570294e-05
0003c0 8a 71 7f ba fe 7c a2 3a cf 98 cb 3a 6c 22 be ba
       -0.00097443967 0.001239687 0.0015533211 -0.0014506108
0003d0 f6 a7 ad b9 fe ed 33 3a 00 c8 d0 b7 1c 68 30 b9
       -0.00033122272 0.00068637717 -2.4888664e-05 -0.00016823452
0003e0 b2 c5 9f ba 5e 55 99 3a ec 75 68 b9 f4 63 9b 3a
       -0.0012189655 0.0011698415 -0.00022169173 0.001185535
0003f0 da 6e cf b9 00 f2 0b 35 58 c8 52 ba 95 d1 ab ba
       -0.00039564708 5.213369e-07 -0.0008040718 -0.0013108725
